Thesis-codes/Exp-1/results-archive/archive(without scheduler)/results-5/or/save_model/0/CNN_best_train_16.pth (torch, 2455 bytes, 6 tensors)

main.0.weight f8 [1, 1, 1]
00000000: e793 d718 b22a e23f
0.5677118764111783

main.0.bias f8 [1]
00000000: bc7e 5c7a b4a9 e23f
0.5832159414166749

main.3.weight f8 [10, 1]
00000000: 3f4a dbfd b869 e83f dc3c 45b5 7cf5 e53f
00000010: 5892 389b f284 cb3f 6389 8fc0 b755 e23f
00000020: 28d7 67a1 f575 e83f 7247 e2ed f4d9 ce3f
00000030: 4682 1c47 ba56 c73f d1e7 a716 ca1e e8bf
00000040: cc51 53f9 24c6 c33f 097c 0495 278d dc3f
0.762905593694377 0.68621669201266 0.21499474124097406 0.5729635964346865 0.7643993523076675 0.24102651229309974 0.1823342177604152 -0.7537584726808239
0.1544843881043917 0.44611539413921314

main.3.bias f8 [10]
00000000: 5259 49ca 8acf de3f 279a 3e18 1734 c5bf
00000010: 4064 d4ab 5314 e83f 6c9e b783 3b69 e3bf
00000020: a981 4085 51c8 e9bf b169 7c63 c5aa e33f
00000030: bd6e b351 9f9b e93f 493d 94f9 421b df3f
00000040: a01c 2024 c520 d9bf 5c8c b575 bc58 ecbf
0.48141736750166786 -0.16565216716590322 0.7524813037918037 -0.6065957615473514 -0.8057029345109658 0.6145960753522585 0.8002468677254552 0.48603891728358356
-0.3926251271045178 -0.8858320521361622

main.4.weight f8 [1, 10]
00000000: f87f 2a5a 7754 b5bf 5602 bbc3 1d9f c03f
00000010: d2ee 2739 75a0 90bf f130 0d4d 016b c83f
00000020: 30fd 86d9 cee4 ab3f 03f2 572d f243 d33f
00000030: a330 f114 d13b bd3f 6025 7843 d953 d5bf
00000040: 2d6c 487a 17ff c4bf 736b 7df8 9f96 d4bf
-0.08332010222738961 0.12985584313539061 -0.01623709832527604 0.19076553594857829 0.0544800415550476 0.3010220949943518 0.11419398080141945 -0.3332427176361161
-0.1640347811779476 -0.32169341341584995

main.4.bias f8 [1]
00000000: b1a4 7b01 2b3d cfbf
-0.24405419895564287
