Thesis-codes/Exp-1/results/sg7/save_model/2/MLP_1_best_train_95.pth (torch, 1823 bytes, 4 tensors)

fc1.weight f8 [10, 1]
-0.4808010958290888 -0.5607394488235207 0.11844749372347199 -0.6317422950404414 1.0326992131881674 -0.6901429891586304 0.773372583207001 0.11003923416137695
0.6028323980884922 0.11614266246482303
00000000: aae1 9df5 71c5 debf 52c5 48db 93f1 e1bf
00000010: dae1 d52f 9352 be3f 945b 169e 3b37 e4bf
00000020: 43f8 339c ef85 f03f 0000 00c0 a615 e6bf
00000030: 4fe8 0fdc 77bf e83f 0000 0000 882b bc3f
00000040: 684c 582b 674a e33f a5ef f488 86bb bd3f

fc1.bias f8 [10]
0.44343867015295696 0.5849688282530701 -0.11906309658997956 0.41472287351977827 0.9532713896158365 -0.5655806064605713 0.8160703475610637 -0.5996901988983154
0.17542493328342715 0.7713499211908108
00000000: f5ac 8596 4c61 dc3f 14d8 508c 10b8 e23f
00000010: 15b3 034a eb7a bebf fbea aace d18a da3f
00000020: 8899 5300 3381 ee3f 0000 0080 3c19 e2bf
00000030: eb52 c08f 3f1d ea3f 0000 0080 a930 e3bf
00000040: 857a adff 5274 c63f ba2c a907 e6ae e83f

fc2.weight f8 [1, 10]
-0.15156866588999604 -0.2138855891393219 -0.08048090687388797 -0.43293538862960956 0.3473271576409274 -0.015742987394332886 -0.11295256287951051 0.20621272921562195
0.33187238689038473 0.18496767060261493
00000000: eb45 8c1f 9a66 c3bf c933 385d 9a60 cbbf
00000010: 17cc f98e 659a b4bf 8a7e dca1 36b5 dbbf
00000020: 9925 c5af 9b3a d63f 0000 0000 ee1e 90bf
00000030: 211f 918b 75ea bcbf 0000 00c0 2d65 ca3f
00000040: 37f0 08ae 653d d53f aa1b 0748 05ad c73f

fc2.bias f8 [1]
-0.04458687646759225
00000000: d9a8 8450 17d4 a6bf
