Thesis-codes/Exp-1/results-archive/results-2-wrong-database/sg9/save_model/6/LSTM_1_best_train_1.pth (torch, 18327 bytes, 6 tensors)

lstm.weight_ih_l0 f8 [84, 1]
-0.0414522055459225 0.10813853212555478 0.14743706002844134 -0.20067640712261814 0.016703372344870057 -0.16968122057814894 -0.15680299867763178 0.04390051125529992
0.05898230253956906 -0.00019858328174435452 0.19825923195466882 0.19048881349302513 0.07571689290877671 0.05720798533257009 -0.11517131566013537 0.12779592003112883
-0.14152139786938764 -0.08636183304418885 0.1717795496620734 0.0637993118436043 -0.20717830004327012 -0.19356835924433485 -0.15278580210021242 -0.1799411037508012
0.1981205411522439 0.1723351780845459 0.012936348261875428 0.05955581309743252 -0.03593551599882281 -0.18468234078160703 0.03131217526143225 0.19689130316115716
0.12820523287338592 0.1329543072369483 -0.11833668912090586 -0.12474810301346717 -0.1247905619981702 0.009893255341068862 0.20855683222375485 -0.07240925449621938
0.05836556447798234 -0.009450160727422434 0.08579014103333299 -0.21904967053151994 -0.011413470094412445 0.10748676462323101 -0.15807457678374975 0.19684203102425643
0.04071699702690544 0.15664987502167618 0.2117142579431659 0.017932093963501476 -0.08561617138639513 0.1493112134336782 -0.21564047124782706 0.17581336472339054
0.03864788248306442 0.15128311051190976 -0.01195843403808305 -0.10049141759485888 0.04186736153207901 -0.20599765448116092 0.12912001302717832 0.042241083760360176
0.015567073388222103 -0.01769689328170401 -0.11987483999797459 0.06837714803582613 -0.18905699784979174 0.03913246437732133 0.06867511854156332 -0.047608335865541855
-0.19325415451107553 0.1056223659856792 0.08909007581684665 -0.14259531980949255 0.14425184955808623 0.1026031296742846 0.07168564553511442 -0.20340827950159318
0.207809654909484 0.16593736806417123 0.07404803730959475 0.1611751108413553
00000000: b967 5536 3939 a5bf 0fad ea82 f7ae bb3f
00000010: 8f30 85b3 37df c23f 88d0 d5b6 c3af c9bf
00000020: dc06 d157 b01a 913f 1473 903e 1db8 c5bf
00000030: b719 9ee3 1e12 c4bf e006 3db8 207a a63f
00000040: 2384 e6a8 ed32 ae3f 543c b866 5907 2abf
00000050: 7a0c b0fa 8e60 c93f df6a 1afc ef61 c83f
00000060: 2945 ccaa 2e62 b33f 6f99 2574 5d4a ad3f
00000070: 3794 320a de7b bdbf 6c47 8ce0 9d5b c03f
00000080: af40 c487 5f1d c2bf 9e22 8c20 cf1b b6bf
00000090: 8bc9 f54d dffc c53f 6626 e0d5 2655 b03f
000000a0: 6138 908b d184 cabf 8655 3f16 d9c6 c8bf
000000b0: 1822 a833 7c8e c3bf 406d e861 4f08 c7bf
000000c0: 3515 758e 035c c93f 2867 e940 140f c63f
000000d0: 9222 b745 5f7e 8a3f 0090 147b 197e ae3f
000000e0: 1dac f5d3 2366 a2bf 2322 e7c2 aba3 c7bf
000000f0: 3ecf 6d41 2608 a03f b6d4 f8f5 bb33 c93f
00000100: 4402 2f71 0769 c03f b6f6 b890 a504 c13f
00000110: 1ef3 b031 504b bebf 304e aede 7def bfbf
00000120: a1b0 a136 46f2 bfbf 737f 2041 ea42 843f
00000130: cb12 e182 fdb1 ca3f 502f fdb3 6989 b2bf
00000140: be80 4a5d 17e2 ad3f 7c39 211a 9b5a 83bf
00000150: 4cb1 0eba 57f6 b53f 39f4 90d1 d109 ccbf
00000160: 18a4 5006 f25f 87bf b643 cfaa 4084 bb3f
00000170: 62c0 cea8 c93b c4bf 671b dda2 1e32 c93f
00000180: 1e68 3eb5 dbd8 a43f bdfe 1165 1a0d c43f
00000190: 383d fbea 7319 cb3f 7ef7 7c74 ca5c 923f
000001a0: 1a01 1d00 f1ea b5bf 2ed6 4f3d a11c c33f
000001b0: 810a da61 1b9a cbbf 36e5 d765 0d81 c63f
000001c0: 7519 a6be a7c9 a33f b3fb 0ab6 3e5d c33f
000001d0: bdea d6d8 a97d 88bf b63d 1938 ceb9 b9bf
000001e0: 1ca5 1989 a36f a53f 444f 8692 215e cabf
000001f0: 4ffc 9a2c 0187 c03f 80c0 9892 9fa0 a53f
00000200: 1d57 c638 a1e1 8f3f 67fa 8a67 221f 92bf
00000210: 838f 6715 1eb0 bebf 3d8d 9b2e 2a81 b13f
00000220: 5622 6c0b 0533 c8bf 32ca 6c9d 2b09 a43f
00000230: 1358 2f4c b194 b13f f774 1eab 1e60 a8bf
00000240: 4079 b858 8dbc c8bf 7077 a23f 110a bb3f
00000250: 7d11 0872 9bce b63f bb7c 923d 9040 c2bf
00000260: b0a7 1e38 d876 c23f ad15 6bde 3244 ba3f
00000270: ac7c 2a8f fd59 b23f c6f4 1852 4809 cabf
00000280: 3c8c d0bb 8199 ca3f 138d 8288 6f3d c53f
00000290: f8e3 93ea cff4 b23f f113 ffd2 62a1 c43f

lstm.weight_hh_l0 f8 [84, 21]
-0.043084107640394664 -0.09143375006458139 -0.09849839547509587 -0.18742147744852816 -0.1947958138312168 -0.14750170988821623 -0.0715322948705738 0.0065210950049834
-0.0243465264545998 -0.05898101668735587 0.15413607600733562 0.13401881993181916 0.15816959398870875 0.10310325249730286 0.2081527774449713 0.2116482349096034
-0.11859703310008489 -0.1948990618431774 -0.10706953324435864 -0.021986784884768677 -0.13400418500466682 0.2191734999958399 -0.06510172416852991 -0.07834405649842627
-0.1531723049573773 -0.0829031335943649 0.19291355037047028 0.06467383739334218 -0.05644321232324289 -0.07565304007144764 -0.08318165569161567 0.10309681514365598
-0.023810286172285988 -0.18199632708619137 -0.19960178829245545 -0.010982976276763208 -0.15393514470771216 0.20891132498980144 0.1702836921103928 -0.1855076950194457
0.03274632196622517 0.11175523695997676 0.11766772712852186 0.0659952096584566 -0.10723017231594745 -0.21788146520741222 -0.09388711691557358 -0.04568665593388538
0.18965092993081523 0.12632438053671288 0.18772621992392896 0.12267968382145145 -0.0026436987371229238 0.11346065292412744 0.13480843570189624 -0.17177091483161505
0.08820152633782016 0.10231843880447575 0.1852899614972917 -0.16440100436594787 0.18141786564973172 -0.07463881273769889 0.19264987743143708 0.14706061214632893
0.13507408054455497 0.06354785769857366 0.10603495460223444 0.06345413711651199 -0.0006990597503447767 0.2063704344593763 0.013077121947547017 -0.14367839015001488
0.0159750758954501 0.16194078640295465 0.06231539399934772 -0.008544825310686241 0.06762225684156951 0.11144244970593388 -0.21222230832950978 0.06129361826738645
-0.009976369064909273 0.0347804726413442 -0.20587672218748984 -0.12441640451144376 -0.1756967467959459 0.19406379900397042 0.1613400980166314 0.04986363193435807
-0.05503136275255499 0.15306626745324817 0.19554756448123176 0.054537688480898426 0.17040754118067503 0.17828356996570216 0.05714506936650149 0.16141742361029726
0.024736400126683666 0.12285514470926945 -0.026709612646164275 -0.1354371264060429 -0.09003202707845176 -0.16055294803356132 0.005694122481982061 0.04880375319129872
0.06994101233547825 0.12459782170600352 0.1213084811505144 0.20956998771624008 -0.07600491082947715 -0.10599041984754827 0.031296857631887484 0.1350068850312599
0.0509241891681024 0.1517729026323362 -0.06125498576755176 0.10029359621962655 0.18464623638627103 -0.027582683029990344 -0.11376264479226307 0.07755080089377635
-0.18305115181768494 0.011640844771821552 0.15606916730238726 0.029523247694427417 0.11683775521530032 -0.0327431730557865 -0.15352616038800007 -0.13645457115379234
0.22008316436033237 -0.054682670511999695 0.1401217465242854 0.12983796772090597 0.1696886858899045 -0.1649655989635335 -0.03104677457590141 -0.00878407386970842
0.06394644962116035 0.07018182601735899 -0.17612967871333093 0.07192564552916737 -0.09176317338756607 -0.1311790871363018 -0.21416728861248055 -0.1733722199974237
0.17634966171471045 0.08249439633493912 0.08450875933821801 0.1359538935430086 0.2185741173950949 0.20075935270534837 0.07269693262765617 -0.18953492184230264
-0.14496932990893036 -0.11912548805155627 0.19312903190943811 -0.05608765656642059 -0.013264365216657508 0.06198655692393958 0.07150833894838823 -0.116997893361392
-0.19129500713732794 0.10835678043641421 0.10180191563803975 0.19491707385049067 0.02567240742946595 0.09575342495096831 0.20236641971388394 -0.12882980891251491
0.17713214915546072 -0.12382410125035634 0.1933966664447161 -0.05837333184579375 0.1331067922324869 0.03143514720848346 0.16651741426460986 -0.08976431013641988
0.034446136473606975 -0.012396555837534635 0.035997039936970544 -0.03462811112675251 -0.018274636791408685 0.07694146054334475 0.1482804476391131 0.18424896983090328
0.13126746842156473 -0.1774015338909665 -0.12425852063088226 0.12775036704899634 -0.15915931922422896 -0.0537725478521765 0.2063611319586212 -0.13003265166265754
-0.10402109765421091 0.21636273228724262 0.09822220066375804 0.06864891453457479 0.22965930588198435 0.04041523067574277 -0.13586532292948716 0.060682609786888574
0.23204863597590314 -0.0782609485919252 -0.08409446571179224 -0.015721829597614295 0.1551446254067768 -0.10661767021936877 0.15300108263020182 -0.2033998317336221
-0.01044998419716443 -0.07387066108554113 -0.18952620883194385 -0.0119819340557017 -0.05132268558191649 -0.18690855361975317 0.058591490065739577 0.07635065650256415
-0.2043873898073303 0.0009657142794978698 -0.15345631052785258 -0.10880917087866496 0.16225472880853017 -0.07878813549189498 0.09966500277747208 0.011973391398443363
-0.060941712753052726 0.05150036290387777 -0.128744460899955 0.029284425153974405 -0.21705510257218266 0.16150476158710697 0.2244875143761868 -0.20147644452660393
-0.08795626387059498 -0.029592445479260262 0.1104945549715926 -0.08254537717360563 -0.1878126248113051 -0.009485512631351355 -0.07688351033305733 -0.12243450230356656
0.1924411943545695 0.0964016409178151 -0.030738962419624264 -0.002894824503627394 0.11987091862215231 0.1016276291277652 -0.12703468551165875 -0.1275803949670561
-0.227432754572194 -0.18628606369834594 0.12467529480716828 0.06095048901753706 -0.04863277833821872 0.03318736508623831 -0.006752403009423098 0.12885115940486816
00000000: f8ee 95c2 1e0f a6bf fd2b 47c6 3368 b7bf
00000010: 9825 46db 3037 b9bf 9ace 1a4e 6dfd c7bf
00000020: 84c1 e6b8 11ef c8bf cd77 0906 56e1 c2bf
00000030: 8ab2 13c3 f04f b2bf d8fa 7c1c ddb5 7a3f
00000040: 6527 93bb 4bee 98bf 9d98 8383 c232 aebf
00000050: 59ea ca1e bbba c33f 33ed 5358 8727 c13f
00000060: db98 b3b8 e63e c43f 354f 9689 f964 ba3f
00000070: d44e d90d c0a4 ca3f 09b0 9813 4a17 cb3f
00000080: 4b47 910a 605c bebf 889a 51d4 73f2 c8bf
00000090: a8b8 aeaf e868 bbbf ded9 1828 b483 96bf
000000a0: 84a3 0f94 0c27 c1bf 00e5 5093 e00d cc3f
000000b0: 8290 37b0 81aa b0bf da28 7f28 5b0e b4bf
000000c0: a3f1 386c 269b c3bf 4312 86c7 2339 b5bf
000000d0: 0bf1 e526 64b1 c83f bedf 82f0 768e b03f
000000e0: cfde 04ee 1fe6 acbf 0d29 f364 ff5d b3bf
000000f0: 5497 d29a 644b b5bf 601f 5d89 8d64 ba3f
00000100: 0369 ac41 b961 98bf 53e5 69d8 a74b c7bf
00000110: 1838 7828 8d8c c9bf e41c 5f1f 3e7e 86bf
00000120: 5fc1 1c96 25b4 c3bf 5330 4c36 9bbd ca3f
00000130: aa00 5424 dbcb c53f fae6 a155 b7be c7bf
00000140: bf85 d13b 20c4 a03f 4d5b e6bf fd9b bc3f
00000150: 84c8 cfdf 781f be3f eefc 2ce3 0fe5 b03f
00000160: f0ce 3dc3 6f73 bbbf fb35 bc33 8ae3 cbbf
00000170: b609 ab70 fc08 b8bf 4804 33ca 3d64 a7bf
00000180: 3cbb da4e 7b46 c83f a7db 8bb5 652b c03f
00000190: b265 96ab 6907 c83f b091 e58d ef67 bf3f
000001a0: 4db5 b9f3 3ca8 65bf 9822 b1e1 c10b bd3f
000001b0: 9b43 481f 6741 c13f 768a cdde 96fc c5bf
000001c0: 3e06 140f 6094 b63f 7e68 718c 8a31 ba3f
000001d0: 4438 74da 94b7 c73f d134 9794 170b c5bf
000001e0: 9417 f05b b338 c73f cf7e b87b 871b b3bf
000001f0: 3ebe 924d c0a8 c83f 605f d9d3 e1d2 c23f
00000200: f1f1 3c83 1b4a c13f 1ad6 8b22 ac44 b03f
00000210: 68db 3f56 1b25 bb3f fc18 b6c3 873e b03f
00000220: 96d3 0162 23e8 46bf 74a2 6ead 586a ca3f
00000230: a461 b998 2dc8 8a3f fe09 6bb1 0d64 c2bf
00000240: 1e9b 1632 c55b 903f 7d9e bec6 79ba c43f
00000250: 8173 87a6 cde7 af3f 4550 130a f37f 81bf
00000260: c7c2 9d35 b14f b13f 3184 df0c 7e87 bc3f
00000270: 36e1 e0c0 192a cbbf e1e8 d28b e061 af3f
00000280: f9d1 ee96 7d6e 84bf ef67 1101 bfce a13f
00000290: f3c6 661e 2b5a cabf 306a 76e4 c0d9 bfbf
000002a0: 7347 c022 3b7d c6bf 00a0 0723 15d7 c83f
000002b0: 24e7 41d6 caa6 c43f 52f0 d5d8 b987 a93f
000002c0: 2896 8d1e 122d acbf 098f 6aea ac97 c33f
000002d0: 1b32 21dd b307 c93f cb8b d928 5dec ab3f
000002e0: 546f 2e10 eacf c53f 505a 35fb fed1 c63f
000002f0: a811 1d58 1e42 ad3f 4295 b47d 53a9 c43f
00000300: 036f 42b6 7f54 993f e4f1 ab4c 6f73 bf3f
00000310: ee66 37c3 c359 9bbf 8d01 4af6 0056 c1bf
00000320: 5c00 e5c3 560c b7bf eb4e 8abe ff8c c4bf
00000330: 60b8 6e5d b852 773f d2e2 c137 cefc a83f
00000340: 7248 a178 a7e7 b13f cf4f 6191 a4e5 bf3f
00000350: 18d6 4497 120e bf3f 9270 bb79 30d3 ca3f
00000360: 9116 59ce 0e75 b3bf 4d3d ef2a 3022 bbbf
00000370: 7e38 fe47 2406 a03f 0cd8 f8d5 e747 c13f
00000380: 54c9 1a3e bc12 aa3f bfc8 9c62 4b6d c33f
00000390: 655a 2d41 d05c afbf 52f3 c253 d7ac b93f
000003a0: f6e3 4de5 7ca2 c73f c1ef 3286 a23e 9cbf
000003b0: e1a4 e376 8c1f bdbf 6b0c 9e89 5eda b33f
000003c0: d0aa 465b 386e c7bf aa06 bebc 27d7 873f
000003d0: 7725 bd10 13fa c33f 8bef 469d 573b 9e3f
000003e0: fc77 9641 14e9 bd3f f83c e292 b6c3 a0bf
000003f0: 6134 f9c6 bea6 c3bf 2064 3fe8 5777 c1bf
00000400: 04f6 a964 af2b cc3f 2e93 03f3 5dff abbf
00000410: d7dd 6367 82ef c13f 75f8 91d0 879e c03f
00000420: 58fd 32de 5bb8 c53f 01b8 41be 971d c5bf
00000430: 5893 ccc5 b9ca 9fbf e0e6 f76f 62fd 81bf
00000440: 3f75 d165 cb5e b03f 6fa3 84a7 6ff7 b13f
00000450: 13e1 f6d4 6a8b c6bf 499d 4a17 b869 b23f
00000460: 0c41 ad94 ca7d b7bf d5b3 95f0 79ca c0bf
00000470: 2757 3b6e d569 cbbf c840 7697 0f31 c6bf
00000480: 18d8 dc2e a092 c63f 9da0 5c4e 5a1e b53f
00000490: 594b 95b5 5da2 b53f adfa 43eb ef66 c13f
000004a0: 4464 fb96 3cfa cb3f 2728 1e83 7bb2 c93f
000004b0: a6c1 2724 449c b23f 129d 6129 ae42 c8bf
000004c0: cae1 70e1 5a8e c2bf 552d 4d0b 027f bebf
000004d0: 51c6 fabd 73b8 c83f 04f9 5275 85b7 acbf
000004e0: 7642 76f6 582a 8bbf 4b57 8fb5 b3bc af3f
000004f0: 46b3 2cd9 5e4e b23f a125 b0ed 92f3 bdbf
00000500: 147e c5d3 5a7c c8bf 5b35 461c 45bd bb3f
00000510: 68e5 55ba b00f ba3f 0a58 cfec 0af3 c83f
00000520: 9acd 4619 de49 9a3f 5af7 a4e4 4b83 b83f
00000530: 2968 3d91 24e7 c93f 33bc 03c4 7e7d c0bf
00000540: e0b0 d829 44ac c63f f6ad 53b1 efb2 bfbf
00000550: 7c8a c4d2 38c1 c83f 61f4 78fe 1be3 adbf
00000560: b0ca c1b3 a409 c13f da27 6982 4418 a03f
00000570: dc90 3d50 7150 c53f e348 6238 cbfa b6bf
00000580: 3461 418b eca2 a13f 44f3 3d8f 5d63 89bf
00000590: ad6e 903a 346e a23f 5791 9f99 c6ba a1bf
000005a0: d425 761d 96b6 92bf d279 bd80 6fb2 b33f
000005b0: 8184 9f8c dafa c23f ee69 df61 7895 c73f
000005c0: 5a1d f355 5fcd c03f 3935 29ed 17b5 c6bf
000005d0: 27e6 5b0a 68cf bfbf 0083 43c0 1f5a c03f
000005e0: dbf9 7523 555f c4bf 0838 e54c 1388 abbf
000005f0: c2c2 76a4 0a6a ca3f b0d1 26f1 e8a4 c0bf
00000600: e4d3 846c 20a1 babf c29a 9f25 c6b1 cb3f
00000610: ad8c 9713 1725 b93f 41f7 d4aa f992 b13f
00000620: 7c1a fee3 7965 cd3f f974 061c 4eb1 a43f
00000630: 9441 52ef 0864 c1bf 93f4 f080 ca11 af3f
00000640: 6a88 4c0b c5b3 cd3f fe99 c1d6 e808 b4bf
00000650: c8b9 0104 3787 b5bf 8bf5 d11f 6219 90bf
00000660: f9d9 2272 c7db c33f 3a95 c4ae 4b4b bbbf
00000670: 9b1c 131b 8a95 c33f 5166 a774 0109 cabf
00000680: a6dc f622 cd66 85bf 740d 7f09 30e9 b2bf
00000690: 2983 5512 6542 c8bf 04ea 4bf7 fb89 88bf
000006a0: 8704 3c90 f746 aabf 36db 9196 9eec c7bf
000006b0: 5c01 502b b4ff ad3f 8ae6 b474 b78b b33f
000006c0: 08f9 77b1 5d29 cabf ca67 b59f ffa4 4f3f
000006d0: 407d 8ad5 74a4 c3bf 02c2 6df6 eada bbbf
000006e0: 6b4f ed50 c3c4 c43f 2621 4091 752b b4bf
000006f0: 6b28 7c47 a583 b93f 5103 d463 8185 883f
00000700: 0222 798e c033 afbf a8fe ce6c 415e aa3f
00000710: 66a0 8dd0 b27a c0bf 941f 4681 bcfc 9d3f
00000720: 151d 7d2b 76c8 cbbf 7e1b 9522 30ac c43f
00000730: 1e93 4dc2 01bc cc3f cffb 13ea fac9 c9bf
00000740: 0974 cd3c 4d84 b6bf 8f18 2b66 7b4d 9ebf
00000750: 5433 fd03 5f49 bc3f f688 659f b121 b5bf
00000760: a394 ab7c 3e0a c8bf 0cb2 4cf4 236d 83bf
00000770: cb6e 7b42 a3ae b3bf 28bd 4b17 de57 bfbf
00000780: a3f9 13be e9a1 c83f 07d3 0527 c7ad b83f
00000790: e195 38d9 087a 9fbf a07e 4312 e3b6 67bf
000007a0: 433f 394b dcaf be3f e548 79af 4404 ba3f
000007b0: d477 dd2d ac42 c0bf 3444 ffeb 8d54 c0bf
000007c0: 53a0 7639 841c cdbf da79 a4c3 38d8 c7bf
000007d0: dde1 d059 b8ea bf3f add4 020a e734 af3f
000007e0: 38d9 f340 65e6 a8bf ef21 5f2f effd a03f
000007f0: 48a5 8461 68a8 7bbf 2509 d9dd 317e c03f

lstm.bias_ih_l0 f8 [84]
-0.17794577526869548 0.03861678079947758 -0.04387497315283003 -0.18845174720399127 0.1688628864008216 -0.2257403164822012 0.04984898487707639 -0.1876817732779817
0.000703444602708265 -0.1462990513433015 -0.16843370246794287 -0.0527163907429554 0.11155305869170122 0.12817602646657725 0.18032125993288273 -0.17457564734632564
-0.16926421534777175 0.08393681403104293 0.03076402377319924 -0.1447141336573551 -0.08032493640369841 0.21916900462098574 0.04380954255085845 -0.08479979518217384
-0.09882220741067588 0.11445658034595677 -0.18033264740038327 -0.006178665794733322 -0.006945239315134984 -0.029421119196497602 0.16946425053275457 0.1767995078889603
-0.20282018610859 0.1774426450182966 0.05033769495417281 0.16915908730881363 0.02327161866961038 -0.16769791127993997 0.06681813497878658 0.13880834765768588
0.054648630202787644 0.023511348006365652 -0.03994188308738014 0.008923948663249146 -0.17012481213503206 0.07538223439385411 -0.0926258839848616 0.023898266848410857
-0.0232478282985564 0.15677957944521306 -0.1902622508485029 0.006760102369128243 -0.14997169178473038 0.04710241286996878 -0.14785726729767787 -0.10097701383693126
0.001640393387274799 0.03197706828806229 0.12535278913254472 -0.01744069694472663 0.18974562675091292 0.11759534968770308 -0.06708404175679049 -0.17277773011568318
-0.16881736371525544 0.133906974973783 -0.07399143377621178 0.08984988958201943 -0.02281938933632428 -0.07029246635254914 -0.0047781017294567275 -0.2126443301462143
-0.10620692732519117 0.048006414849377343 -0.10062876524504012 -0.08886545793027278 0.15331122968836222 0.22427425468384518 -0.15528772563584814 -0.13108500626000316
-0.09781314375644252 -0.18491985024600308 0.0582309676694897 0.19339493620171155
00000000: d8c5 9e5a edc6 c6bf eb9a 3825 94c5 a33f
00000010: fbca 9bcd c776 a6bf f0be 8ed5 2f1f c8bf
00000020: b4c2 4c8f 4c9d c53f d901 5706 0fe5 ccbf
00000030: d759 925f ce85 a93f 4261 24d3 f405 c8bf
00000040: d545 16c8 eb0c 473f 6e47 7a64 edb9 c2bf
00000050: e46e d24d 3c8f c5bf 6d86 688c a4fd aabf
00000060: 0b81 d9c2 bd8e bc3f 2110 e770 1268 c03f
00000070: 28b6 175d c414 c73f 5ae7 03ac 7e58 c6bf
00000080: c2a0 a626 73aa c5bf 799a 310f e27c b53f
00000090: 4b3d ffaf 9a80 9f3f 65e5 a923 fe85 c2bf
000000a0: ef3b e8ce 2c90 b4bf cf6e 92dd ba0d cc3f
000000b0: c06e 0451 346e a63f c8d2 037b 70b5 b5bf
000000c0: 9c87 f284 694c b9bf 82db 65c5 064d bd3f
000000d0: e92c 7ee3 2315 c7bf d237 57f8 cc4e 79bf
000000e0: d5d8 8a7b 9c72 7cbf 63ee 0ae3 9120 9ebf
000000f0: ef8d f02a 01b1 c53f 457e 2ac4 5da1 c63f
00000100: 250b 2709 03f6 c9bf 1e79 a2ca 70b6 c63f
00000110: cc1b 2bc3 dcc5 a93f 1202 e845 01a7 c53f
00000120: 659f 71e4 83d4 973f 6105 470a 2077 c5bf
00000130: 6c7b 8348 fe1a b13f e3ff ccd0 78c4 c13f
00000140: cffd fbbe e7fa ab3f 9abf 16db 5b13 983f
00000150: 24b0 3333 4373 a4bf 2559 471d b846 823f
00000160: 70d6 2d5c a6c6 c5bf 4cc7 6b07 404c b33f
00000170: d862 7a76 54b6 b7bf f415 2e8a c978 983f
00000180: f835 fb58 47ce 97bf e5eb 326f 5a11 c43f
00000190: ac61 8770 835a c8bf 5d00 7d29 7bb0 7b3f
000001a0: 5546 c5bb 4532 c3bf 55ac adb5 ce1d a83f
000001b0: 8f7d c2a7 fcec c2bf d1cd 132c a1d9 b9bf
000001c0: 3edf dbfc 4ee0 5a3f c7d2 095d 4c5f a03f
000001d0: 66b1 e468 8f0b c03f 26fa fc5b f9db 91bf
000001e0: 0523 baae 9549 c83f ac03 1295 ba1a be3f
000001f0: 47cd 6d75 6b2c b1bf f777 29a6 941d c6bf
00000200: efb4 13b0 ce9b c5bf fcfd 1b1f dd23 c13f
00000210: 42c3 4044 1af1 b2bf efd1 4d01 6700 b73f
00000220: 1325 a84b f75d 97bf 57ae 23e4 affe b1bf
00000230: a4bf a3ea 3392 73bf 5c33 d4ed ed37 cbbf
00000240: 8568 788f 6030 bbbf 2875 8dfb 4b94 a83f
00000250: bda9 c387 cec2 b9bf 50f9 8dfb e2bf b6bf
00000260: e57e cfce b39f c33f 87d7 99ce 04b5 cc3f
00000270: 8cc0 89db 77e0 c3bf 4bfb 70bb 64c7 c0bf
00000280: b588 8d3d 480a b9bf db09 9822 74ab c7bf
00000290: 2781 820b 73d0 ad3f c863 194f 2ac1 c83f

lstm.bias_hh_l0 f8 [84]
0.03277270746407752 -0.020910750466734823 -0.13343563089246951 -0.005425537730381528 -0.06662043216645509 0.10354493263183527 0.1684166304268509 -0.034242549511654896
0.06304754865429787 0.11244028598179441 0.08160487663838797 0.03396305297404761 0.04154191977568556 -0.07468632566622031 0.19923974438226932 0.21023925579374242
-0.19479301881552233 0.21496945973340517 0.0434982283039152 0.16644027658567925 -0.18940069128460393 0.0938397485632466 0.1827880834482283 0.024101616112763343
-0.19738414998803788 0.22866363949093094 0.0035312457509001746 0.1735133641582696 0.09108120023240371 0.1198542432951102 -0.07229054954849808 -0.10487177774031209
0.08417100778198151 0.16722754139204538 -0.21593237631390874 -0.10146467112643473 0.005736155694108415 0.1755243938987023 0.16506703396178798 -0.19834221117162168
0.03932758408881978 0.17980143212997643 0.02896749377228472 0.09668245996810455 -0.030534906396201978 0.22934380346467026 0.16133848054379427 0.04510676175006804
-0.006400337034213133 0.1423628550017774 0.045288808397560366 0.023367148496447592 0.07739187973988952 -0.08346611381526908 0.20488129194838536 -0.203479017149042
0.0003228178133536029 -0.10451129485871956 0.03369529959435188 -0.028695022453797975 0.20562004238697554 0.16031402840054798 -0.18773129336277816 0.013817590585915598
0.15458645668021423 -0.055133313355341336 -0.09888161072809701 0.04109546572528417 0.03486294604041534 -0.17393351442631796 -0.06280580131918602 0.12089078974495246
0.21092719969564455 -0.050300106923960974 -0.09432504506882018 -0.21186785296410915 0.14501596186800392 0.17560384357392086 -0.2156026938641883 0.027330460287009077
0.11432165709490254 -0.023353577868035547 -0.1391880051803562 -0.0670599569104711
00000000: b9e8 8495 95c7 a03f 18ca 8eb5 a069 95bf
00000010: c6f2 6633 6b14 c1bf d1de d7b1 1639 76bf
00000020: c97a 6661 090e b1bf 47fc 51b3 eb81 ba3f
00000030: 8296 e417 ad8e c53f 1885 914c 3d88 a1bf
00000040: 722c 9057 e223 b03f 1571 0bf7 e2c8 bc3f
00000050: 3622 5ba4 0ee4 b43f a779 97f3 9a63 a13f
00000060: 1102 b385 fb44 a53f d5df 319e a41e b3bf
00000070: 28b6 171d b080 c93f a618 fcb3 1ee9 ca3f
00000080: c3a0 a646 faee c8bf 43cd 9887 1e84 cb3f
00000090: a89e ff57 6645 a63f 9b1a 563c ea4d c53f
000000a0: 051e 7427 483e c8bf a7dd 24bb e105 b83f
000000b0: c11b 4194 9965 c73f efb4 f013 18ae 983f
000000c0: cc43 7942 e243 c9bf d0ed b2a2 d944 cd3f
000000d0: 59c7 7420 8fed 6c3f 4146 3d98 af35 c63f
000000e0: 6e52 47f8 1851 b73f 7144 3d87 c4ae be3f
000000f0: 05e4 1e2a a281 b2bf 7003 ab77 e0d8 babf
00000100: b1e9 b12d 3b8c b53f 1e79 a24a b667 c53f
00000110: 0939 350f aca3 cbbf 96fb 2fb4 96f9 b9bf
00000120: ce7d c691 cb7e 773f 9ffa b855 9577 c63f
00000130: abbd 41a4 ea20 c53f 1d00 330f 4763 c9bf
00000140: d3fd fbbe be22 a43f dbd7 62bb bb03 c73f
00000150: a89f 9899 a7a9 9d3f 29eb a883 2ec0 b83f
00000160: 0db4 6ee1 8a44 9fbf aae3 b543 235b cd3f
00000170: 8fce c244 bda6 c43f 050b 17c5 3b18 a73f
00000180: dad7 ec63 3d37 7abf e5eb 322f f238 c23f
00000190: 5579 e23d 1830 a73f 1b40 5fca 8eed 973f
000001a0: 4b73 7548 f4cf b33f d429 2905 095e b5bf
000001b0: 7182 3dd8 8c39 ca3f e3e6 09b6 990b cabf
000001c0: 827d 6ff3 fb27 353f 9716 7b91 40c1 babf
000001d0: 8bc5 92a3 8240 a13f 25fa fc5b 3a62 9dbf
000001e0: 0523 baee c151 ca3f d801 898a 2b85 c43f
000001f0: a8e6 b63a 9407 c8bf c87f 689d 654c 8c3f
00000200: 114b ec2f 7dc9 c33f 0108 9003 6f3a acbf
00000210: 42c3 4024 4e50 b9bf d9a3 9b02 770a a53f
00000220: 87ed 2b5a 8ed9 a13f 33d7 1112 7443 c6bf
00000230: f93b aa7e 0a14 b0bf 4e99 57e4 b2f2 be3f
00000240: b8cb 4398 a9ff ca3f d88a 7284 efc0 a9bf
00000250: bda9 c3a7 af25 b8bf a8fc c65d 7c1e cbbf
00000260: e47e cf0e e28f c23f 87d7 99ce 2f7a c63f
00000270: 8cc0 897b de98 cbbf 8e25 7824 84fc 9b3f
00000280: 4b77 7222 2f44 bd3f 304f c014 00ea 97bf
00000290: b75f 1f9d e9d0 c1bf 7338 cd61 d72a b1bf

linear.weight f8 [1, 21]
0.13852249927107005 -0.09818933961706613 0.09996170407748109 0.13882581166361674 0.0343994911862172 -0.05359125453193041 0.08200225987759932 -0.01032599483512582
0.006198507001313363 0.21797798782018168 0.1250799725540365 0.03919426183300312 -0.19052202508043664 0.15926085049163383 0.03452377789600508 0.049596799071577
0.14054227598108449 -0.04854703458784938 -0.131244349483824 -0.024370904568897317 0.1825147084663649
00000000: 2791 10f2 1abb c13f 629c 78c2 ef22 b9bf
00000010: 7a7e dd19 1797 b93f 38cb 7750 0bc5 c13f
00000020: cea5 4963 cf9c a13f e6eb 211b 5070 abbf
00000030: 6e54 5fa0 19fe b43f 289b ec90 cb25 85bf
00000040: 46b8 ac0d 9b63 793f a6c0 77e4 b3e6 cb3f
00000050: 7588 c0db 9e02 c03f d0f7 8631 4511 a43f
00000060: 76af 7195 0663 c8bf f385 32d8 a862 c43f
00000070: c8d3 fec1 19ad a13f 7156 ff6b c064 a93f
00000080: 2ca7 850f 4afd c13f a2c4 be2b 28db a8bf
00000090: 47ae 6866 9dcc c0bf f8af 63b8 aff4 98bf
000000a0: 1d75 f357 a45c c73f

linear.bias f8 [1]
0.045742926073991226
00000000: e1b3 05e7 9d6b a73f
