Thesis-codes/Exp-1/results/ew2/save_model/4/GRU_best_train_20.pth (torch, 5143 bytes, 6 tensors)

gru.weight_ih_l0 f8 [30, 1]
-0.04441561069260647 0.05251436581387309 0.23128377101689415 -0.12499658265876341 0.317690303616986 -0.1616998695883668 0.2848579363254475 -0.14805051467251296
0.07718405137181476 -0.07991117520909326 -0.028126024594059718 -0.18485052759968856 0.10797195538780384 -0.23031714002268477 -0.09719111437866634 0.027387505805944058
0.06879780331316665 0.2992691750036264 -0.20660758841991458 -0.4223003110059566 -0.13515727793615762 0.1980669416544665 0.20870382967307807 -0.25372212052724186
-0.01096768323640548 -0.010216629799659392 0.1953898745312891 -0.11600624303037135 0.0865123346886438 0.3689048361603262
00000000: f195 b696 a4bd a6bf 9845 7bb7 29e3 aa3f
00000010: 7d7a 4ee4 b49a cd3f 0593 a1aa c6ff bfbf
00000020: 18a4 12b6 0955 d43f d422 d3d1 94b2 c4bf
00000030: b786 21c8 1c3b d23f 1c53 56bb 51f3 c2bf
00000040: a32b 6a80 55c2 b33f ada4 1b0c 0f75 b4bf
00000050: 3021 318f 11cd 9cbf 6831 589d 2ea9 c7bf
00000060: 139a 46d1 0ca4 bb3f 0c87 0d34 087b cdbf
00000070: d0d9 b751 84e1 b8bf 3dac 0567 780b 9c3f
00000080: e045 449b bb9c b13f beda d5e5 3927 d33f
00000090: 213a af11 1e72 cabf 1b1e 37e2 f706 dbbf
000000a0: d0ad 466c d54c c1bf e98e 69ee 415a c93f
000000b0: 2f77 7f9d ceb6 ca3f eaeb 7bb4 fb3c d0bf
000000c0: ad88 8186 3976 86bf 2c44 ebd6 74ec 84bf
000000d0: 4c6c 8a10 8902 c93f 7a80 f2cb 95b2 bdbf
000000e0: 7e36 3020 ac25 b63f 0c45 a907 239c d73f

gru.weight_hh_l0 f8 [30, 10]
-0.08503219364985311 -0.24684725947461142 -0.247239176827453 0.23994958653576165 0.036129709877338316 -0.11001585512722445 -0.059462619091787954 -0.06382754106592002
0.287686531590409 0.03583490191979372 0.149413623016752 0.2256084831175951 0.06998181834818325 -0.23495836653631078 -0.07954768775364641 0.15986308258028442
0.1366068256515922 0.1925048619193566 -0.2827808093235932 0.11321103261075706 -0.10125968846161772 0.07896209831456928 -0.15863824036896257 -0.2468176024831884
0.15851954923249373 0.24754582368811487 0.27307741946657954 -0.24729263150218733 -0.1482951339078307 -0.15841957520974514 -0.03382795611772007 0.014237034378492252
-0.11499154317599687 0.07459417421685095 0.291010076304492 -0.06019055953542441 0.10587192407896778 0.07130712161626113 0.1796719387794032 -0.21341849149856768
0.2933145020910593 0.1125616336691722 0.26599451668754154 0.21376489028122309 0.3560317174194099 0.12054244409853898 -0.05424373440921595 -0.2989662200069635
0.09395975819999582 0.32465955586628303 -0.12479360214743716 0.2506967193928989 0.06030860113901951 -0.22076569778876945 0.07742070702225747 0.07723300043094344
0.030227032302219854 -0.08515053967914009 -0.014461935834858457 -0.2299206789339304 0.011979162652046866 0.1359634486518633 -0.17207332180989782 0.17527630453055046
0.22943037666698332 0.18535039371736436 -0.26059150573139006 0.014672364010320793 0.01165642549549327 -0.18151700365543155 -0.05617449783345068 0.06586216511112933
0.0010792533555460588 0.3178703388420904 -0.14256236848115986 0.026390682830039515 0.3251517697597566 0.12754788274833678 -0.19194163187838828 -0.06833096562423639
0.11213289411045965 0.1620514372861007 -0.19140303883391924 0.251188722641615 0.18160148884714267 0.022535800147941678 0.25720114889013385 0.08567922016860799
-0.16472032974177347 -0.3304196865458161 -0.003727057961749989 -0.011038086530550521 0.14821480837029852 -0.0856150634127073 0.03732517580147182 0.2998945187081662
0.008782164391186507 0.2169573505519241 -0.038663185842656864 -0.17306285763729537 -0.04204739255530045 0.12611555294908897 0.0698183332350223 0.16853455420067903
0.23106198769949915 -0.39485629868098593 -0.2674833089167698 0.033949341551981975 -0.056941294385097214 0.06807542098630126 -0.19490685583220463 -0.23337572542075302
0.20140091934570445 -0.19184954864067427 -0.23199384753677876 -0.09133987009351663 -0.2132991704635282 -0.2389291351963388 -0.020781774634473466 -0.1902150211411921
0.027497705382179598 -0.09995622801995797 -0.4255034755559061 0.3882134038510093 -0.23326434731042975 0.06004347348337835 0.18944221615558468 0.023100814473275794
0.15210265319921537 -0.037388668269123154 -0.24655411603007915 0.3264066057887769 -0.3927168337058438 0.19956631239787967 0.02286957162454958 0.010979614472781094
0.1239027220987148 -0.08311528699454729 -0.18163946690663715 -0.2914778587450348 -0.07168091355194098 -0.17150706746391076 -0.08588689581859738 0.07418517220434229
-0.33280728316320696 0.2588291248278775 -0.14136741814795228 -0.03295156961241762 0.016139227188179166 0.08427633062480766 0.28879786550899217 0.3304644236856313
-0.17540262030100454 0.13124042118092027 0.03922213353978249 0.005817392559562592 0.10906677234172997 0.0458901816917351 0.12759587391674695 0.041695437877745205
-0.09188590864040282 -0.15398114144641123 -0.04003353982148292 0.0025781388608667882 -0.22222669756561508 0.23960926286976866 -0.1218767791693243 0.29184891173042393
-0.36818372668971155 0.1422616696466545 0.07470351240680276 -0.4145448627659168 -0.12665074340555732 -0.38714986430638815 0.10373123630271425 -0.2761163342327676
-0.17689150981750112 0.1716739096170193 0.411573504719598 0.22068965164664886 -0.08361616016231758 0.08446514382770791 0.32429184399808647 -0.052192857110721975
0.258262885753708 -0.1339224569240522 0.14093158611641346 0.128736601992599 -0.19209347341248337 -0.18653062081453803 -0.20405442675063168 0.25079993084037927
-0.2525414683855372 0.23398384851226073 0.00181667661280097 0.1442412587091182 0.0710252135046205 0.11038953333567574 0.19394036248073665 -0.23880411478152658
0.09515240114223437 0.2752632338092022 0.12215426885701353 -0.2763261218204381 0.08613292459347194 -0.09508538796474844 -0.21035239523736182 -0.2498015782661274
0.1993729234557956 -0.021460804948546172 0.21041358100616053 -0.03904714209054492 -0.06968034126880528 -0.21421761002598871 0.23204653239071793 -0.16462460372619295
0.14192725293251557 -0.33054616880433363 -0.07436048628842154 -0.10956944617170469 0.015356323979282853 -0.1819224265973721 -0.10439810225285759 -0.25206297300215613
0.020571108751017485 -0.11529561641297992 0.30875421158636007 0.014891184285697016 0.15790482466492475 0.15798596363118825 -0.23961807532313698 0.31041778468722614
-0.0890264275377468 -0.1812676934245 -0.06253865603713135 0.1851355862332612 0.20047971863503875 -0.18412124729122503 0.19824457438265822 0.04175507930348047
0.18808340910336566 -0.20855999695697425 -0.15068443298967357 0.028582590739768772 0.17920514755869577 -0.031695799796459416 -0.13191402817393902 0.08108717487995123
-0.161802653123232 -0.36862166098290555 -0.2695443614547223 0.11719383360795953 -0.0824504843601811 0.2809386828615684 -0.03240565147948601 0.14013130628136447
00000000: 6550 d57a abc4 b5bf c17c 46e5 b098 cfbf
00000010: 8cc6 6189 88a5 cfbf 860e 6e05 abb6 ce3f
00000020: 1f9d ace4 977f a23f 681a d0c3 ff29 bcbf
00000030: 3fdf aa68 e271 aebf 4754 7671 0057 b0bf
00000040: f28c 2bc5 7469 d23f 290d 9ac7 f358 a23f
00000050: 8187 3750 fc1f c33f c159 5820 bde0 cc3f
00000060: 3dbc 1e15 54ea b13f edf6 18a2 1d13 cebf
00000070: 29d4 5fbd 3c5d b4bf 9e91 c2bb 6476 c43f
00000080: 48bf 4a1c 557c c13f 79df 21d3 ffa3 c83f
00000090: b6cc fead 1419 d2bf 290e 9cf2 65fb bc3f
000000a0: 2186 58aa 27ec b9bf eb75 e22d dc36 b43f
000000b0: 98cc 2303 424e c4bf b407 5f1d b897 cfbf
000000c0: ee77 dd5b 5e4a c43f 253c 80e0 94af cf3f
000000d0: 61a4 78b6 197a d13f 82fd 6bf2 48a7 cfbf
000000e0: 2121 25bf 55fb c2bf 8439 49b7 1747 c4bf
000000f0: b3a8 6eda e551 a1bf 5397 6168 4e28 8d3f
00000100: 1dea 41f5 1570 bdbf bdc6 bb92 9a18 b33f
00000110: 4731 22ba e89f d23f e115 7709 4cd1 aebf
00000120: ccd7 7b23 6c1a bb3f 0451 50fb 2e41 b23f
00000130: 7781 8876 7dff c63f 568b ac10 4c51 cbbf
00000140: a51c 7b30 aac5 d23f a3b7 64d7 d6d0 bc3f
00000150: fda6 85dd 0d06 d13f 9a3b 65de a55c cb3f
00000160: d1ec a941 39c9 d63f d0e1 2e9f dedb be3f
00000170: 23da 99b2 d5c5 abbf 3a79 6236 4322 d3bf
00000180: b1ea 9b28 bf0d b83f 7ce4 b1df 38c7 d43f
00000190: bf28 f937 79f2 bfbf 8572 c040 6a0b d03f
000001a0: 8483 1edb c4e0 ae3f cd6a 0ae6 0c42 ccbf
000001b0: 719c b1ec d7d1 b33f e4d9 05bb 8ac5 b33f
000001c0: 52ce c5cc d5f3 9e3f bf9d 28ff 6ccc b5bf
000001d0: 499e 942b 389e 8dbf 2301 5972 0a6e cdbf
000001e0: 6a90 97fe 8788 883f d99f b412 4067 c13f
000001f0: 1a03 d8a4 7f06 c6bf 4579 dc35 746f c63f
00000200: 1530 3f7e f95d cd3f 078d a8cb 8fb9 c73f
00000210: 73d4 aefe 87ad d0bf 807a a25c 8b0c 8e3f
00000220: b8cb 54f2 52df 873f 541a 2ffd f23b c7bf
00000230: a7b6 205e e7c2 acbf 8230 32c5 57dc b03f
00000240: 5a4e 6f77 b7ae 513f 6f7e 6cd5 fc57 d43f
00000250: 3729 22d3 7b3f c2bf ba4e b2be 2806 9b3f
00000260: 05b3 565e 49cf d43f ca00 8a30 7d53 c03f
00000270: 534b d41b 8b91 c8bf 9302 a95e 237e b1bf
00000280: 16a0 02c9 bdb4 bc3f c3f0 b4fb 19be c43f
00000290: 1ac7 1210 e57f c8bf 01aa 37dd 7913 d03f
000002a0: f86e c0b3 b73e c73f 8797 7ff2 9f13 973f
000002b0: 1983 bece fb75 d03f 1a2a 92c8 12ef b53f
000002c0: a216 9d46 8e15 c5bf 76ce ea9c 9825 d5bf
000002d0: fbda ca01 3588 6ebf 4fe7 45e5 229b 86bf
000002e0: 0fde 5ded b3f8 c23f 200d 6769 deea b5bf
000002f0: d800 c512 491c a33f 9e7a 86c7 7831 d33f
00000300: ff32 c926 62fc 813f 3ca8 9f2a 42c5 cb3f
00000310: 36bb 813d a9cb a3bf a52c da78 ec26 c6bf
00000320: 026e d05f 3c87 a5bf 2976 b7ef 8d24 c03f
00000330: b9d8 e741 9ddf b13f 76d8 444f 8a92 c53f
00000340: 3451 4270 7093 cd3f 9615 5d5a 5345 d9bf
00000350: 3f7f 0150 721e d1bf 777c 5fdf ce61 a13f
00000360: b10f 5aca 6827 adbf 402f cc0a 646d b13f
00000370: 7e62 c835 b5f2 c8bf 7463 2e7a 41df cdbf
00000380: 6fb0 fc5c 81c7 c93f d4ff 94a8 868e c8bf
00000390: 2497 0572 f9b1 cdbf f05e dfba 0c62 b7bf
000003a0: eccf b320 634d cbbf 526b ddda 3a95 cebf
000003b0: 15b2 a149 d147 95bf fe32 813f f758 c8bf
000003c0: ee75 53c5 5b28 9c3f b192 603a bb96 b9bf
000003d0: 7734 f6ed 723b dbbf d52b 5a08 7dd8 d83f
000003e0: cbb2 822b 9bdb cdbf a011 e6a5 04be ae3f
000003f0: 215c 6f7d a43f c83f f5d9 b16a bda7 973f
00000400: 110f 9088 1978 c33f c4eb e986 9b24 a3bf
00000410: 748d 85d4 158f cfbf 10ea 4388 d8e3 d43f
00000420: bdbc 56c9 4522 d9bf 57ec 9090 638b c93f
00000430: 17cb cdf8 1e6b 973f 5290 aae8 7a7c 863f
00000440: a1a2 4cbb 16b8 bf3f b071 701f 0b47 b5bf
00000450: d570 0349 f63f c7bf a35a b4bf 92a7 d2bf
00000460: 22f7 732b ae59 b2bf 982a e58e f1f3 c5bf
00000470: 3c22 b200 affc b5bf 403d 77a8 ccfd b23f
00000480: 189f 43eb b64c d5bf 93d5 9808 a890 d03f
00000490: 382c d5da 5318 c2bf 9ea5 ac33 07df a0bf
000004a0: dee2 d233 cd86 903f 4845 dc33 2293 b53f
000004b0: af01 e10a aa7b d23f 5b29 0e41 5426 d53f
000004c0: a5aa e9d2 9773 c6bf 1c52 7172 7ccc c03f
000004d0: 0859 aa69 ec14 a43f fc39 a96c fad3 773f
000004e0: ddba 49cc cceb bb3f d2a1 25fb ea7e a73f
000004f0: 13da c9c4 0f55 c03f df95 27bc 1a59 a53f
00000500: d9e2 92bc d585 b7bf 6a46 5b6f a7b5 c3bf
00000510: 0d82 8db0 467f a4bf 206a f1c2 bf1e 653f
00000520: c0d3 2ba7 ec71 ccbf cb12 ec2d 84ab ce3f
00000530: 528f ac0c 5133 bfbf d857 d00e a7ad d23f
00000540: 464f 437a 5290 d7bf 8ea9 4d61 a135 c23f
00000550: 02fd aef6 c41f b33f a17b 132d e787 dabf
00000560: 4271 7870 1736 c0bf 8f31 7639 10c7 d8bf
00000570: 0c6a 7e5b 218e ba3f fef3 5ad8 e3ab d1bf
00000580: f498 cd88 61a4 c6bf e3d6 b021 69f9 c53f
00000590: fbed aa65 3857 da3f a3a9 31fa 8e3f cc3f
000005a0: d372 5061 de67 b5bf 4b56 64f6 819f b53f
000005b0: 4534 1594 32c1 d43f 212e c0ac 05b9 aabf
000005c0: f14b 050e 6187 d03f b629 58fe 5e24 c1bf
000005d0: a5f4 abd4 0b0a c23f e69d ade3 707a c03f
000005e0: e373 0ad9 8496 c8bf 26ee 0c42 3ce0 c7bf
000005f0: 28be bf98 741e cabf 791a 3327 1b0d d03f
00000600: 7d61 e6b0 a329 d0bf 2081 93c8 2ef3 cd3f
00000610: 93bc eba8 b1c3 5d3f 60dc 7160 7f76 c23f
00000620: 6d9a 3159 b52e b23f 8357 7f0b 7d42 bc3f
00000630: c454 1dad 09d3 c83f 8285 911b 2291 cebf
00000640: 6bb1 0a63 e85b b83f 431c c0ae e99d d13f
00000650: 18c3 ce8d 8045 bf3f 6df4 0fc2 53af d1bf
00000660: 34e0 3cae ce0c b63f 42d5 a217 8457 b8bf
00000670: 9001 17c9 d3ec cabf a933 9284 7ff9 cfbf
00000680: bcab f94c 0d85 c93f dc6f 993d d2f9 95bf
00000690: 6221 870c d5ee ca3f 9df3 8fac fcfd a3bf
000006a0: 8773 ec22 92d6 b1bf c8fa a48e 7b6b cbbf
000006b0: e858 e265 b3b3 cd3f 917b 8f44 6b12 c5bf
000006c0: 9acd e016 ac2a c23f 184b 351e ab27 d5bf
000006d0: 8232 b9f0 4909 b3bf 0ec4 f243 be0c bcbf
000006e0: 6fef 38ea 2273 8f3f ab84 52ec 3b49 c7bf
000006f0: c6c3 f082 d5b9 babf 27ea 64bc cc21 d0bf
00000700: 13f4 4fbd 9710 953f 40ac dd75 0384 bdbf
00000710: ea00 5106 a1c2 d33f 3cd5 0bec 447f 8e3f
00000720: f581 e8ac 3936 c43f a1f1 8251 e238 c43f
00000730: 198c 851a ceab cebf 9a04 558e e2dd d33f
00000740: 2f1c c19a 6fca b6bf bc2f 8a9f c733 c7bf
00000750: 464f 6a8a 8802 b0bf 6c4c 19dc 85b2 c73f
00000760: 333e 86c5 51a9 c93f 40a9 cef7 4891 c7bf
00000770: 519e ca05 1460 c93f 85c5 19f8 eb60 a53f
00000780: 5173 82fd 1d13 c83f 688f 170f 18b2 cabf
00000790: 637d daa3 a049 c3bf 825a d931 c144 9d3f
000007a0: c80c 05bc 31f0 c63f 0fbc 178f 6e3a a0bf
000007b0: 2702 7212 8fe2 c0bf 2a03 3c0c 21c2 b43f
000007c0: 0a00 c907 f3b5 c4bf ab33 a14e 7f97 d7bf
000007d0: 273b 51fe 3640 d1bf e798 a342 6a00 be3f
000007e0: 48c8 dd95 791b b5bf 9697 c43d e6fa d13f
000007f0: ebb3 9e3a 7997 a0bf 6fe6 cf98 d2ef c13f

gru.bias_ih_l0 f8 [30]
-0.151216686487886 -0.14131337351101686 -0.029496990569629417 0.19503240426728255 0.3650125426229096 0.19012962913287604 -0.06074343871254683 0.10442738449777188
-0.08643607441186817 0.1561992379188255 0.23421233581048834 0.1558907958474059 0.17894610860940505 -0.31802515380569024 -0.09025555079335765 0.07829085652894875
-0.38426529043508784 -0.13575789848835493 0.3963556087135242 -0.09310011578038885 -0.1030775303661216 -0.10585690242670524 0.09899507731088207 -0.0598008222618855
0.17967075531764248 -0.36194304519266807 -0.11234851489917923 -0.22094508488665918 0.12963462175544374 0.18913489164480843
00000000: 2498 8981 115b c3bf dace db7e 8e16 c2bf
00000010: 85d3 4e87 7534 9ebf 4d7e fe62 d2f6 c83f
00000020: 347e 4c91 5d5c d73f f92a 90ed 2a56 c83f
00000030: 8f16 6f95 c319 afbf 0f89 39c9 c0bb ba3f
00000040: 1f29 cbb0 ac20 b6bf d0bf 422d 56fe c33f
00000050: c61a 5079 abfa cd3f 1abd f4c6 3af4 c33f
00000060: 67a7 1cc2 b4e7 c63f dda6 b92c 865a d4bf
00000070: c69f f0de fc1a b7bf 291f 5e9c de0a b43f
00000080: 7406 da71 cd97 d8bf a730 17cb 8360 c1bf
00000090: 47b0 40ea e35d d93f 54d4 87c0 68d5 b7bf
000000a0: 04fc dffd 4963 babf 0b83 fa1d 7019 bbbf
000000b0: 1fe6 83cb bd57 b93f 9a04 c79f 369e aebf
000000c0: b285 1189 73ff c63f 8a7f 8729 132a d7bf
000000d0: 4303 3f4d dfc2 bcbf 276b e6b4 ed47 ccbf
000000e0: 1d3a 6f06 de97 c03f 73cf 1277 9235 c83f

gru.bias_hh_l0 f8 [30]
0.14538173305919513 -0.2412384892155532 0.24748570429464473 -0.0052150026922509855 0.25488646449409635 -0.24070630336033244 -0.12950329732079247 -0.28720517241750837
-0.05261756125688434 -0.20923630275729144 0.3523838190887659 -0.16149277661181494 -0.14819177886846943 0.15949753231815475 -0.07897742812985967 0.04811195199556276
-0.02348883622480977 -0.06419328371555928 -0.05408168374310046 0.14368398475214286 0.2947654219845091 -0.2517008569372303 -0.12089826299168233 -0.2285739179126135
-0.12253867877845881 -0.1505862121965049 0.10108325946625048 -0.04503244063623219 0.01599458135960211 -0.06249818880701122
00000000: e167 765e de9b c23f d6ce db1e e7e0 cebf
00000010: b625 168f 9cad cf3f ac35 30a0 535c 75bf
00000020: 4e7e 4c51 0f50 d03f d6d4 6fd2 76cf cebf
00000030: 9cc5 5b65 9093 c0bf 879d b1cd 9161 d2bf
00000040: 1252 9661 b0f0 aabf 3040 bd52 41c8 cabf
00000050: 9a0d a8dc 748d d63f e442 0b99 cbab c4bf
00000060: 8f58 e3bd f2f7 c2bf dbb1 8c46 6a6a c43f
00000070: c29f f05e dd37 b4bf 743e bc38 21a2 a83f
00000080: f96a a01d 750d 98bf 9561 2e96 f86e b0bf
00000090: 887c fa2d 98b0 abbf d515 bc9f 3c64 c23f
000000a0: 1991 dac9 6fdd d23f c4ea 3ae9 dd1b d0bf
000000b0: 8c46 b145 30f3 bebf 249e 13ff e841 cdbf
000000c0: 4039 d9e1 b15e bfbf 8f66 4eb4 6846 c3bf
000000d0: 0da4 94ad 97e0 b93f e956 95f7 7d0e a7bf
000000e0: c92a 692f e260 903f 547f f839 c3ff afbf

fc.weight f8 [1, 10]
0.07541919908259521 0.07966380652689099 0.19105570985717424 -0.36420908935782614 -0.19944435664673943 -0.22705220641799698 0.15892702741276124 0.21504574458886705
-0.09156212829396801 0.20088828113257312
00000000: d1dd 8c31 ac4e b33f d936 b5e3 d864 b43f
00000010: fc7a c674 8374 c83f d6a8 eca3 334f d7bf
00000020: 60b2 9586 6487 c9bf 6164 86f4 0b10 cdbf
00000030: 611a 9888 b857 c43f 849a 1374 9e86 cb3f
00000040: be22 939a 9d70 b7bf 5e99 ce0a b5b6 c93f

fc.bias f8 [1]
0.06330768076886234
00000000: 2ce5 7ca2 ee34 b03f
