Thesis-codes/Exp-1/results-archive/archive(without scheduler)/results-8/sg9/save_model/4/RNN_best_train_8.pth (torch, 3159 bytes, 6 tensors)

rnn.weight_ih_l0 f8 [10, 1]
00000000: 370b 986d d5e4 d9bf 39b1 6b05 f1d4 a33f
00000010: 4770 758b bbf3 c8bf 7863 5291 4a31 d43f
00000020: db81 5458 a855 db3f 46f7 4992 f805 bfbf
00000030: 2a65 8010 0c4c acbf ad67 97a8 cce8 cc3f
00000040: 0a69 011f 1678 d5bf 67e1 f744 67b3 db3f
-0.4045919008496414 0.03873398963136982 -0.19493812856205947 0.31550850097260463 0.4271031248663612 -0.12118485995776238 -0.055267693533276166 0.2258544753265687
-0.3354544928348707 0.43282491431411646

rnn.weight_hh_l0 f8 [10, 10]
00000000: 71f1 37c1 4ead c33f 3f6c ff21 d7f2 c3bf
00000010: e727 4787 f30d ba3f 909f 60e6 8e57 d13f
00000020: fa31 f8f7 008f ca3f 2ba7 cf2d f8f1 b53f
00000030: cff3 bca7 7ab3 b3bf 953a 52e4 53fb b8bf
00000040: 17fb 471e e552 c6bf b0a3 d396 d140 cc3f
00000050: 6542 4481 6a93 a83f ddea f318 9a7b 96bf
00000060: 3fb3 2e7c 49e4 c03f f80b 2831 4f4a d3bf
00000070: 3c40 501b 35d8 d23f deaf 1296 b0f7 c23f
00000080: e6ec 3c70 2198 a8bf 5ef3 4aad e144 2e3f
00000090: d7a6 366e 642a d3bf c55f a068 1188 9d3f
000000a0: b088 6efc 7486 c43f e28b 0e8f 36da af3f
000000b0: 3cb3 98dd 9df2 bcbf 6f8b 76c9 b379 cabf
000000c0: 9ff9 9eb0 a92f dabf fdea 9319 acde 9ebf
000000d0: 183a 0171 c8b9 a33f 6304 cb0c 05de c23f
000000e0: c5d1 e277 88c3 8bbf e42c 17aa 4695 c0bf
000000f0: 2cb3 ee0e c423 b43f 0a85 3187 652c c13f
00000100: 96e4 acce fd9f c53f a78d 764d bda2 d03f
00000110: 748e 27d4 ad54 a3bf e623 c958 d46d cd3f
00000120: 3831 cb96 7b60 d23f e33c 8206 7003 b93f
00000130: af08 d1ff dee5 c6bf c814 d4ef 1a10 c93f
00000140: 5195 9769 d128 a93f 320e af98 6752 afbf
00000150: ede0 1c4c 0b48 b2bf 0b6a 31c5 64f6 d4bf
00000160: 8569 1953 6ccb d33f 74d7 73b1 8efc c53f
00000170: 4749 f3f5 6b82 c23f 2ee2 5273 7d84 d23f
00000180: 5abf d238 6d0e d23f 766e 9f85 93f7 b0bf
00000190: 73af 3079 8ab0 b6bf f400 9b6d a37e bc3f
000001a0: 9949 5e72 7242 d33f 3c29 500c afd1 cbbf
000001b0: 2029 14bf d855 bfbf ffcf f181 83c0 c2bf
000001c0: d6a4 0970 7577 cd3f f3ee c4e5 2ca7 babf
000001d0: abb1 befa 9486 963f d90e ca72 62c3 4f3f
000001e0: c1b4 c83c fd80 d3bf 7ec3 a423 5051 ce3f
000001f0: 6465 dbde 1cf0 b83f 3ca4 0211 09e4 be3f
00000200: a7d4 bce8 b444 da3f 62fa a6ce cbc6 cfbf
00000210: 53a2 e04b 4c0f d0bf cf57 c2b0 41b3 d23f
00000220: 4fe1 7e14 2c7e c63f 97d0 74f0 4025 cfbf
00000230: de55 a246 6971 cdbf b5cc ecdf c730 cbbf
00000240: 22bb 02f8 9e59 c03f 4105 902f 9b13 c6bf
00000250: e865 8638 53f8 bdbf 9ea4 620b 4722 c3bf
00000260: 5850 894f 15ff cdbf 378c 2b77 ec3c cd3f
00000270: b273 b94b 9cc1 c73f 9fc1 0e58 ab73 c03f
00000280: 248c 989f 7d66 b63f b3ad fd99 8edd cdbf
00000290: 3fb3 aeb7 51a4 bc3f 6c6f 0e9e 00c3 b3bf
000002a0: c5f7 bae6 2d47 d5bf c6da 8a84 4cb3 c93f
000002b0: e691 cfb7 6bc9 a3bf 0f19 42fb 0caa abbf
000002c0: 7389 809d f1a7 ad3f e819 9b86 6473 d2bf
000002d0: 013a 65a5 0308 d0bf d733 b90a 124b b2bf
000002e0: 5a9a a77e 0c5b a43f 2cac e0a4 1128 ba3f
000002f0: 2a16 1464 4cb1 c53f db79 22b5 5c76 a8bf
00000300: d12d 0470 222f cebf 8b38 2d22 b5a9 95bf
00000310: 2530 90cd abff cfbf 4ef3 bba3 2dc4 c23f
0.15372642931459837 -0.15584839973493733 0.1017753796833457 0.27096912858768807 0.20748912914167744 0.08572341078220506 -0.07695738406341877 -0.0975849564003773
-0.1744047544343281 0.22072810997567904 0.04799969509088412 -0.021955878994939993 0.13196676791758397 -0.3014104824107444 0.294446255372353 0.14818389251502045
-0.048035664511610496 0.00023093466611170515 -0.29946242106471516 0.02883937073792688 0.16035330129404235 0.0622117089872274 -0.11307703647680695 -0.20683905922950482
-0.4091591095747393 -0.030146302281518256 0.0385267866082481 0.14740050434741922 -0.013556543501501825 -0.12955554299546812 0.07867074360428877 0.1341673765300942
0.1689450511128469 0.25993282856708294 -0.03775542464043449 0.229914229729075 0.2871388409228248 0.09770870360283683 -0.17889010897676402 0.1958039923703494
0.04913954175916991 -0.06117557276550335 -0.0714118061849864 -0.3275386739457253 0.30929096331751565 0.17176994003937873 0.14460515507978242 0.28933655035101224
0.28213053273338107 -0.06627771389269718 -0.08863130053276595 0.11130734849848861 0.300930606544307 -0.21733654118754397 -0.12240366616257292 -0.14650005192709156
0.23020809145535875 -0.1041133938751349 0.021997764400724467 0.0009693365769440589 -0.3047478765100316 0.23685647716913744 0.09741383019299615 0.12066704430857639
0.4104435227230376 -0.2482542761844853 -0.25093371782216883 0.29219095479618046 0.17572546959650956 -0.2433243917563501 -0.23002353619510435 -0.2124261706718237
0.1277350150098409 -0.17247333357230768 -0.11707039003376674 -0.1494835668175129 -0.2343470228539697 0.22842174357274 0.18559602448922657 0.12852994727792308
0.08750138422378534 -0.2333238841923567 0.11188231214937348 -0.07719425066755797 -0.3324694398141868 0.2007842681102458 -0.0386460935476725 -0.05403175894848477
0.05792193458207153 -0.28829301018814 -0.25048915054222226 -0.07145798456004059 0.039757147274759944 0.10217390323002523 0.16947321783679686 -0.04777803145519829
-0.2358134314493854 -0.021155195437409218 -0.24998996293322864 0.14661188597519942

rnn.bias_ih_l0 f8 [10]
00000000: 0c5a 8934 096b d0bf 129d 211e 3dcf aebf
00000010: 8234 94d9 e393 c7bf f84f fabf 6b4d cebf
00000020: 8508 0f3f 736c c3bf 2bfd 3c10 a39c b6bf
00000030: 6d3e 4196 161b b23f 34ca c561 b145 d33f
00000040: e4d9 ce8b ffea d23f bd3a d0b6 8181 ca3f
-0.25653295641441853 -0.06017485611737973 -0.1842007458111859 -0.23673769830622837 -0.15174713686980482 -0.0883275904316078 0.07072583359080804 0.301128716927596
0.2955931535065288 0.2070772307055985

rnn.bias_hh_l0 f8 [10]
00000000: ee4b edd6 49d6 c23f 86ce 104f 52c2 b0bf
00000010: 7734 94f9 8adc cebf e4af 0540 0ff1 c93f
00000020: 1b11 1ebe 356b b8bf d502 c36f 70a8 b43f
00000030: 409f 204b 5a69 cf3f 8a6b 743c 2433 cfbf
00000040: 1c26 3174 89ec d2bf b9e2 97a4 3923 d2bf
0.1471645640800427 -0.06546511106790306 -0.24110543428870176 0.20266905428013537 -0.0953858937410285 0.08069517830427782 0.24540260952312032 -0.24374821617024295
-0.2956870684325581 -0.28339997361721775

fc.weight f8 [1, 10]
00000000: c398 3ae9 d95d d8bf faae 7989 d1f0 ca3f
00000010: 0899 a85b 871f ccbf 35e7 6a16 a45a d83f
00000020: b33d 6405 c485 de3f 638c e1ad 65f0 d7bf
00000030: 7dc7 1237 3912 d33f c632 72fb 500c b63f
00000040: 7eb9 9728 76f4 b9bf fd5a 85dc 918a d23f
-0.38072822357424857 0.21047419750845348 -0.21971218085781907 0.3805322855874807 0.47691441084404146 -0.3740476797158349 0.2979872739625689 0.08612543238468637
-0.10138643733055194 0.28970762763258034

fc.bias f8 [1]
00000000: 3c7e 8bff e172 a03f
0.032126486248440916
