Thesis-codes/Exp-1/results-archive/results-1/obs/save_model/2/GRU_best_train_14.pth (torch, 5143 bytes, 6 tensors)

gru.weight_ih_l0 f8 [30, 1]
0	0x3fbc4bcc3b43433a	0.11053158232540464
1	0xbf39867e67b37337	-0.0003894861799389917
2	0xbf85557747c61d7f	-0.010416919591775152
3	0x3fab17d4b83389ad	0.052916190610420834
4	0xbf81a4d15bfda7df	-0.008615146274411898
5	0x3fabe4cb0fa1b7e3	0.0544799286443405
6	0x3fcd0abd9c60fdc0	0.2268902791565619
7	0x3fd729fa91c0efdd	0.3619371817946993
8	0xbfc785e1f751ce43	-0.1837732751479156
9	0x3fadb795888ce07f	0.0580412606418017
10	0x3fba38601091942d	0.1024227180910919
11	0xbfb3a30a6d700994	-0.07670655414407285
12	0x3fa36e71dac7d103	0.03795200153027347
13	0x3f88f588d10116eb	0.012187069776824674
14	0x3fc689f8b39d0f8f	0.1760855557459959
15	0xbfc2724bc9cbbdcc	-0.1441130385714885
16	0x3fb841280c4b15be	0.09474420833711059
17	0xbfcb20706f66309e	-0.21192746581471494
18	0x3fbd384111d23c3b	0.11413962063873921
19	0x3f8d8ebdeb3247a8	0.014432414760708515
20	0x3fabdb52d71849d4	0.054407681233118815
21	0xbfd449a61c0b4859	-0.31699517000845884
22	0x3fbea3e940fbf6b4	0.119688585629741
23	0x3f99899bd92be8ed	0.024938998346422037
24	0xbf9733fd895b94e0	-0.022659265049601696
25	0x3fb2f26c19c037b3	0.0740115702503477
26	0xbfc68ffe1f744ef6	-0.17626930747848463
27	0xbfcc5a92e94ed0f4	-0.22151409522997023
28	0x3fd140033842ff5d	0.269532017653537
29	0x3fd801ac7a6b878b	0.3751021571643995

gru.weight_hh_l0 f8 [30, 10]
0	0x3fcaf6c37c537c60	0.2106556279240719
1	0x3fc7871d980e3d31	0.1838109009226883
2	0x3fc48e746d1b4798	0.16059737517803963
3	0x3fced710cfc3052f	0.24093828339213405
4	0xbfcf3c62f73e0aa7	-0.24403035232906697
5	0x3fbe6af8c2a2706c	0.11881975890941171
6	0x3fcd697c4fef9fa0	0.22978166487814367
7	0xbfd2df5f7487359e	-0.2948835981340724
8	0x3fcc1f35a01f2920	0.21970243757670804
9	0xbfd1e6ddbf1c4f9f	-0.2797159544290881
10	0xbfb73f195984f4e2	-0.09080656466990747
11	0x3fb1f9dafb7abdb0	0.07021874084124735
12	0xbfd528cf236efd3c	-0.3306157918959405
13	0xbfd3a3b7f52a2b55	-0.30686758939616726
14	0x3faf46db310b52bb	0.061087465035290354
15	0x3fc11c2e6a560710	0.13367252533139906
16	0x3fc300a18642db4d	0.1484567552158417
17	0xbfccddbfeff25e47	-0.22551726547384218
18	0x3fccc88ed2793905	0.2248705413534894
19	0x3fc381429165f9ed	0.15238220309761577
20	0xbfd4ee68749d690e	-0.3270512713258008
21	0x3fd285cd4b6452a0	0.28941662180413097
22	0xbfcdf637106a4396	-0.234076388373549
23	0x3fa10acba5a3d66d	0.03328548809979002
24	0x3fc3ddeaa9437ac6	0.15520985855888209
25	0xbfc1d22fb1162db8	-0.13922687670524936
26	0xbfbef86b561fbb4e	-0.1209780774367861
27	0x3fd029dd8bbebb6e	0.2525552620599488
28	0xbfc4f926da248bc5	-0.1638535084867653
29	0x3fbc122e2774a9a7	0.10965240920328388
30	0x3fd02faf2ad69ec8	0.2529104154914248
31	0x3fa55660377d121c	0.04167462041235501
32	0x3f919000163b30a1	0.017150880200276778
33	0x3fcc064ecf055bde	0.21894250019496914
34	0x3fc664dabbb780be	0.17495283285007263
35	0x3fcfa59ab63c7cc9	0.24724134348159613
36	0xbfd42e2760fcc92c	-0.3153170058386816
37	0xbfc98fcdce0a2b3e	-0.19970104752095524
38	0x3fcb876d985349a6	0.21507043779145113
39	0xbfd0c3f8590fc7c2	-0.26196106622148474
40	0x3fa0b53ae77ba221	0.032632675893016
41	0x3f935e27f41850aa	0.018913864396453185
42	0xbfd1d082ff475f60	-0.2783515446621916
43	0xbf8b153c92ba8c11	-0.013224099376492078
44	0x3fd03b2a5e3520e9	0.25361117553667484
45	0xbfadd86b322e2414	-0.05829176890899404
46	0x3fc3f778793898d1	0.1559897033595861
47	0xbfcceb293dce8533	-0.22592654722124336
48	0xbfc975b789262284	-0.198904935805576
49	0xbfa308d75adffc8b	-0.037176828234799585
50	0xbfcf19240134ea0b	-0.24295473154946054
51	0x3fae150dba5dc8ea	0.05875437641124555
52	0xbfce0b3ee91dd2db	-0.234718192888656
53	0xbfcb8b9d5b416d7c	-0.21519820171202386
54	0x3fca27d07e5191ec	0.20434003990079874
55	0x3fab800894d2e232	0.05371119324394548
56	0x3fcfc28771be12a2	0.2481240563758052
57	0x3f82fc8f6384774f	0.009270782684832972
58	0x3fc2210b7d941ee5	0.14163344985740092
59	0xbf9d7e5b2bd4dc6d	-0.028802322912465806
60	0x3fc5c60c0b9e3a20	0.1701064163903121
61	0x3fc15203096ca932	0.1353153034227233
62	0xbfccdd9ae8d9ae7b	-0.22551285142559493
63	0x3fb59e89b2066752	0.08445034595788783
64	0xbfc3b573a95bcecf	-0.1539749695726784
65	0x3fcd78ed81f356da	0.23025292248956114
66	0xbfc323528d3e33d1	-0.1495154561675052
67	0xbfa0501f8fa1c294	-0.031861292155445003
68	0xbfc96f453c415cec	-0.1987082046714258
69	0xbfc3301b8cb8ee9e	-0.14990562792978762
70	0x3fc115f5b1dc296f	0.13348265823908487
71	0x3fc547d518e3a397	0.16625465121549318
72	0x3f811dc052357ca3	0.008357527264421022
73	0x3f9243846fe89107	0.017835683184004327
74	0xbfc581d24fb77594	-0.16802433864988287
75	0xbfd1c51e0a0f0494	-0.27765608770648353
76	0x3fcf81780cef717d	0.2461385787163514
77	0xbfba8bc0a671bb5e	-0.10369495452480978
78	0xbf911a7785247df5	-0.016702525617004544
79	0x3fbf33add1379230	0.12188230855787974
80	0xbfb962ad90a47927	-0.09916195660887138
81	0xbfb73b3fd7f804a7	-0.09074782393146795
82	0xbfba4e5c074b4129	-0.10275817087245244
83	0x3f8597c76640e67d	0.010543401535062497
84	0x3fcd091cb9e631dd	0.22684058262929244
85	0xbfc4bf93340e8bbb	-0.1620964054282846
86	0xbfbdb5cfedf8e995	-0.11605548438902809
87	0x3fbfdc07b610f0f7	0.12445114321684857
88	0x3fd630d758de9b9e	0.34673103026073615
89	0x3fcd59e3933071f5	0.22930569350218347
90	0x3fd58fe71e6766ff	0.3369081303513752
91	0x3fbedaa6fe125011	0.12052386954229656
92	0x3fd5cb674766e089	0.34053976033056493
93	0xbfb805975d2e99a6	-0.09383531594230607
94	0x3fc68d17db918002	0.1761808225737696
95	0xbfb8ff74a7dc9cfa	-0.09764794443309546
96	0x3fc1ff8b0becb7d0	0.14061105806598428
97	0x3fd0c5489cce5d14	0.2620412379560133
98	0xbfd02a9c2609d90f	-0.2526007052869241
99	0xbfc4a74ee2d0b4d5	-0.16135583949054558
100	0x3fb91fb3b43137b1	0.09813998364663125
101	0x3fc2e0a888fd8815	0.14748102845175085
102	0x3fc3cc330fb4a089	0.15466917292474516
103	0x3fc485de03acc9ee	0.1603353040641901
104	0x3fc67468a562233c	0.175427513841237
105	0x3fa1a0f4d783a764	0.03443112498082604
106	0xbfc9b367178edc4a	-0.20078743601127008
107	0x3fa90e97f1b37b03	0.04893946481182889
108	0x3fc40521519e8b5a	0.15640655980413493
109	0xbfb4aa4cce44839c	-0.08072357211905373
110	0xbfb89a2ff7476ce6	-0.09610271250805943
111	0x3fd1af06741219a8	0.2763076909544915
112	0x3fcc5a1a3c48228a	0.2214997095436682
113	0x3fc9046c9f3280d4	0.19544751904778102
114	0xbfd268414de40ff4	-0.2876132259991657
115	0x3fc0c7b49ba34585	0.1310945281934829
116	0xbfd4fb576b38826a	-0.32784066649222743
117	0x3fcb9029281094cd	0.2153369374874842
118	0xbfd875133b3edb04	-0.3821456984109519
119	0x3fb62eddbcf2f456	0.08665262091649714
120	0xbf6ef9817e0372bb	-0.003781083025485491
121	0x3fd7989f3bc0e51a	0.3686903079538567
122	0x3fc5163368ce2c31	0.16474001519631679
123	0xbfc9bb295ef47f2b	-0.2010242189071446
124	0x3fce8f4f434c3c7f	0.2387484625437288
125	0x3f91886750458878	0.01712190082015083
126	0xbfd88745ca43d1ac	-0.3832563853495923
127	0x3fcc710626f1e74a	0.22219921971901108
128	0xbfc286cc8a5e819e	-0.144738738596982
129	0xbfc8baaeced9d36b	-0.19319710827007994
130	0xbfc84bbe832d99f2	-0.18981152920896666
131	0x3fce85f7c4d31576	0.2384633742387156
132	0xbfb5dd35acd1f075	-0.08540664166679497
133	0x3fc25f5be575f4c1	0.14353512481821976
134	0x3fc23f4076597370	0.14255529192714844
135	0x3fb6c7da98d5ea31	0.08898702842081076
136	0x3fc4c70d79aa1321	0.16232460442201904
137	0xbfc344976a3bbbaa	-0.15053074538397243
138	0xbfce3567435c99aa	-0.23600474156519385
139	0x3fd7209e96fd885f	0.3613659357562308
140	0x3fd386f7804b5e4e	0.3051127198100162
141	0x3fb6e59bb4d381b0	0.08944104351713267
142	0x3fc121a5ed1fc889	0.13383936003043953
143	0x3fc95577c9a34c10	0.19792077394103602
144	0xbfd1398a9968f6e0	-0.26913704854437803
145	0xbfb0ee4d69137f53	-0.06613620581947303
146	0x3fd4b11b1b9fe0fc	0.3233096856852311
147	0x3fb3c63bf52d48f0	0.07724356399311083
148	0x3fa8614e85b1e7a3	0.047617391414817044
149	0xbf68a64665c12d35	-0.003008973593784293
150	0xbfd168ad8e813108	-0.2720140353819862
151	0x3fd3abcef569ff10	0.30736135450568813
152	0xbfa2ae64ce67de4c	-0.03648676890946642
153	0xbfc71926f5aab02f	-0.18045508380362338
154	0x3fc9e04596b9f8f5	0.20215673312845409
155	0x3fca061da6c3c747	0.20331164019403955
156	0x3f952a0172ff70d7	0.020668051380071297
157	0x3fc63a8fdcde6f4a	0.17366216930974537
158	0xbfced13a1ee0bd8f	-0.24076010234555809
159	0xbfc83905655018fa	-0.1892401451770594
160	0x3fd7a0b509778409	0.36918378757951636
161	0xbfd36a35b481e506	-0.3033575308578097
162	0xbfbf9fc970594765	-0.12353190415276812
163	0x3fcdb1fc9a20d05d	0.2319942238406182
164	0xbfa1e1aad4799e2f	-0.034924829899690805
165	0x3fbe32655adf8d33	0.1179564806803242
166	0x3fd5a9e979c88413	0.33849560635468484
167	0x3fc64e4263b5e000	0.1742632853381565
168	0xbfb55d5755179c7c	-0.08345552279898699
169	0xbfb681775c3eca7a	-0.087912998219318
170	0x3fb184f5f1c60012	0.06843506958648529
171	0x3fc60b4ab7ba6f9d	0.17221960040194242
172	0xbfc2efd72ddf096b	-0.1479443525295879
173	0x3fbc958f8ead91a0	0.11165711625432673
174	0x3fc0d006f4a2e865	0.13134848542341895
175	0xbfc0868fbf09c093	-0.12910649135620086
176	0x3fc48242bbe38e02	0.1602252404619407
177	0x3fc72cd4e6d7de97	0.18105565330164516
178	0xbfc4071ef38e4f3a	-0.15646731274011377
179	0xbfc35eb400307885	-0.15132761010403697
180	0xbfcba16a1f4ec8cc	-0.2158634808416252
181	0xbfc9fd29f8179701	-0.20303845037340554
182	0x3fc380a6a2fd026a	0.15236361463941545
183	0xbfd2352b2388a55f	-0.28449514837355666
184	0xbfafabc3bfbaaae2	-0.061857335237922376
185	0x3faaa76edd294c76	0.052058662888747984
186	0xbfd70bf3f343540b	-0.3601045489897962
187	0x3fc64ad6b206c8bb	0.17415889446926322
188	0xbfd4a687ea0207e3	-0.3226642403825492
189	0xbfc2b3bea2d1c2dc	-0.14611037206807154
190	0x3fbe3f388a803ab4	0.11815217381829762
191	0x3fbe4f9e40f41e7a	0.11840237699299819
192	0x3fc3b45f7cac6308	0.1539420470005768
193	0xbfc68087a28c6926	-0.17579741894662354
194	0xbfc06b538816a525	-0.12827533860153398
195	0x3fd30d7a9c18b920	0.2976976894741643
196	0xbfc58babae933098	-0.1683249094406889
197	0xbfd38e8b4d3b8d1c	-0.3055752042984794
198	0x3fc68ee309caf10f	0.1762355611625783
199	0xbfb8e80e7186e92c	-0.09729089996009027
200	0xbf98bbc36f7daea3	-0.024153760604731855
201	0x3fcc1957457eeda5	0.21952334302282597
202	0xbfcfb9a8d52bdb8f	-0.24785337837940033
203	0xbfbe336519ffff92	-0.11797172436490502
204	0x3fb3041c1bde5bfa	0.07428146057496568
205	0x3f67c4d92f8184fa	0.0029014818101563674
206	0x3fc7a1ba1c77a1e4	0.18462301626210753
207	0xbfa2becc658fc325	-0.03661192645802761
208	0x3fb5354c0dc3c902	0.08284449897817939
209	0x3fbe3048fbc5ea3c	0.11792427202991801
210	0x3f983828a5cf0944	0.023651728744661385
211	0xbfbb3f88afb0cda6	-0.10643820084879127
212	0xbf9fccf2036207d0	-0.031055242020108953
213	0xbfa3fbf5f587f26c	-0.0390316831799041
214	0xbfbf895c80489201	-0.12318971759720655
215	0xbfccb625ca85a893	-0.2243087042691668
216	0x3fbee99449262d7f	0.12075163637034868
217	0xbfc420daa91a5f86	-0.15725262886985208
218	0xbfd62ea8d5cbfd2a	-0.34659787062260483
219	0xbfd09d48945e8a69	-0.2595998238486233
220	0xbfb4d4a8f590e3b9	-0.08136993403685623
221	0x3fc100fce1f8ad37	0.13284264596709658
222	0xbfab763102f6a8df	-0.053636104213482964
223	0x3fcf995c789c725f	0.24686771287169315
224	0xbfa6fc3765f8eee6	-0.04489300842075554
225	0x3fa2af5e7e4b4206	0.036494210163827076
226	0xbfc35c155dc485fb	-0.1512476642465542
227	0x3fc02a9e489f70c5	0.1263006071666323
228	0xbfd010b20ca3dad3	-0.2510190127790512
229	0x3fc1ec8fa64182cb	0.1400317727848431
230	0xbfd3b9a21398c197	-0.3082051459669172
231	0xbfcbc05fb396c536	-0.21680828351012743
232	0xbfd440fd75d2c341	-0.3164666796320042
233	0x3fcd2aeb247dda1a	0.22787226945702416
234	0xbfa4f51a3ae5fd08	-0.04093248337721361
235	0x3fcc9f4c78bb3936	0.22361141104779286
236	0x3fcf725aaaa70c9c	0.24567731220858924
237	0xbfb1c44d2fac1608	-0.06940157331344932
238	0x3fd08f91b84de96c	0.25876276968451495
239	0x3f876232c0cace30	0.011417767056037226
240	0xbfc3ab1dc49ed6c3	-0.15365955448731058
241	0x3fd274a907e9758a	0.2883703782334456
242	0x3fa415e832e7a634	0.03922963735005816
243	0xbfd0bdf82fda1456	-0.26159481690439657
244	0xbfd0708a5ba2765b	-0.2568689246053048
245	0x3fc5966952011bcd	0.16865269188039492
246	0xbfc9e8db8916bf87	-0.20241874879638663
247	0xbfc45c30ae6a2d00	-0.15906342045159505
248	0xbfc5c5b162cbcaf1	-0.17009560894037848
249	0xbfc6def0e431e37a	-0.1786786188347625
250	0xbfd25329fc42bd93	-0.2863259280665826
251	0xbfbaddd5dd56e444	-0.10494743970674941
252	0x3f95d35e4aedf560	0.021314118693671502
253	0xbf904a110cdc94ba	-0.01590754166604278
254	0xbfc0a300493c4a85	-0.12997439933731783
255	0xbfd48ec970ca5f7b	-0.32121501936625635

gru.bias_ih_l0 f8 [30]
0	0xbfc54319419d685d	-0.16611018852092033
1	0xbfd14ba9361bbdc3	-0.2702429798509593
2	0x3f8c6b26a36a9fcb	0.013876249181819752
3	0xbfd3efe6c0a22a43	-0.3115174180208308
4	0x3fcacdb3c75f280f	0.2094025348181394
5	0xbfc852c60071159c	-0.1900260450512804
6	0xbf8a3b4f07fb802a	-0.01280843489752222
7	0x3fb3ee270a85a003	0.07785266882785895
8	0xbf937f58fb062242	-0.019040479966436992
9	0x3fc8e0043cc62b33	0.1943364426373023
10	0x3fc6d79b500ec21c	0.17845479401650344
11	0x3fc5a2f2d5366159	0.1690352955890926
12	0x3f974594778bb4a8	0.02272636394166186
13	0xbf76e2def3137f1e	-0.005587454697177722
14	0x3fd019abcfe87ab6	0.2515668421128042
15	0xbf90e7c052378026	-0.01650906087695616
16	0x3f97416ba718642c	0.022710496972738678
17	0x3fcae739ce2ec9ca	0.2101814514877119
18	0xbfd0da72a0ae4262	-0.2633329934260812
19	0xbf897f5f286f1ecc	-0.012449973508310029
20	0xbf59d6fc453e80b7	-0.0015771354273752933
21	0xbfc2c041ffb1a49d	-0.14649224267057984
22	0x3fd3cbc819ed0fb7	0.309312844580059
23	0x3fc9af9771dd0823	0.2006711297963771
24	0x3fd67e7ffe372ce5	0.3514709456037067
25	0xbfcd8817b18e11d1	-0.2307157151191306
26	0x3fd50c45d9727b45	0.32887407527043805
27	0x3fd136ff37e1049a	0.2689817472165231
28	0x3f7ed2fecec33995	0.007525439588972911
29	0xbfb0a746b9625cd2	-0.0650524332617011

gru.bias_hh_l0 f8 [30]
0	0x3fd04cb76f314be1	0.25468240603112063
1	0xbfcddd88cc377bdf	-0.2333231923248311
2	0x3fb88900546d5428	0.09584047375877047
3	0xbfd31a4660a22a43	-0.2984786933599574
4	0xbfd4559c7c506bee	-0.3177252973561612
5	0x3fc3505ebf8eea64	0.1508902011244856
6	0xbf949a2383fdbff8	-0.020119242602447657
7	0xbfa54b9deaf4c000	-0.04159253590694334
8	0x3f93e9a304f9dd9d	0.019445941141808743
9	0x3fc57d133cc62b33	0.16787949054227055
10	0xbfc2334b6ff13df2	-0.1421903893083108
11	0x3fbe68aeaa6cc2c3	0.1187848249508177
12	0x3fcfbff34ef1765d	0.24804536204003372
13	0xbfc0e4a597989c16	-0.1319777479377257
14	0xbfc065e0202f0ad6	-0.12810899325821506
15	0x3fc5224df5b90fe5	0.16510939119518678
16	0x3fb5225469c61924	0.08255508024567298
17	0x3f74c721c5d93c55	0.005072719502620411
18	0x3fad1653fa8ded7e	0.05681097444081738
19	0xbfbfb445e50de3cb	-0.12384449808258961
20	0x3fac9bc67944af7a	0.055875971129664984
21	0x3fd0a2c98f81de61	0.25993575109848704
22	0xbfcccd6045a43c4c	-0.2250175800367934
23	0x3fca0f4d83c0146a	0.20359200413819006
24	0x3fd272452eccad9b	0.2882245022799112
25	0xbfb3bdf84f87ca4b	-0.07711746160183812
26	0x3fb47a2f14cf3c26	0.07998937852902141
27	0x3f938cc6d323119a	0.019091707836894047
28	0x3fbfb2c49a98cf51	0.12382153295839983
29	0x3fc60e6d766a30dc	0.17231529504750298

fc.weight f8 [1, 10]
0	0xbfaff3a1b29a085a	-0.06240563683697138
1	0xbfc8b9034fe03040	-0.1931461467760318
2	0x3fd18f2e3109f744	0.2743640402694505
3	0xbfb52bb699cc0616	-0.08269826178368364
4	0x3f70835c1d291f7b	0.004031524486499789
5	0x3f91c8c3a33fc087	0.01736741718190207
6	0x3fc9ce930b4ce9c2	0.20161665012149227
7	0xbfb8fa41ac069f62	-0.09756861162042932
8	0x3fd3211f9a78254f	0.2988966949929663
9	0x3fd5cc661e49c48e	0.34060051877811126

fc.bias f8 [1]
0	0x3f9f041f919dc315	0.030289166701041276
