Thesis-codes/Exp-1/results-archive/results-2-wrong-database/sg5/save_model/6/LSTM_1_best_train_12.pth (torch, 18327 bytes, 6 tensors)

lstm.weight_ih_l0 f8 [84, 1]
0	0x3fbe8cdec2ad5e03	0.11933700802671159
1	0xbfcec2c8b166c2b0	-0.24031933462312827
2	0xbfba2f290a594bad	-0.10228210928589361
3	0x3fc0d912f463aba9	0.1316245740229907
4	0xbfa6b7d9fc96a66f	-0.04437142570834573
5	0x3fc711e2019790ea	0.18023324086892184
6	0x3fbf50e706d8aeba	0.12232822339199859
7	0x3fb9e1074167ae6c	0.10108990999986539
8	0xbfc4f386c0f3e0b9	-0.16368183537975314
9	0xbfb9d2a8cc98540e	-0.10087065691944039
10	0xbfc941d1138f221b	-0.1973210664275634
11	0x3fae7bd238be111c	0.05953843062073558
12	0x3fb4bf66a70881f9	0.0810455472751598
13	0x3fcf397c981ccd82	0.2439418547379369
14	0x3fc988df6acabc7d	0.19948952402544143
15	0x3fce2e8762769e94	0.23579494769841303
16	0xbf8a2fc3128d9c79	-0.012786411288926868
17	0xbf8e2d4b6f4f2d09	-0.014734830221547772
18	0x3fd175e4dd7bc15e	0.27282067898979345
19	0x3fb96ee397735928	0.09934828231357484
20	0xbfb58e01d78728da	-0.08419810783303508
21	0x3fcc2a1809a2be48	0.22003460379117912
22	0xbfcc142472c00f12	-0.21936469653166363
23	0x3fc8a46a7b3a33e2	0.19251757637940076
24	0x3fc9e047498d236b	0.20215693560956124
25	0xbfabe4e7d58828f4	-0.054480786147978494
26	0x3f71a33f00bbaf26	0.004306074242531632
27	0xbfb304618d2b9107	-0.07428559967553748
28	0x3fb7385b8bfc4fdc	0.09070369880311041
29	0xbfc87ab2db264a76	-0.19124446583426263
30	0xbfbc9eb2f491533b	-0.1117965552414945
31	0x3fc3cd016044ed5d	0.15469376755377598
32	0xbfc2e6ee8aa3149b	-0.14767247933756242
33	0x3f9c169e644b674d	0.027430033561223244
34	0x3fc707dd670cd9b1	0.17992751628635298
35	0x3fc4c13026c07837	0.1621456326692525
36	0x3fc70c08d2f758c5	0.18005476285060787
37	0xbfc1463e65462785	-0.13495616860410223
38	0xbfc4af567ed9b261	-0.16160088724008673
39	0x3fd047b97920deb4	0.25437771634049544
40	0xbfc8389293243187	-0.18922645744931918
41	0x3fb52f5625110f64	0.08275354771563809
42	0x3fbdf1712ef2c545	0.11696536441993029
43	0xbfc2c4bc06c1ff97	-0.1466288598057843
44	0x3f9ff368a272aa1c	0.03120196811202379
45	0x3fc186c3c33bdbce	0.1369251921930456
46	0x3fba1e70c2af74d6	0.10202698472081137
47	0xbfc2aff77366036f	-0.1459950746030034
48	0x3fd076990059af23	0.2572386268063715
49	0x3fc262e0c1893cbc	0.14364251565937092
50	0xbfacd6a8525edf6c	-0.05632520680904815
51	0xbfc5e36ec9fa5324	-0.17100319730948244
52	0x3fbebd009ba0b41d	0.12007144736772131
53	0x3f99db6525d12f5c	0.02525098841969907
54	0x3fa5abda65520bae	0.0423267601663818
55	0x3f9fca8c09bd7a7b	0.031046093077174746
56	0xbfcd741396c42818	-0.23010487424500137
57	0x3fcb8513d7b98b64	0.2149987033218067
58	0x3fbff3f02206c96b	0.12481594877934803
59	0x3fab7bc819112a8d	0.053678753910010625
60	0xbfb101c957b49ac6	-0.06643350974318726
61	0x3fc610e127657dbe	0.1723901216855505
62	0xbfc30026237ac78d	-0.1484420464744826
63	0x3fbbee1c006d4d3e	0.10910201082633805
64	0xbfb6ef71de1025a6	-0.08959113761388568
65	0xbfc0c7529be8ea72	-0.13108284580978907
66	0x3fc49f1ed23a4a7e	0.16110596909546254
67	0x3fc27cba518820ce	0.14443139058153637
68	0xbfc267d0d0fa8b43	-0.1437932033923862
69	0xbfc0750d5cb32c9f	-0.12857214952814375
70	0x3fd11416c25c866c	0.266851129346924
71	0x3fb8cc1849f081ca	0.09686424069560143
72	0x3fce7391a68cca6e	0.23790188438723042
73	0xbfca58bbc1166dbc	-0.20583292892557192
74	0x3fc3e96071aaf780	0.15555959272563413
75	0xbfc283ebf06a7885	-0.1446509288697976
76	0x3fb36e330a5d6675	0.07590025904701199
77	0xbfac03e3f5c1e4bc	-0.05471718192070216
78	0x3fbad67c75844b9b	0.10483529919683436
79	0x3fd0d4ff970b5372	0.26300039053358326
80	0xbfccd616c5e4746a	-0.22528347647395047
81	0x3fbfda3e4f5b4cc9	0.12442387998025874
82	0xbfcafb0eda8285ca	-0.2107866827910086
83	0x3fa161a7e9519e6d	0.03394818041925594

lstm.weight_hh_l0 f8 [84, 21]
0	0xbfa6801514125198	-0.04394594068540697
1	0x3fc9d415a0be83e0	0.20178480480993155
2	0xbfc07b4b86f8e32b	-0.1287626656574273
3	0x3fb7f6abcc1116a1	0.0936076520166247
4	0x3fcb3840a04894a3	0.21265418840736058
5	0xbfcecc90fde76bef	-0.24061787030845447
6	0xbfc3686fc25ef0c6	-0.15162465086712568
7	0xbfb58f303322e1bb	-0.08421612976497432
8	0x3fb5395561a4e836	0.08290609010592295
9	0x3fc7020de45d4e15	0.1797501912175085
10	0xbfc378520dd5fb4e	-0.15210939097957027
11	0x3fca7b2f7e0b8714	0.20688432364027476
12	0xbf2ade1d2a553f56	-0.0002049837686777199
13	0xbfc36b73ec641688	-0.15171670000579618
14	0x3fc1af44cd4d8aea	0.13816127800517758
15	0xbfa727c215e3a31a	-0.045225205585501096
16	0x3fb57d60cef6a208	0.08394436886613488
17	0xbfc5a0224aa89cac	-0.16894940038148343
18	0x3fc23b71e413d324	0.1424391139659288
19	0xbf8541af0506aaef	-0.010379187909014457
20	0x3fa4e5a415fa2d6e	0.04081452148701713
21	0xbfaeea275266f60d	-0.060380200203763314
22	0xbfc6af20bd59acb2	-0.17721947904224106
23	0x3fc37f9562d740fe	0.15233104063236874
24	0x3f5b5375899450e2	0.0016678474260674527
25	0x3fc74ea832a5437a	0.1820879218380716
26	0x3fbabacadfb1fb40	0.10441272698697635
27	0x3fbae3cc960e8095	0.10503843940250797
28	0x3fa880f0d343365a	0.04785873965157057
29	0x3f757b1a2b252908	0.005244352551310401
30	0x3fbd564fa37ad6d6	0.11459825268942878
31	0x3f60970627092483	0.002025138870781763
32	0xbfc8964bfcb91f9b	-0.19208669509884832
33	0xbfb40e79fb96e8df	-0.07834589378663591
34	0xbfa4d65b274cd5a0	-0.040697907016162604
35	0x3fc298d839da6380	0.14528944802148303
36	0x3fa09ee8ea0b17a6	0.03246238572096098
37	0x3fb3940c5523336f	0.07647778585960706
38	0xbfc1c1dc377cce98	-0.1387286444602196
39	0xbfbdcd7991098285	-0.1164165476889228
40	0xbfba288592903f4f	-0.10218081310472125
41	0x3fb7d698827e18c8	0.09311822114804891
42	0xbfc287662fc84c7f	-0.1447570546448311
43	0x3fc58e3460a70d39	0.1684022399841554
44	0x3fc5c88f03086620	0.17018306396566718
45	0x3fc859024b0df74a	0.1902163378217046
46	0xbf829b61f155f3a7	-0.009085431268198564
47	0x3fbd5030abea5eb8	0.11450485417514755
48	0x3fad10ff671a47cd	0.056770306907437985
49	0xbfa83d57d3a09e78	-0.04734301050512796
50	0xbfb4da0a79fbe953	-0.08145204046369274
51	0xbfc7231106797f8e	-0.18075764480726914
52	0x3fc123c6ce9d1558	0.13390431488566423
53	0x3fa93b9e14d786b6	0.04928297047059742
54	0x3fb7430ae7bff9a7	0.09086673887211437
55	0x3fa0585e30ca486d	0.03192419381697751
56	0x3faa84f26e70ba18	0.051795555097090495
57	0xbfad834d46680413	-0.05764237865879109
58	0x3fa20a9cb1e361f8	0.03523721381651862
59	0x3fc3e2d8af1ba3ba	0.1553603034037943
60	0xbfc43daf13b73796	-0.15813244307213087
61	0xbfc4ed689f8277cf	-0.16349513805920288
62	0xbfbcd8c9a561e78a	-0.11268291747719963
63	0xbfbf484904ad99a8	-0.12219673504077966
64	0xbfc0eac32ff1f07d	-0.13216438141887812
65	0x3fc875be9cae043a	0.19109327936533466
66	0x3fc5691281aab7e9	0.16726905185117794
67	0xbfc04bd8670cc64a	-0.12731461555226736
68	0xbfcc4d96d9d0bbc5	-0.22111783633724094
69	0x3fc03193e4db441c	0.1265129916633051
70	0x3fc96c9900c9ad5b	0.1986266378256499
71	0x3fcbb7924b331ef5	0.21653965637073438
72	0x3fc0efe254db91b3	0.13232068198625555
73	0xbfc0a401259ab2fd	-0.13000501953265334
74	0x3fc87adb8af6662a	0.19124931607511658
75	0xbfc8b7ece1cee90f	-0.19311295533936643
76	0xbfb5029d0010b85d	-0.08207112552256164
77	0xbfcbd09e6cf2860c	-0.21730404205031595
78	0x3f90090963504ce5	0.01565947216665799
79	0xbf93da91270db44e	-0.019388454445494134
80	0x3fbb166a2e02c12e	0.1058107721644361
81	0x3fcf33827b44d305	0.2437594510935456
82	0xbfb7d325f088b46d	-0.09306561586773095
83	0x3fa036ad633a0ba5	0.03166715465797346
84	0x3f81c954f861fe84	0.008684791402856058
85	0xbfb8977a8915e269	-0.09606138083280204
86	0x3f6d51f24dc1cf2b	0.0035791141981976935
87	0xbfb5f3c054d36d03	-0.08575059958404911
88	0x3fb42906ac35a178	0.07875100807507873
89	0x3fc4030f631732c6	0.15634338701638323
90	0xbfabde1ae7869cc6	-0.05442890239947355
91	0x3fb60c6f36c78ee5	0.08612723433867193
92	0xbfc2d20a643c3664	-0.14703493017480007
93	0xbfcac5ef93b83372	-0.20916552269809646
94	0x3fbb7f8fbd422c76	0.10741518374031664
95	0xbfabe84655be72d0	-0.05450649067572544
96	0x3fafb73b78dbbaa1	0.06194482660599943
97	0xbfbe85c7c5470e41	-0.11922882620188437
98	0x3fb63490b4e77cfe	0.08673958222015085
99	0x3fb367d6711a7890	0.07580318700135735
100	0x3f93f74e30a9b297	0.01949808284773499
101	0x3fb49fe6a9602f66	0.0805648959650945
102	0x3fc22dd012e541d0	0.14202309534677093
103	0xbfb672a61313c8aa	-0.08768690076593325
104	0xbfa91458b6de680a	-0.04898335678372241
105	0xbfbad84035234938	-0.10486222550688218
106	0x3fceb164ef011eef	0.23978864355216653
107	0xbfb303c09a9d305d	-0.07427600645786599
108	0x3f9dfb0ee8ef552a	0.02927802368852387
109	0x3fc1e982dbcad68c	0.13993869525954883
110	0x3fbc4f62b2a435cd	0.11058632718432833
111	0xbfaa8cd528361099	-0.05185571781024229
112	0x3fcacee0466f1438	0.20943835677295097
113	0xbf374056bdc7d307	-0.0003547870417428965
114	0x3fb80aa44aa3876d	0.09391238043056456
115	0xbfa8f0767e74536b	-0.04870958608277117
116	0xbfc80d1e6fe0a231	-0.18790035689132048
117	0xbfce8243571f41fd	-0.23835031274803944
118	0xbfc675a0348d7af6	-0.17546465459869126
119	0xbfb677e0d1814337	-0.08776669611803532
120	0xbfbee1bf47a031f6	-0.12063212870288695
121	0x3fc82cea47c7c123	0.1888707018365575
122	0xbfb49c50958c024a	-0.08051017428443533
123	0x3fc22d9c35e91d5d	0.14201691276887632
124	0x3fbea4e88eec60de	0.11970380296077418
125	0xbfb1725fe31bd86d	-0.06815146727226003
126	0x3fad136f2ff2e33a	0.056788897135851404
127	0x3faacd3eaecd21b1	0.05234714397244334
128	0xbf97edbb18e3f9ec	-0.023367808717916036
129	0x3fbcc685f2bcfb9f	0.11240422416902483
130	0x3fad1bb804f98eff	0.056852102858810476
131	0xbf9d6bbf7f74d228	-0.02873133864814484
132	0x3fcae1eb76166edd	0.21001952425000683
133	0xbf9a85ae28017b1c	-0.025900574867019008
134	0xbfaf6fd0ff72fd4e	-0.061399966414223614
135	0xbfa0016d0383bb83	-0.031260878256822465
136	0x3fb19ff635cb0f15	0.06884707272825737
137	0xbfc98367ad8dd17b	-0.1993226621085674
138	0x3f93fe08d12b8e4e	0.01952375199006289
139	0xbfa5c92a7eb60961	-0.04255039974943276
140	0x3fcb49ac6555b982	0.21318583438864996
141	0xbfad119c223628b0	-0.056774977852073305
142	0x3fbeec713c0809f4	0.12079532352075956
143	0xbfc98d8bb23598c8	-0.1996321315920737
144	0x3fc76c1d8de6d448	0.1829869215850144
145	0x3fc7fedf2b35ff43	0.18746556863697536
146	0xbfc699e1a04d0dd3	-0.1765710861892403
147	0x3fc05b2392bbb3c7	0.12778134026248564
148	0x3fbd299dd5d55e25	0.11391626806777617
149	0xbfb07e47c7b562e3	-0.064426885849922
150	0xbfb09bfc02f170cf	-0.06488013336042119
151	0x3fb1e7a180cf53d0	0.06994065661213189
152	0x3fbc9dfe282986c6	0.11178577881357929
153	0x3fc490643cea71ea	0.16065648054508525
154	0xbfb84d4b48640714	-0.09492941396095161
155	0xbfa89a7a60becf8a	-0.048053573903785354
156	0x3fcaba5824ed96f3	0.20881177714470986
157	0x3fb3c41321052390	0.07721061283258579
158	0x3fc036b33fbfb9f2	0.1266693173669889
159	0xbfd0274840d7b7a2	-0.2523975976208651
160	0xbfb1fece3597fb52	-0.07029427345694941
161	0xbf967c95b08cb46b	-0.021959628010496262
162	0x3fcc2854c568b7e8	0.2199808086310775
163	0x3f97c44b745a6059	0.02320974252378991
164	0xbf939dd7284ce729	-0.01915680106615195
165	0xbfc1982550e59199	-0.13745562028919947
166	0xbfbc7e1c1224082c	-0.11129928057565114
167	0xbfc73a202ac988b6	-0.18146135415287795
168	0xbf8abc9b532b4ba8	-0.013055051303501333
169	0xbfb9df617e182141	-0.10106477097008783
170	0x3fb217933e8c9c11	0.0706722285946031
171	0xbfc95c2f9ba05090	-0.19812579249321915
172	0x3fc1ba2c4d7b4707	0.13849405082014973
173	0x3fb5c01944ea8b82	0.08496244366192054
174	0xbfb13be299bad5d0	-0.06732002499742085
175	0x3f5d1bc591ed73dd	0.0017766408343142727
176	0x3f904803fe347769	0.015899717703283942
177	0xbfa33a20dd12f7da	-0.037552859293540755
178	0xbfca39c629fda555	-0.2048881249459479
179	0xbfc784553c78d779	-0.1837259812615988
180	0x3fc017e410c90629	0.12572909183113382
181	0xbfbc8acdfa617ed9	-0.11149299013913651
182	0x3fc3018a9cc8bdc4	0.14848454146839007
183	0xbfca2ec7420abaeb	-0.2045525619955336
184	0xbfc0a9d83afdcf79	-0.13018324737970113
185	0x3fb3aa9ca667147d	0.07682208120884755
186	0x3fa81555058ad6af	0.0470377511277723
187	0xbf948b8b30152e51	-0.020063566980111528
188	0xbfbb0505f1e6cfb3	-0.10554539829064317
189	0xbfc72e2c007aa373	-0.18109655402556832
190	0x3fc76b31bba2646d	0.18295880948861357
191	0xbf9c567d4b098ccc	-0.027673680977738965
192	0xbfc1420948c354e0	-0.13482776692277465
193	0xbfab6ab13de57343	-0.05354837303705164
194	0xbfd2597b9f450fa5	-0.2867116027230117
195	0x3fd1968c600636f3	0.27481374146815013
196	0xbf50f128fa873e26	-0.0010340595418830783
197	0x3fa699552ed79e7c	0.04413858601384121
198	0x3fd1809f8369a3c3	0.2734755309416494
199	0x3fa05bd964817715	0.031950753706708
200	0x3fce3fed34049c8f	0.23632588424627385
201	0xbfb85a3ffb0622b9	-0.09512710455431773
202	0x3fb6927bccb69721	0.08817266223794863
203	0x3fc99a5cc2e2d4bb	0.20002326503678156
204	0x3fb2cbfdfb38e668	0.0734251726470575
205	0x3fb696653cadff26	0.08823235255658499
206	0xbfa6a49a51be9b6b	-0.04422456977709185
207	0x3fc8f2ee7e85d40d	0.1949136846339176
208	0xbf963222e557fce8	-0.021675629852322326
209	0xbfb96f04b66c1225	-0.09935025647798364
210	0xbf7f0d7018e76e5f	-0.0075811747360280115
211	0x3fc1cc9527b7c278	0.13905586661669012
212	0x3fb9cc88a8e8261c	0.10077718852712575
213	0xbfa32427df7381fb	-0.037385221506841725
214	0xbfc840d9c7c10fc4	-0.18947908643360567
215	0x3fc42bff5c86ae84	0.15759269731403347
216	0x3f7cc19573a997c9	0.007020553394431369
217	0xbf9d385522d17643	-0.028535204172263084
218	0xbfc1c0f6ce40b9c4	-0.13870129652918994
219	0xbfc2bff36b2dcbbc	-0.14648287518829572
220	0xbfb69c91ce6b5c49	-0.08832656182799882
221	0x3fabdfd4e13e904d	0.05444207429471302
222	0x3fb9154399c22b00	0.09798071388119567
223	0x3fbd55666e75c652	0.11458435246256585
224	0x3fc618d4270cf240	0.17263271242872413
225	0x3fc075659d76bd76	0.1285826701036787
226	0x3fcccee0b646ad23	0.22506340885352313
227	0xbfa7782a90f048a4	-0.045838670914365026
228	0xbfa2c501f4f9763f	-0.0366592990437593
229	0x3fcdc761b066cdaf	0.23264714349134638
230	0xbfc3c4eef840f03a	-0.15444743272553457
231	0xbfa3be9e3de5bee0	-0.03856367593368559
232	0xbfc76ba43bcd1cde	-0.18297245902997522
233	0x3fc10296a570fa66	0.13289149358930102
234	0xbfb368be9f233782	-0.07581702599710918
235	0x3f9fc73600f79f1d	0.03103336697486646
236	0xbfc8ad468a1ad018	-0.19278794997592352
237	0xbf82f77ad0541895	-0.009261092646294858
238	0xbfac1dc65cd4b85b	-0.05491466410818254
239	0xbfb364a6ac741586	-0.07575456342973128
240	0x3f98364782c535e4	0.02364455924662491
241	0xbfbc3df3043b6901	-0.11032027104684873
242	0xbfb85bf385b9650e	-0.09515306486845906
243	0xbf947d875a03daef	-0.02001010405453035
244	0x3fcb9668ceeb1243	0.21552763083868073
245	0x3fb1ff0ae3d89843	0.07029789030693316
246	0x3fc657961c806a3b	0.17454792396240912
247	0x3fa7f895d717153c	0.04681843042957687
248	0x3fa040d9c62a89f3	0.03174477142353629
249	0xbfaab41226e957c4	-0.052155081987322244
250	0xbfc5d4ad48ae1064	-0.1705528836138256
251	0xbfc6bd9a889039b2	-0.17766124408849532
252	0x3fcbb4a213a1bff4	0.2164499851091929
253	0xbfc51d687df9bec9	-0.16495996619368317
254	0x3fc443e7e423201c	0.15832232131492752
255	0xbf7b5e9df4cc4786	-0.006682030693598301

lstm.bias_ih_l0 f8 [84]
0	0xbfc579e9d7700708	-0.16778300303854388
1	0x3fb1365a9a7ddd25	0.06723562499779641
2	0xbfc73c7f396c6321	-0.18153372100712153
3	0x3fc943046cdb3559	0.19735770526168997
4	0xbfa1ff4b257aeb5f	-0.035150860142912015
5	0x3f9f671691043952	0.030666687584976877
6	0x3fc22c05f6609589	0.14196848421230993
7	0x3fb16d94c5cfd243	0.06807832555188846
8	0x3faab60662ee7d15	0.052169990135775425
9	0x3fca98c4e1e50f2d	0.207787142086198
10	0x3fab3bfdcfb151b6	0.053192073443514884
11	0x3fcafab8384fcc97	0.2107763552627133
12	0x3f9e0bf6edff3f24	0.029342516208827565
13	0xbfc570efde84cbe4	-0.16750906338856375
14	0xbf8b3ef750b8e2e0	-0.013303692007967383
15	0xbfc1fd7c66e63cf8	-0.14054827713378137
16	0xbfb20c5fdb8c9887	-0.07050131902778577
17	0xbfc321072be71c59	-0.14944543498697518
18	0x3fac9d9a4de662f9	0.05588991356780144
19	0xbfbf6b6cb1f1edb5	-0.1227329191623799
20	0x3fbd7c1b3317c64a	0.1151749610651446
21	0x3fd090cd0658ef30	0.25883794422019246
22	0xbfb58d6bba24e36d	-0.08418916029485297
23	0x3fc576155b82fe0b	0.16766612022728142
24	0xbfc2ea7de89aff6e	-0.1477811227578018
25	0x3f9f8d0f078c9fad	0.030811533771298794
26	0x3fb8b8239e81d21e	0.09655974025538014
27	0x3fba49828ace34be	0.10268417252355541
28	0xbfba7cdccf9616ce	-0.10346775119804905
29	0x3fad695b9bea19c0	0.057444441587950035
30	0xbfb388ff72de9698	-0.07630917124205394
31	0xbf980486e7871490	-0.023454769021345856
32	0x3fb987d25f931ccd	0.09972872575154952
33	0xbfb71e66177255a6	-0.09030759880473357
34	0xbf8bffe5bfcf02ba	-0.013671679416689887
35	0x3fb8d39dcf4b30ba	0.09697901068574569
36	0xbfb80a83098f3123	-0.09391039832479868
37	0x3fcd0f7e5e51ef57	0.22703532796355816
38	0x3fc5022ab6216344	0.1641286267574974
39	0xbf9de57c0668ee82	-0.029195726290920827
40	0x3fa8e32cc091ba97	0.048608206278790415
41	0xbfb12db8de1df39f	-0.06710391447809493
42	0xbfcc9b4134b42a80	-0.22348799775530281
43	0x3fc17e88a3802007	0.13667400344297695
44	0xbfb2eb2fcdb57c6c	-0.07390116474333447
45	0x3fc77648b963311a	0.18329724361536465
46	0x3fb302e8d5d9881a	0.07426314564648387
47	0xbfa6f2dfd5802a96	-0.044821734249201814
48	0xbfb3b72c554a85bf	-0.0770137508611901
49	0xbfadbdb949ec558b	-0.0580881026018388
50	0x3fc430eec0bb79ab	0.15774330530889577
51	0xbfba1b2151c408f6	-0.10197647329554002
52	0xbfa1c29d0cb0f8cb	-0.03468790798113871
53	0x3fb029e9b053cb86	0.06313953928819957
54	0xbfbf21e8c909c364	-0.12161116512448938
55	0x3f60176bc3d6a981	0.001964292982582439
56	0x3fb82a3b23e2f11b	0.09439439417014166
57	0x3facf23f01ecd819	0.05653569124699249
58	0xbfc43e3b1daf5f99	-0.15814913701501324
59	0x3fc1a5dfcc68b8c6	0.13787457924758523
60	0x3fc24c95172b7fda	0.14296210891097766
61	0xbfc5aa4f110d7b24	-0.16925991375588822
62	0xbfce43f0442ed35a	-0.23644831971400998
63	0x3f9ea9a82d9c21bd	0.02994406488781619
64	0xbfc12a95a495f4d1	-0.13411207710661313
65	0x3fa9609f8d99809c	0.04956530192862482
66	0xbfb6bb4a14b31b83	-0.08879530911791104
67	0xbfb3eda95eff21a5	-0.07784517831090072
68	0x3fb86202bc7e3dda	0.09524552442439163
69	0x3fb126443405d2dc	0.06699014921270979
70	0x3fa7992f5b1e8c6f	0.04609058368011964
71	0xbfb8238d825cc393	-0.09429249222445284
72	0xbfb05aca70091a65	-0.06388535723918094
73	0xbfa4ac31cd23cb6e	-0.04037624005459049
74	0x3fc7cba1c578ac42	0.18590185300976897
75	0xbfc2eac8dc41137a	-0.14779005770301606
76	0x3fc6f747ed81e8e3	0.1794214162544626
77	0xbfb8c47dc4a6791a	-0.09674821902305944
78	0x3fc28bfd43ecaa1a	0.14489713493942774
79	0xbfb65e88726e2aaa	-0.08737995904645382
80	0xbfc5070e58bbdfe8	-0.16427783329686396
81	0x3fb5c14d457751ef	0.08498080202054557
82	0xbfaa9cb08c461ccc	-0.05197669708564376
83	0x3f77a5ef543a392d	0.005773482207258857

lstm.bias_hh_l0 f8 [84]
0	0x3fb9a62d911ff1ab	0.10019192498288614
1	0xbf807d972c111669	-0.008052044899282866
2	0xbfb291ab32d8c650	-0.07253522864700668
3	0x3fb8a457d9b66b20	0.09625767770050375
4	0xbf9351b84af5d6b8	-0.01886642415543946
5	0x3fcdb030b2208720	0.23193939874277536
6	0xbfbe2fb1933ed4c3	-0.11791524739131191
7	0xbfbc4e11fa302dc4	-0.11056625707731543
8	0x3f7fa4ab1773e9b3	0.007725399328814597
9	0xbf95bd8af0d785f8	-0.021230860662290824
10	0xbfa2d961b04eae4d	-0.03681473996342941
11	0xbfbf46894f6066e3	-0.1221700495520071
12	0xbf8fc998240181d9	-0.015521229361355292
13	0xbfab2784ba132fdf	-0.05303587695524902
14	0x3f9469d557a38e65	0.019934972261479795
15	0x3fa199fa64670c2c	0.034377884632270955
16	0xbfb138585b8c9886	-0.06726600871169994
17	0x3fb20d746831c788	0.0705178026562675
18	0x3fbfa422a6f33166	0.12359825683524192
19	0x3fcaf40e47070921	0.2105729910673029
20	0xbfc23dc6c6741cda	-0.14251026811709872
21	0xbfaa7e3e8d3885ca	-0.051744417895189423
22	0x3fb5c59785db1c94	0.08504626291243006
23	0xbfc78862647d01f4	-0.18384961992889226
24	0xbfa2395ba26bfd2c	-0.035593856408008356
25	0xbfc1dbc6ef0e6c0b	-0.13951956436798726
26	0x3fcd17f6cf40e8e6	0.22729382629206113
27	0xbfc3d2ce9a98e5b8	-0.15487082050985435
28	0x3fcfcc227834f480	0.24841719502902393
29	0x3f5a34537d43374a	0.0015993895840895216
30	0x3fce47dd2690b4bc	0.2365681112582133
31	0x3fb78f86861e3afc	0.09203377508513805
32	0xbfc77a48b03671a9	-0.18341930965551725
33	0xbfc9d381cbb92ac8	-0.2017671818487854
34	0xbfaefa23eff3c09f	-0.060502169648203756
35	0xbfc5ab9c985a679c	-0.16929967345350583
36	0x3fc35d3d0b3867a5	0.1512829117571616
37	0xbfc5ce37e1ae10aa	-0.1703557826950875
38	0xbfb92de2f3bd3995	-0.09835642290747722
39	0x3fae76a5fccb88d4	0.05949896536709934
40	0x3fc653be70246e96	0.1744306609697232
41	0xbfaa381abc3be6d8	-0.05120929286745274
42	0x3fa3da312d2f55bd	0.03877404858182441
43	0x3f92721b1c00fff5	0.018013404449675325
44	0x3fc936dc592541c7	0.19698671677407573
45	0x3fce8c51f963311a	0.238657233020043
46	0xbfb450d7ea2677dd	-0.07935857264098396
47	0xbf8055335600a9f4	-0.0079750071164044
48	0x3fc4f1a0b55abcf7	0.16362389426419785
49	0x3fc1acf90d84ea7e	0.13809121284596765
50	0xbf925171fa2431ce	-0.017888813869875446
51	0x3fcb0789271dfb7b	0.21116747293487123
52	0x3fba476439a78373	0.10265184791161434
53	0x3fc0c1899829e5dd	0.13090629510752097
54	0xbfb9c740c909c370	-0.10069661052854229
55	0x3fc2f19baf0f5aca	0.14799829528666059
56	0xbf895134e0e87746	-0.01236192046513519
57	0xbf952072fc264fa4	-0.020631596221917584
58	0xbfc7610c3daf5f8f	-0.18264916431394027
59	0xbfc35fc6d397473b	-0.1513603718909112
60	0x3fa5a8f2dcadffcc	0.0423046011337643
61	0x3fc2557e0ef284dc	0.14323402147150588
62	0xbfb1a238c85da6a0	-0.06888155833953613
63	0xbfc6bfd17a4c7bad	-0.17772882911319013
64	0xbfbde5f4092be992	-0.11679005836405157
65	0x3f9cbd921b3301a9	0.028066904935941803
66	0x3fbdd678ab4ce463	0.1165538233007211
67	0xbfc8aba94f7f90ad	-0.19273868924859042
68	0x3f9aec8df1f8f730	0.02629300870307033
69	0xbf94cbf92fe8b4b0	-0.02030934672273038
70	0x3fc52f2776c7a2fc	0.16550153064533635
71	0x3fb35d7f3da33c69	0.0756454015238305
72	0x3fa760249fedcb01	0.04565538837677786
73	0xbfd0c32c79a4796b	-0.261912459174616
74	0xbfc4c309da8753be	-0.16220210237830018
75	0x3fc1661c83beec86	0.13592869217777465
76	0x3fc9588cad81e8e3	0.1980148169712442
77	0xbfa0afa1894cf2b2	-0.03258995820076417
78	0x3fb77a4c87d95437	0.09170988384842436
79	0xbfc7bd5ba9371520	-0.1854662491079262
80	0xbf7015e7177bfa26	-0.003927138044444811
81	0x3fbd266fc57751f1	0.11386774607610285
82	0xbfa133958c461cfe	-0.03359668099715839
83	0x3fa233a3ea8746f5	0.03555023420234519

linear.weight f8 [1, 21]
0	0xbf89764310a30ba5	-0.012432598061769282
1	0xbfc2a3ab1a48bebc	-0.14561976226240414
2	0x3f885167e3120ee4	0.011874019257681785
3	0x3fb34bb39be4041d	0.07537386470723147
4	0xbfaf37e7c5d04790	-0.06097339906422328
5	0xbf66dfe0ef3b124c	-0.0027923005344255066
6	0x3f96746e7fca20c0	0.02192852644887533
7	0x3fc58e4633816b83	0.16840436472815776
8	0xbfc0f1dd9bc1310e	-0.13238115411002876
9	0xbfb4a0043dce3673	-0.08056665905879772
10	0xbfb56bd6c6ac2bbf	-0.08367674208072538
11	0x3fb201d23a695c52	0.0703402893644676
12	0x3fc7ea05b4d6d603	0.18682929353751385
13	0x3fc1af4bc45cb2f7	0.13816210830682227
14	0xbfa5de3778d7fb4e	-0.04271100378172453
15	0x3facc00115b3c101	0.056152376078786766
16	0xbfced1245e6393f7	-0.24075750931584114
17	0x3fcc363bca132d59	0.22040507666529655
18	0x3fb6e5e1cca65879	0.0894452213891287
19	0x3fb04f1541191383	0.06370671119027631
20	0xbfc343d11ffffcc4	-0.15050710737702933

linear.bias f8 [1]
0	0x3fb8beb2e5f6b3a7	0.09665983309123637
