Thesis-codes/Exp-1/results/ew3/save_model/2/GRU_best_train_33.pth (torch, 5143 bytes, 6 tensors)

gru.weight_ih_l0 f8 [30, 1]
00000000: ac70 ede2 60c2 cdbf 8fee 133c 959c c93f
00000010: 91ec 4ef4 f4e8 e33f 1c64 67c1 ed2b c23f
00000020: ea89 3c13 169b f03f b11c 59d9 4b81 e6bf
00000030: c21d 9504 0e71 78bf a1af 271a 89f1 d53f
00000040: ccae c3dc f33f d8bf ee3a d2b8 9de0 afbf
00000050: 621f 6942 273f d7bf 3d02 6338 fd89 d3bf
00000060: 6d3d 6aad eb1c ab3f c088 ac6d 3c53 cdbf
00000070: bcb8 af40 b617 72bf f4e2 9e98 f2b7 913f
00000080: d19a 6424 6edb c0bf 60ee 0e24 314f cabf
00000090: 7cbc cdc7 ceb7 c1bf e3cc 2a8a 99be b83f
000000a0: aca5 942c b759 ea3f d96d a35c 1b48 d03f
000000b0: a1df 9ee7 3d7c db3f 7d79 e041 83c1 dabf
000000c0: 8405 881d 13a6 e53f bda3 7606 283d e33f
000000d0: 78bf 9b62 1e71 c3bf b2ed b4aa edc8 d83f
000000e0: 644c bff6 1f65 e1bf 4179 8c30 1e1c 9b3f
-0.23249445991939888 0.20009103234757616 0.6221871158262663 0.14196559852169421 1.037862849371431 -0.7032832379417383 -0.005967192418502023 0.34286716036035086
-0.378903356161328 -0.06226055985563571 -0.36322957501805864 -0.3052971888210186 0.05295502178079912 -0.2291026626126662 -0.004417144703422856 0.01730326706430936
-0.1316964795780309 -0.20554174671802894 -0.13842186695135072 0.09665832160208114 0.8234516020503881 0.2544010548278642 0.42945811862181854 -0.41806107934271336
0.6765227867874022 0.6012153745879157 -0.1518896085249215 0.3872636954362988 -0.5435943431169901 0.02647444888418105

gru.weight_hh_l0 f8 [30, 10]
00000000: 56fe ebe1 c341 c63f e1f4 7489 4dcc ce3f
00000010: 9b32 1273 24be d23f 5193 5195 1ea8 b6bf
00000020: ceec a3ba a98d df3f 77ea ce77 709c c03f
00000030: 027d 3442 bbb8 d3bf b7ea f23f c5a5 a63f
00000040: b0ef f744 e844 c7bf e20e ce5d 85ff cdbf
00000050: d873 17ed 050c d83f a875 bcc2 efba 66bf
00000060: 2b93 3220 245d d53f 1c80 bb9d b6de ca3f
00000070: c914 dfa3 becf d03f 9007 bfef 598c babf
00000080: f732 fd7f a0ed c03f a80f cf2b 726d b0bf
00000090: 5558 4b81 c4e7 c93f 4bc9 479a 845b c03f
000000a0: b736 c809 13a5 c63f fc3b aa86 f49b d53f
000000b0: f760 331e 3835 bebf d095 c64c d719 d1bf
000000c0: b493 e7f1 061f db3f 3e46 7498 5630 c33f
000000d0: 313d 1687 e1a6 d8bf 797d 945c 007f 97bf
000000e0: fe39 ca1e c0d2 b4bf fb2d ae03 cd8e c4bf
000000f0: defd c9ab 1456 b13f 36d5 b13d 7921 a8bf
00000100: f775 9e76 8fdb d73f 83ce 907f 2cfc 833f
00000110: bc46 792a 9388 e13f 036b 59cc fee5 b93f
00000120: ac68 5cb8 b396 bb3f b4b0 d7b4 3b6b 4f3f
00000130: 7480 b237 3808 b73f 914e 62fe ad75 c03f
00000140: 95f9 3f41 1d99 843f 1721 acba dba3 c63f
00000150: fcec 71e8 854e d03f 0887 74f0 3d0b c33f
00000160: c888 139e 4950 e33f fc3c 5cb3 5b27 e43f
00000170: 9501 ce83 09dc a13f b8b7 24d3 eaa2 babf
00000180: 695a e7cf b169 a03f 2472 f93f 0cc1 8abf
00000190: e050 4012 ca54 a03f 7830 8fd5 6426 bebf
000001a0: 5291 bacb 1355 c13f 947c 5ba8 41f4 c5bf
000001b0: fd09 d869 803a 8e3f e26f baeb ed37 e23f
000001c0: 7d85 eec1 675d c13f 73a7 7271 8af7 b23f
000001d0: d2ac fa7e b36b ab3f 3322 ba64 ac6f b2bf
000001e0: 9510 33d3 6b31 d23f d5b0 2d76 e773 c43f
000001f0: aab0 03a3 fbdd bdbf e7f2 ea54 29c2 d33f
00000200: e5fc e8b9 b9c2 b9bf 527f 08c7 534c b43f
00000210: 9a8b eae6 3713 d3bf 1c59 b4d9 cd61 b43f
00000220: 4b0b ba10 edeb 60bf 246f 938c 54c5 c33f
00000230: 9757 fd3a c4ee ccbf 0c70 4347 aba3 bbbf
00000240: 98a4 9a13 d4c3 a2bf 2002 0177 e87c bbbf
00000250: 3921 d636 5c1d c43f 195a 2c2d 7ace c1bf
00000260: 05a2 3466 0b7b d1bf b4ee fc0c 1e14 b43f
00000270: 6288 9531 4a80 c53f 8207 12ab 30c2 c53f
00000280: 8d1e acfd 9d76 a3bf 0d7d cbc2 7ce8 d63f
00000290: bec7 020b d73f ab3f ead6 d530 438b c2bf
000002a0: d97d 7ce6 a9b6 df3f 9ea1 22d8 c1a8 d43f
000002b0: 10f8 ee8e b489 d33f 295e 7d32 8a03 9abf
000002c0: 7c1a d47b 6495 d6bf ddb9 6474 6cb7 b23f
000002d0: f0f8 456f c98c b33f aafa 6622 7215 d33f
000002e0: d68d f18e cdac d63f 6ed6 8fa6 28a5 d73f
000002f0: 6fb3 50fc 83b9 a4bf 10e5 8659 9938 cc3f
00000300: b795 813b 54a6 bdbf dc2c f548 0446 c23f
00000310: 1371 3a81 3421 adbf fdca f67a e86a b93f
00000320: 01de 65c3 dd10 f1bf 75ed 407b f7c6 e9bf
00000330: b32d b9ee 31c5 efbf 8eed bc70 4eb8 f2bf
00000340: a5ed e24d 7bef e3bf bb71 e47b 681a d5bf
00000350: eb28 b7be fdc2 f23f 3e0a a811 ce8e edbf
00000360: 5f87 d55f bd21 eabf a881 e48e ccdd e73f
00000370: 6854 b5e4 1f62 c03f c328 1702 7b45 c23f
00000380: 9b7d dcdb e699 a0bf 7463 3401 de94 e73f
00000390: 7bac b5d3 42ea d6bf 1c48 202a 9bbd 98bf
000003a0: 94c2 c252 62a6 bbbf 3e7f 7ef7 3133 cabf
000003b0: cf6f c0bb 54d9 e53f 047f dafc 74d1 dbbf
000003c0: 626d 7928 1c75 f1bf 52a0 9d2a 5c48 f1bf
000003d0: 699a 0416 19ff eabf 7ad6 aa21 92a5 e5bf
000003e0: fa3a 2c67 5035 cfbf 0234 6bbe 931d d5bf
000003f0: af77 dd42 a44e e53f f877 904f ae3d eebf
00000400: 23f8 a881 71f4 f0bf 8f76 b14c f637 f33f
00000410: 384f 39b2 4197 e7bf 738d 3a5d 3a4d f0bf
00000420: 0726 e7ca bef8 ecbf 91f3 c583 6c10 e9bf
00000430: 5db8 4996 df32 dbbf 3219 7dc4 320b e2bf
00000440: 6ab4 d927 79aa ef3f 264d 80c6 aff0 e8bf
00000450: 61ce 85c8 677d edbf 230a 771c a3ed ec3f
00000460: 4bcd 8489 353a efbf a7c5 4015 51a6 f0bf
00000470: f58f 4111 a0db e6bf 8d72 4ed3 c2a8 f1bf
00000480: 3cb9 1bca f5e5 e5bf 6d5f 7b7c d3e9 d1bf
00000490: 0060 be0a 67ed f13f e099 e9c1 907f e4bf
000004a0: 2a52 527a b2b4 e2bf 2ceb 5b28 6fe1 f23f
000004b0: e9ff 1012 7b94 eebf 1ae3 1dca 1608 f1bf
000004c0: e491 cbea 0286 edbf d7be 10a5 757e f0bf
000004d0: e3d3 d24e 9fce e2bf e580 f1f0 0c59 d9bf
000004e0: 15b2 61b1 e2e3 f03f f345 304d 81d3 f2bf
000004f0: 9bf9 cfd6 48ed e8bf cb23 cebd 161b f53f
00000500: 5d7b f65d 3bb7 c83f b077 4ffe 12ec bc3f
00000510: f02f 494d 4d3e d13f 12be 4d04 144d e33f
00000520: a422 91bc 4aa1 ae3f 0eee 6621 83da cf3f
00000530: 41be 1c77 71bc d2bf ebcd f66f ebfd d93f
00000540: f3c5 414b c34f e23f 15f7 9acb 51b1 d3bf
00000550: 85d7 db58 d62b e8bf 637d 9c7f d565 eabf
00000560: e92a b962 25f3 e0bf 8a48 1ad8 f0c8 eebf
00000570: 9706 4927 ef88 cabf 1962 b041 61b5 c5bf
00000580: 48b2 9d64 1abf ea3f e61a 8b7d f612 e3bf
00000590: 17e5 ef9a 7fe9 e0bf 836c 48c2 0963 f13f
000005a0: d096 6bf0 61da f0bf 0b44 d27e 65ed e6bf
000005b0: f094 e38e 27f0 e3bf 5cfe 822a 7f2a f1bf
000005c0: 8a24 05af 8aa4 dcbf c795 fc1d 412d e0bf
000005d0: 9ddb b06e 7d35 e33f 3677 1124 806d e9bf
000005e0: 2ff4 fe40 ccee f1bf 2fa6 2209 aec5 e93f
000005f0: 755e bd9f f34a b4bf 794e 2d8f 6a1c c0bf
00000600: a2e2 c10b eaca c5bf 91c6 8685 4ceb cebf
00000610: f52c ce70 6440 d03f 5b4a 6533 7098 cc3f
00000620: 3d87 32ae 8d83 c3bf 762c cba2 17b5 ca3f
00000630: 7efc 9b2f 48ad 9e3f 654a 41ee b49c d33f
00000640: b7bf c2bf 7eda d3bf 29a8 dd31 09d8 bf3f
00000650: 76ec b199 cf7c a43f 066b 80c2 8309 47bf
00000660: 92d5 688e 9882 abbf c204 5551 26a5 713f
00000670: 97c7 283c a47c c1bf 652e 9b64 80a4 c2bf
00000680: 7799 efb5 6078 ca3f 9ee3 5b7e a6c0 c8bf
00000690: 83d0 2955 9c7a c33f 5283 a167 5d59 d1bf
000006a0: 6195 69c2 d845 d63f 0968 fa06 3e61 cf3f
000006b0: 1437 6d00 71c9 db3f 84ed bca2 6adb d63f
000006c0: a45b 1eb0 d127 a7bf c24a a3ee 963d d23f
000006d0: f38f 08f6 3f37 bfbf 159d 08e7 900f c43f
000006e0: 2e57 168a e164 8bbf ad34 fb51 c85d cdbf
000006f0: 0e4a d346 b19c c5bf 3cec b172 6299 c0bf
00000700: 9dc4 b586 1a3c dcbf de07 5a20 3646 d2bf
00000710: 7652 de58 8e98 cf3f fb3c 798a 4086 c43f
00000720: e320 5cb2 c74a de3f 7e82 91b2 1a1d b1bf
00000730: 8138 fa3c f36e d33f a3f9 712e a2b3 d33f
00000740: d8ae 270c 82a4 c13f a8e5 28a4 9087 d1bf
00000750: 1224 b108 0a1e ca3f 72e4 46ca cb02 b63f
00000760: fba1 46f7 c7da d4bf 47e0 7931 b216 d53f
00000770: f6c8 2c56 e5cd c6bf 136c 5589 bcba 98bf
00000780: 2f8c 805a 083f c8bf 3dc2 37aa aa9c a83f
00000790: edc3 bebf d322 c83f 557e 9f95 e72d 803f
000007a0: 921c fba7 4ca2 d0bf e86d 0ba3 1b58 dbbf
000007b0: 6bcf 6c1e 3cdc d6bf 11ce 5bd1 f089 a1bf
000007c0: 3a76 151d b849 9a3f 0f76 2f62 93e9 c4bf
000007d0: 7ce3 9c3c 643b d0bf 10bc 1145 c439 b3bf
000007e0: 8329 ba0b 90f5 ccbf 98c2 9e4f c526 c23f
000007f0: 0e24 3d0b 1533 b13f f1ac fbcb 0075 dabf
0.17388199359264672 0.2406098290611345 0.2928553699246465 -0.08850279946780161 0.4930214235934728 0.12977414941800067 -0.3081501146825333 0.0442334785997977
-0.18179038398363678 -0.23436038093870254 0.37573383477666544 -0.0027746851755085684 0.33380988258641037 0.20992167188433164 0.2626797294909236 -0.1037040911023992
0.13225179910150306 -0.0641700131373556 0.20238548577498486 0.12779290707801247 0.1769126699222647 0.3376437487685846 -0.11799956071206795 -0.2672022104037213
0.4237687456464372 0.1499126667409189 -0.38518560592725054 -0.022945409441601925 -0.08134079696376514 -0.16060793571192264 0.06771973795002093 -0.04713038328274381
0.37277590354810236 0.009758327143664097 0.5479217366757534 0.10116569985386197 0.10776828051567361 0.0009588281188235488 0.08996917114063924 0.12859129830450347
0.01005766730667971 0.17687555899488736 0.2547926683398172 0.14878057709670878 0.6035507285526132 0.6298044684534996 0.03488187536186441 -0.10404842047566276
0.03205638564002273 -0.013063522055000006 0.0318968913344706 -0.11777334417200958 0.13540885398573238 -0.17151661606383029 0.014760020475482522 0.5693273166721122
0.13566300362894515 0.07408967275355653 0.053556069612875526 -0.07201650103719075 0.2842664301390497 0.15978711386140412 -0.11666844110340216 0.3087256745600783
-0.10062752522297876 0.07928966149529273 -0.29804799604806365 0.07961737217951675 -0.0020656233007811157 0.15445954193170863 -0.2260365760836833 -0.107966141603754
-0.036650302308154525 -0.10737469582910153 0.15714600255547298 -0.13911368566250884 -0.27313504200950006 0.0784319669446017 0.16797759457682832 0.16998871186302372
-0.038014352050649604 0.35793990157067485 0.05322143563661495 -0.1448749531224885 0.4955239058344581 0.3228001223274307 0.305279864867658 -0.025404128390930012
-0.3528681954634647 0.0731113228000377 0.07636698691019084 0.2981839500388711 0.3542970558102899 0.36945549264723965 -0.040477871465873665 0.220477265085528
-0.11581922962940082 0.14276174127949204 -0.05689395978444813 0.09928753854800827 -1.0666177399378969 -0.8055379302308397 -0.9928216612401485 -1.1699966815784566
-0.6229836007327562 -0.3297368249784786 1.172605271322534 -0.9236822457172094 -0.816618621040316 0.745825080000988 0.1279945246448364 0.1427453766066887
-0.03242417749265344 0.7369222663429427 -0.3580481593587092 -0.024160789915249933 -0.10800756950880902 -0.20468735298799773 0.6827796618485936 -0.43465923969959896
-1.0910913067844707 -1.0801660217930658 -0.8436398916281408 -0.6764612824978962 -0.24381451642735624 -0.3299302444036699 0.6658498102149134 -0.9450294069281417
-1.059678560719029 1.201162623961327 -0.7372139435706009 -1.0188544885394009 -0.9053644144962057 -0.7832548688598867 -0.42498006512221825 -0.5638669812840702
0.9895597246483139 -0.7793806912399404 -0.9215582767923928 0.9040084415394783 -0.9758556066430314 -1.040604670543283 -0.7143097245248088 -1.1037014249951966
-0.6843213031222954 -0.27989661365926716 1.1204595966028137 -0.6405719554284666 -0.5845577611058321 1.1800376488233253 -0.9556250908717604 -1.064474858778516
-0.9226088128894472 -1.0308739135615974 -0.5877224483034492 -0.3960602143252017 1.0556361130685492 -1.1766369834116375 -0.77896539645717 1.3191134847895565
0.19309179389980616 0.11297720631361474 0.26942760989618275 0.6031589588218955 0.05982430984346834 0.24885596400223203 -0.29275166160639193 0.4061230271720137
0.5722366781102991 -0.30769772418339986 -0.7553512321016888 -0.8249309055717443 -0.5296809127988499 -0.9620289059405576 -0.2073038999388259 -0.16959777553053426
0.8358280148655206 -0.5960648014086842 -0.5285032297244098 1.0866792287040716 -1.0533160582939907 -0.7164790608386523 -0.6230657378006565 -1.0728751812565838
-0.4475428303890757 -0.5055242143322908 0.6002795373850521 -0.7946167664010548 -1.1208002604391927 0.8053808382439395 -0.07926867151160784 -0.12586719504416857
-0.17025495122995432 -0.24155575294348755 0.253930196916101 0.2234020472484016 -0.15245219236117605 0.20865149926098397 0.029957893281786323 0.30643962161153687
-0.31021088339457087 0.12439019648960027 0.04001473189506381 -0.0007030385359060038 -0.05373074282071423 0.004307889631776253 -0.1366162580248413 -0.14564518844996424
0.20679863818731878 -0.19337922258253298 0.15217928083768947 -0.2710793983479124 0.348013105255026 0.24515509930353144 0.4341700081030109 0.35714212314970717
-0.04522567057499963 0.2850091295669409 -0.12193679577518406 0.15672503739299573 -0.013376009012783987 -0.22942451479904005 -0.16884437521237355 -0.1296809253725274
-0.44116843371654985 -0.28553536567062376 0.24684314097671106 0.1603470493450699 0.4733142129703209 -0.06685034617977156 0.3036468596918738 0.30783896003404204
0.13783288568025998 -0.2738992312548256 0.20404172348415323 0.08598016441728065 -0.32585333965337754 0.32951025802276884 -0.17815844257126628 -0.02414984310358299
-0.18942360323953397 0.04807027175764176 0.1885628401046512 0.0079000561271975 -0.25990597156892037 -0.42725268289879503 -0.35719206782527263 -0.034255528980704615
0.025671841406952313 -0.16337816518982648 -0.2536249725267721 -0.07510019956838243 -0.22624397823922146 0.1418081892748162 0.06718570255647213 -0.413391303255323

gru.bias_ih_l0 f8 [30]
00000000: cac2 1bff 75f8 cc3f a14a 2dec b0dd d93f
00000010: 126d 391d 9dea d63f 60ca 12f9 4e2f b8bf
00000020: 854f d656 2c75 d93f daac 6465 9189 d23f
00000030: 8274 01a5 2693 c73f 0933 df58 c7c8 c6bf
00000040: eb41 3832 4e8c cebf 527e 4c27 a543 bdbf
00000050: 6510 3aae 6a47 cfbf eec7 354d 2320 c4bf
00000060: 53c8 9634 7ad7 993f 96bd a728 e5b1 d0bf
00000070: c79b 4854 0a20 e4bf 1ca6 4f62 8b71 d7bf
00000080: 3d3f 70e3 0f86 bf3f e8f9 93aa ab53 b7bf
00000090: 7781 ea5d f5ab d9bf ef50 577c 4c33 c63f
000000a0: 6c88 2192 ff68 d13f 2f71 d99b 3733 c33f
000000b0: b1bc f0ef f285 cf3f cb05 55d8 3d79 923f
000000c0: c134 5a0e 2c1d c2bf 84c9 e62c cdca ce3f
000000d0: 5761 5f71 5efd d6bf 3b91 4156 8b5a ca3f
000000e0: fec8 840f 32d2 d13f 7194 ccfe 60e7 d4bf
0.22633242565600248 0.40415595115806907 0.3580696854966884 -0.09447187024015014 0.3977766845721294 0.289646481530054 0.18417819077413716 -0.17800227965781115
-0.2386567826474811 -0.11431343278354092 -0.24436696536224925 -0.15723077077888042 0.025236043414857367 -0.2608578583740039 -0.628911175362071 -0.3663052043981183
0.12313937475869081 -0.09112046160223708 -0.40112051173675617 0.17344051429120763 0.27203358908275876 0.15000052556832474 0.24627529826964215 0.018040624932160115
-0.14151526165770714 0.24056400959450397 -0.35921441146412775 0.2058881922886345 0.27845431819436317 -0.32662224657753486

gru.bias_hh_l0 f8 [30]
00000000: 7be1 8d7f e0c6 d33f a04a 2dac d21a d63f
00000010: 2b5c d258 fca3 8abf 3bca 1279 2e9b babf
00000020: 2d60 5392 1336 c6bf 304d 6d6a e890 b1bf
00000030: 56e9 02ca 44af b43f a265 bef1 1065 b9bf
00000040: fd41 38f2 95b3 c6bf e9c0 592c 88dc ca3f
00000050: 2808 1d57 2b12 d0bf 3c38 ca32 979a c63f
00000060: 104e daf2 e1b9 b1bf ddf5 9ea2 7e19 bbbf
00000070: dc9b 4824 6dac e7bf 604c 9f44 13ee c0bf
00000080: 26c1 8fdc 69af b8bf 10fa 93aa 95bb b4bf
00000090: ae02 d53b 6b77 c5bf a1a8 2bde 8bd1 d13f
000000a0: 8786 485c 2b29 d6bf 15d0 d821 fb54 9f3f
000000b0: 82a3 0bff f2b9 c03f 1604 5c3c d3ce d03f
000000c0: 5dbe 659c 05ff aebf 682b 7648 4b53 d9bf
000000d0: 33a3 510d fa74 d3bf d53b b318 2a7b cc3f
000000e0: 70a9 2434 3bd4 d33f 8d75 6fba 8d37 a6bf
0.309013485493345 0.3453871423163637 -0.01300809045851111 -0.10393038230794442 -0.1735252823334589 -0.06861736868204527 0.08079938823622021 -0.09919839765497909
-0.17735552146088188 0.2098551003032363 -0.25110896594208265 0.17659273128487196 -0.0692425935651999 -0.10585776777494212 -0.7397981365837683 -0.132265480524981
-0.09642659792712446 -0.08098731436255258 -0.16770687505233667 0.27841469475118613 -0.34626277935067445 0.030597614231922494 0.13067471936599523 0.262623604721797
-0.06053941282413853 -0.39570886684730633 -0.30401469517396434 0.22250868040143126 0.30982856838331596 -0.04339259053061104

fc.weight f8 [1, 10]
00000000: 6119 d76c 0d2d d33f e7a1 20ba bb75 d0bf
00000010: 5d73 6d89 66cb dc3f 96a9 af63 d491 d6bf
00000020: 92d4 fa53 a6b6 e83f f04b 1273 0890 e13f
00000030: f34d 9bb8 55f6 cf3f e790 c2ea c3a9 d53f
00000040: 8e45 1c5b 11f9 debf 21cd c955 dbeb c7bf
0.2996247828381425 -0.25718587090025696 0.4499145834031902 -0.35265073523501067 0.7722961082678401 0.5488321540345833 0.2497050429725359 0.33848665166648434
-0.48395189187530085 -0.18688527764207044

fc.bias f8 [1]
00000000: ad83 d4b6 0f59 c13f
0.13553043772938392
