Thesis-codes/Exp-1/results-archive/archive(without scheduler)/results-8/ew3/save_model/0/MLP_1_best_train_15.pth (torch, 1823 bytes, 4 tensors)

fc1.weight f8 [10, 1]
000000 00 00 00 80 c5 63 ee bf 77 18 6f f3 30 88 db bf
       -0.9496791362762451 -0.4301874520573458
000010 e5 83 bb 10 92 25 d5 3f 92 8f 90 7e d9 37 e6 bf
       0.3304181254771364 -0.6943175765959373
000020 00 00 00 00 96 75 da bf 00 00 00 00 d8 cc aa 3f
       -0.41342687606811523 0.05234408378601074
000030 38 68 0e 09 f8 4d f0 3f 00 00 00 c0 97 63 e8 bf
       1.0190353730927324 -0.7621573209762573
000040 00 00 00 40 d5 5f e2 bf ca a6 ae bf f7 aa e1 3f
       -0.5741983652114868 0.5521200889390567

fc1.bias f8 [10]
000000 00 00 00 00 a1 bd ef bf ef b3 1e 06 f7 07 0a bf
       -0.9918980598449707 -4.965040785918212e-05
000010 e0 4b c5 4f cd d0 c6 3f 44 fe 07 15 f4 f2 d6 3f
       0.17824713130047964 0.35857870153265403
000020 00 00 00 c0 be ed ec bf 00 00 00 c0 fc ae e6 bf
       -0.9040216207504272 -0.7088607549667358
000030 b0 d8 81 17 ae 08 aa bf 00 00 00 00 44 d2 a2 bf
       -0.050847473496945184 -0.03676044940948486
000040 00 00 00 80 ae d3 e9 bf e4 95 95 1b 41 3d d0 3f
       -0.8070900440216064 0.25373866742879003

fc2.weight f8 [1, 10]
000000 00 00 00 40 f7 a3 d3 bf 92 2b 3b 95 da 0f ba 3f
       -0.30688267946243286 0.10180441039407942
000010 03 fa d6 8a 70 ea b5 3f 34 f2 fb 0b 4d 29 c6 bf
       0.08560851468698875 -0.17313540539898187
000020 00 00 00 00 da 89 b7 3f 00 00 00 60 1a 21 d3 bf
       0.09194719791412354 -0.2988954484462738
000030 ff 28 2c ff 1d 92 d4 3f 00 00 00 00 34 d5 b6 3f
       0.32141828459920413 0.08919072151184082
000040 00 00 00 20 ee f8 c0 bf f0 fb 87 d3 f5 97 d5 3f
       -0.13259674608707428 0.3373999181494005

fc2.bias f8 [1]
000000 79 00 83 c0 5f 05 b9 3f
       0.09773825120919523
