Thesis-codes/Exp-1/results-archive/results-2-wrong-database/sg7/save_model/5/RNN_best_train_5.pth (torch, 3159 bytes, 6 tensors)

rnn.weight_ih_l0 f8 [10, 1]
000000 33 17 a0 43 06 e4 ca bf 07 b2 a8 9d 02 42 c6 bf
       -0.2100837545587467 -0.1738894719905064
000010 b0 12 55 62 ce 4c c1 bf bd 95 8f 5c cd 5b c8 bf
       -0.1351564388407005 -0.19030158061575078
000020 3c 05 03 93 ff d7 c5 3f a9 15 e2 8f 1d 2d c8 3f
       0.17065424612341384 0.18887681508583157
000030 3a e6 1b c1 47 77 b2 3f ea d4 ef a2 1e f5 c9 3f
       0.07213257278990506 0.20279295879269138
000040 97 b9 88 22 8b a3 d3 3f 0d 55 5c 02 0f fa d1 bf
       0.30685690281361516 -0.28088736753973437

rnn.weight_hh_l0 f8 [10, 10]
000000 42 3d 43 9c 0c 91 d1 bf b7 84 29 ec 9f ec d0 bf
       -0.27447810421013596 -0.2644424253722479
000010 8e 01 76 c0 5e 43 cc bf a5 8f a0 16 c3 e4 bc bf
       -0.22080597302921173 -0.11286563208028484
000020 15 ef ce 9d cd a9 bc 3f 32 74 43 d4 0c 1d b9 bf
       0.11196599104635781 -0.09809951955999521
000030 70 06 53 ea d1 3c c8 3f bf ef 29 4a 61 7b d0 3f
       0.1893560785447792 0.2575305198913575
000040 4d 88 1c 33 3a 9c d0 3f 5c 18 4a 02 f9 cc d3 3f
       0.25953536025383955 0.30938554023339804
000050 93 2e 6a 73 db 93 aa bf b1 d5 18 1e 43 b0 cc bf
       -0.05190931114074462 -0.22412909478741264
000060 30 85 a3 e6 98 c5 c3 bf 44 de b6 38 4e da d1 bf
       -0.15446769010217443 -0.2789493135310048
000070 28 09 96 7d fd 91 d1 3f 08 fa 67 de 00 79 b6 bf
       0.27453553451791146 -0.08778386525953163
000080 fb 55 08 0e 8a b1 c8 bf 93 48 b3 58 cf 0c cd 3f
       -0.19291806874450387 0.22695342856474507
000090 6a 6c d0 90 32 50 c4 3f bd 09 ea 0b 6b 85 b5 bf
       0.15869743414882304 -0.0840670494162969
0000a0 7f 0f 62 74 02 f9 d2 3f 67 22 d4 c7 ba 07 cf 3f
       0.296448339133569 0.24242338902719782
0000b0 ad f6 d7 04 97 f3 c1 3f 6f 1d 96 02 cb 08 d4 3f
       0.14024627434257778 0.31303668263031786
0000c0 af 06 e1 2f 0a d3 c7 bf 59 c0 00 19 70 2d b3 3f
       -0.18612792337267112 0.07491207704947679
0000d0 6f 37 18 c5 56 be c9 bf 20 4c 7d 4f b3 7f a3 3f
       -0.2011211836219746 0.038083651974965216
0000e0 50 83 3d 67 8a 49 d0 bf 91 1d 70 7d c9 9e 95 bf
       -0.25448856432017397 -0.02111353710281844
0000f0 b1 fd 90 bb 8a 99 94 bf 83 06 f6 99 07 fe ba 3f
       -0.0201169659596851 0.10543868550123574
000100 83 32 37 eb 2e 6c c0 3f c5 ae 49 35 f8 55 b2 3f
       0.12830149159562518 0.07162429142925493
000110 76 7e 38 f1 8d df cb bf 0d 61 46 4b 22 f7 d1 3f
       -0.21775984075883387 0.28070885993067024
000120 17 5d 0c 39 34 20 ba bf 3b 70 e9 b0 3d 9a c8 3f
       -0.10205389397411967 0.19220706117892114
000130 2c 61 8c 3a dd 13 c5 bf 20 4c 32 2d de ba d4 bf
       -0.16466870650106935 -0.32390551007955715
000140 a8 de 16 c2 4c fb c0 bf 71 0a 28 bf 0b 83 94 3f
       -0.13266906239527043 0.020031150381337463
000150 56 83 d6 e3 ea fa d2 bf d1 bb 24 74 a4 dd b1 3f
       -0.29656479120062806 0.0697882445863194
000160 8c 48 08 01 8f 06 cb 3f 56 06 ad d3 fb 69 ae bf
       0.21113765287788444 -0.059402341451016014
000170 73 e4 ba b3 cf 1f c8 bf 63 02 93 e2 bf ff 94 3f
       -0.1884708049381377 0.020506857112879816
000180 1b cf 0c 21 07 33 ca 3f 5e 95 ad d8 67 6a d0 3f
       0.20468224633952378 0.25649448547331655
000190 29 21 91 33 1a d3 bd 3f bc c5 3c ba 3e dc b9 bf
       0.11650241621930903 -0.10101692244349797
0001a0 05 0d f8 e7 8c 79 c3 3f 42 56 8d ac c5 f1 d4 bf
       0.15214692427262136 -0.32725660181799665
0001b0 30 ad f5 f5 8e fa c9 bf d3 85 69 26 f1 c5 c1 bf
       -0.20295893678426458 -0.13885321021648042
0001c0 4d 53 10 ca f4 81 cb bf 3d 15 71 93 ab c8 c6 bf
       -0.21490344873805114 -0.17799896907141913
0001d0 0f 22 5b 7a b4 ea c7 bf 67 41 4c 3f df a6 8c bf
       -0.18685012792981623 -0.013990158194730552
0001e0 83 72 72 b5 6b be ca 3f ae 5d df ff 22 40 c8 3f
       0.20893617973060338 0.18945729726577326
0001f0 c1 dd f0 f1 75 93 cc 3f 69 66 68 b7 5c 3c 82 3f
       0.2232501441337558 0.008904194209253551
000200 41 a0 94 fe 84 31 d4 3f 61 9c 63 0a 68 53 b4 3f
       0.31552243100532357 0.07939768079414612
000210 76 03 96 40 97 ad b6 bf ce 35 34 a8 1d fd 7c 3f
       -0.08858628584677128 0.007077327583159
000220 41 ce 18 3f ad 6f be bf 1f 3d 4e d3 60 f2 ca bf
       -0.11889155188037483 -0.21052179639489396
000230 38 8a f9 d5 08 6c d1 bf 11 ec 83 a6 83 e8 b8 3f
       -0.27221890350316214 0.0972978860408349
000240 f0 3d 23 ed c4 78 b5 bf 58 58 8f 9d 2e 7a d2 3f
       -0.08387404241079088 0.2887074030562693
000250 f1 0e 7e 69 72 ba bb 3f 7d 8c f3 fb 1b 59 b9 3f
       0.1083137042569964 0.09901595021396932
000260 06 d5 22 1a ec 1b ce bf 67 45 e2 46 5c 92 c1 3f
       -0.23522712017226172 0.13727906666876352
000270 fe 35 ca 8e 9c 5a b6 3f 08 d8 6f 23 73 bc c5 bf
       0.08732012258607111 -0.1698135302573862
000280 fc e6 92 bc 71 3f c4 bf 2f 71 0a de cb ab ca bf
       -0.15818616588312995 -0.2083678087409537
000290 e9 72 c4 62 11 ab 94 bf 24 51 8a b9 5a 3d cf bf
       -0.02018382230118024 -0.2440598875006198
0002a0 a1 1b 41 ca a1 03 c3 bf 2c 48 35 e5 29 97 bb 3f
       -0.14854833961200334 0.10777532430555031
0002b0 4a 82 f6 a9 ff db bc bf 33 66 8f cb 92 4c c1 3f
       -0.11273191356168258 0.1351493352838574
0002c0 8a 52 52 12 70 c4 b5 3f 9b 18 91 93 67 b1 cd bf
       0.08502865264228823 -0.23197645860108626
0002d0 e5 a0 8d a3 96 44 ab 3f fe 26 3b 38 ca f0 75 3f
       0.053257663216585795 0.005356588287847462
0002e0 8f eb 98 39 1e 88 cf bf d8 e2 0d 77 0e e2 d0 3f
       -0.24634149372454003 0.26379739405051117
0002f0 b7 74 bf 5f bf b6 cb 3f 6f 69 c1 51 a2 37 94 bf
       0.21651451277913278 -0.019743477096520076
000300 cd 2b aa b0 9b ba ca 3f e0 3d 9f ea 07 d2 b2 bf
       0.20881982923705636 -0.07351731756283852
000310 de 04 97 a7 06 2b 9f bf 8f 46 9a 2f bf d5 d0 3f
       -0.03043756864440616 0.26304607056327084

rnn.bias_ih_l0 f8 [10]
000000 49 44 cc 39 a8 ed b0 3f f0 b7 8b 9d aa 17 cc 3f
       0.06612636004526097 0.21947224323906722
000010 92 8b 18 03 55 ed c8 bf ab 3b 80 c5 3f 5f ce 3f
       -0.19474280024686813 0.2372817720756449
000020 91 a1 7d d5 19 45 99 bf 91 b3 db 41 fe 27 cb 3f
       -0.024677661567154955 0.21215799537403915
000030 6b e2 cc d5 1e 72 ce bf 53 f4 2a 8a ba a4 d3 bf
       -0.23785767974347335 -0.30692924015949535
000040 f4 93 e7 56 20 a7 b5 bf cb 08 b2 4d e4 ef bb bf
       -0.08458139535612458 -0.10912920853482715

rnn.bias_hh_l0 f8 [10]
000000 db ee 8c b1 6f e2 d1 bf 73 80 44 27 4a 09 83 bf
       -0.27944557513158735 -0.00929506237349662
000010 1b 17 31 c6 2c 3a be bf 6a 22 fe d3 81 e9 98 bf
       -0.11807517851510989 -0.024328259052284563
000020 cc 4b 50 c5 95 c4 c9 3f a4 98 48 7c ae 66 b4 bf
       0.2013117993779744 -0.07969179662959164
000030 ed 8e 19 a5 d0 a9 d0 3f 37 17 aa ab 97 a8 c5 3f
       0.2603646862319085 0.16920753366519545
000040 f4 93 e7 96 38 e1 bf bf cb 08 b2 8d f5 18 ba bf
       -0.12453035053438538 -0.10194334706651202

fc.weight f8 [1, 10]
000000 33 78 ca 40 c9 8d a2 bf b7 cb 05 6c d5 69 98 bf
       -0.036237992438359255 -0.023841223447970097
000010 d4 1d 30 72 ed 8e c0 bf fd bf a4 47 3d 53 c3 3f
       -0.12936180186828372 0.15097776411266742
000020 10 d3 98 74 0e a8 c1 bf c8 63 12 f8 d1 0e c7 3f
       -0.13794117634974912 0.18013977635271616
000030 40 10 b9 5b f9 f6 c8 3f 6a 8d fe 2a 2a 71 c2 3f
       0.1950370500436538 0.14407851313908832
000040 64 79 fe 90 e6 b4 d2 3f 53 77 71 2b 18 25 ae 3f
       0.2922912994344158 0.058876757910850806

fc.bias f8 [1]
000000 b2 2f 72 c0 dc 99 d2 3f
       0.29064101022299405
