Thesis-codes/Exp-1/results-archive/archive(without scheduler)/results-8/sg5/save_model/1/MLP_1_best_train_0.pth (torch, 1823 bytes, 4 tensors)

fc1.weight f8 [10, 1]
0	0x3fd08ad6d4128ed5	0.25847407064632694
1	0x3fc102afa0f1b1cb	0.1328944717273671
2	0xbfc8fe78b1243d77	-0.1952658524464643
3	0x3fc59d7e265881f1	0.16886879799223167
4	0x3fe4b845c96cd0ef	0.6474942144473327
5	0xbfa2ac16498c67f2	-0.036469170072635296
6	0xbfe504e1e4e4bdb0	-0.6568459959579993
7	0x3fea6d0a7a8dcc43	0.8258106607085057
8	0xbfc512e000000000	-0.16463851928710938
9	0xbfe03bdeea49ead6	-0.5073084426834054

fc1.bias f8 [10]
0	0x3fe2c4138ff1e9b4	0.5864351092744102
1	0x3fd841aaed07dc43	0.3790080370667434
2	0x3fef0dff3a9aef2d	0.9704586166985557
3	0x3fc709fe3056ad23	0.179992459872076
4	0xbfe338795208782e	-0.6006437875946682
5	0x3fce4d0c8a78ab6a	0.23672634850785396
6	0x3fe3459d8c5d9835	0.6022479764476488
7	0xbfddb235c0d5bfce	-0.4640020735887419
8	0xbfe8d818c0000000	-0.7763789892196655
9	0x3fed71370a7f5b22	0.9200701909092894

fc2.weight f8 [1, 10]
0	0x3fb4bd8196837432	0.08101663517614169
1	0xbfb3faa9564bdfb8	-0.0780435405430343
2	0xbf954e89558195a0	-0.020807405322917583
3	0xbfd0582173d46568	-0.255379069437899
4	0xbfc6b8c15a6ec494	-0.17751328387888476
5	0x3fb62c94d0df6131	0.08661775683811325
6	0xbfb314e8526d53e5	-0.07453777325038365
7	0xbfd020d5e4574760	-0.2520041208164141
8	0xbfcb29ce20000000	-0.21221329271793365
9	0xbf9245fc5fd87911	-0.017845099782897004

fc2.bias f8 [1]
0	0x3fc3566c463b8471	0.15107491902657302
