Thesis-codes/Exp-1/results-archive/results-2-wrong-database/sg5/save_model/8/MLP_1_best_train_10.pth (torch, 1823 bytes, 4 tensors)

fc1.weight f8 [10, 1]
0.01508784294128418 0.05194520950317383 0.7013371661477479 -0.38110506534576416 0.8828727267540416 -0.8292742410196245 0.4222293335747046 -0.4233405429507678
1.0062901178707262 -0.4168202877044678
00000000: 0000 0000 60e6 8e3f 0000 0000 9098 aa3f
00000010: 5a5d 02a4 5a71 e63f 0000 0080 0664 d8bf
00000020: e70b fe4d 7e40 ec3f 3806 1322 6a89 eabf
00000030: f25f c72e ce05 db3f f5d7 c2ee 0218 dbbf
00000040: 1faf a8aa c319 f03f 0000 0000 2fad dabf

fc1.bias f8 [10]
-0.6174592971801758 -0.553989052772522 0.6856150008072047 -0.8354723453521729 0.3748565240816103 0.7616122691820859 0.3421505992402423 0.23385764485153276
0.9465780489601829 -0.3891153335571289
00000000: 0000 0000 3ac2 e3bf 0000 0040 47ba e1bf
00000010: 8ba5 c3de 8ef0 e53f 0000 0080 30bc eabf
00000020: 2edb e737 a6fd d73f 30d2 8bb1 205f e83f
00000030: 0dcb 82a0 cbe5 d53f 0649 471c 0cef cd3f
00000040: b6a7 6c0c 5e4a ee3f 0000 0000 44e7 d8bf

fc2.weight f8 [1, 10]
0.01513659954071045 0.27707639336586 0.0016920318286141396 0.07234945893287659 0.33310765178339935 0.16001334417028912 -0.004986297046826247 -0.24899412562401865
0.199027902396559 -0.07181623578071594
00000000: 0000 0000 f0ff 8e3f 0000 00a0 9ebb d13f
00000010: a236 8857 e5b8 5b3f 0000 0080 7e85 b23f
00000020: 6940 9dc1 a251 d53f 2847 1138 517b c43f
00000030: 4a7d e8eb 826c 74bf 67c3 391d 0adf cfbf
00000040: 1471 e40d bf79 c93f 0000 0080 8c62 b2bf

fc2.bias f8 [1]
-0.23140569290026763
00000000: 06b4 8ea5 b39e cdbf
