Thesis-codes/Exp-1/results/ew4/save_model/9/CNN_best_train_13.pth (torch, 2455 bytes, 6 tensors)

main.0.weight f8 [1, 1, 1]
0.8035351958465768
00000000: 7412 6b71 8fb6 e93f

main.0.bias f8 [1]
0.3044956299300382
00000000: 82c3 143d db7c d33f

main.3.weight f8 [10, 1]
-0.8370246064874616 -0.2805484757500492 -0.16281300381735012 -0.27995075202891173 0.8720176091951525 -0.8480836454195516 0.5264311654250964 -0.43382457424978643
-1.0211017647069691 0.6338053851751299
00000000: 08f3 d9d3 e7c8 eabf c980 1298 81f4 d1bf
00000010: 4928 6177 0ed7 c4bf 241b 1d8f b6ea d1bf
00000020: efef 2079 91e7 eb3f 912e 2b50 8023 ebbf
00000030: 1012 e32b 86d8 e03f 39a7 a625 c8c3 dbbf
00000040: 7ede d4cd 6e56 f0bf 4163 2b3b 2248 e43f

main.3.bias f8 [10]
-0.13195519813369794 -0.41768918445001396 0.2755939221801173 0.44609271490128954 -0.02552541267157901 -0.4999664456110098 -0.7080103470944983 0.5630384039501133
-0.9634407032050282 0.29399518234056743
00000000: 50be 426e e8e3 c0bf 25c4 c66a 6bbb dabf
00000010: b75b afb0 54a3 d13f 7208 5f75 c88c dc3f
00000020: 57ba 9072 5523 9abf 1cc9 3f43 73ff dfbf
00000030: ec03 c050 05a8 e6bf e272 6b1d 6904 e23f
00000040: abd3 fc98 81d4 eebf 1265 552b d1d0 d23f

main.4.weight f8 [1, 10]
-0.3165545560574684 0.08948342173122208 0.21625627760233682 0.298351260150664 0.09976542144645822 -0.25807181697851234 0.08071675320603525 -0.2541968409816087
-0.10949936760183125 -0.04570381908505264
00000000: fea9 6a0a 6e42 d4bf 8ba9 deb1 62e8 b63f
00000010: 75a9 ed23 49ae cb3f c151 44e2 2f18 d33f
00000020: 9c5a 6206 3a8a b93f dc49 7ca7 3f84 d0bf
00000030: 8a5c 4267 daa9 b43f 29cd b0d3 c244 d0bf
00000040: 0355 c88a 2608 bcbf 7492 8bb0 7d66 a7bf

main.4.bias f8 [1]
-0.2622443537589185
00000000: 2822 bd8a 9cc8 d0bf
