Thesis-codes/Exp-1/results-archive/results-2-wrong-database/ew4/save_model/2/LSTM_1_best_train_1.pth (torch, 18327 bytes, 6 tensors)

lstm.weight_ih_l0 f8 [84, 1]
0	0x3fc3289dc78d9617	0.1496770119075996
1	0x3fb78d1638ba63fb	0.09199656376803482
2	0x3fb1b2833f18868b	0.06913013735222699
3	0x3fa5fc3f23be239b	0.04294011412918693
4	0xbf9673c185800a43	-0.021925948880389134
5	0x3fc5657dd2758231	0.167159774554436
6	0xbfca9e643c81ef8a	-0.20795872644873398
7	0xbfbe99c3268b8109	-0.11953372660673635
8	0xbfb993d79928c594	-0.09991214265098441
9	0x3fa01784af4f87f8	0.031429430389621815
10	0x3fabe27f6eb0f4b3	0.054462415945161345
11	0x3fac08b246eb6f5d	0.054753848225770986
12	0x3fbac9fa9c9dd02e	0.10464445422786703
13	0xbfc9642b8e0cc01e	-0.19836944995904643
14	0xbfb5c3d30fb39e82	-0.08501929410305745
15	0xbfc6046d2e8bedf9	-0.17201008580001068
16	0x3fa55bd5a5bcab8a	0.04171626709133765
17	0x3fbc3fc049d786e4	0.11034776499539195
18	0x3fc8f9d69f16a1c9	0.19512446182240087
19	0x3fb559ff6e28bb78	0.08340450705939684
20	0x3fc7647072c9c975	0.18275266270536475
21	0x3fbbc11c56c44404	0.10841538542105417
22	0xbfc8b4254437b43d	-0.192997606572506
23	0x3fc142c4208990cc	0.13485004032839354
24	0x3fb4a18a71dbd514	0.08058991698984058
25	0xbfb6906b11c09347	-0.08814114745525813
26	0x3fa401bec7b5cfc2	0.03907581508511228
27	0x3fc15c0c1e4a6dc7	0.13562156180419846
28	0xbfb7053125ebbd9c	-0.08992297340204519
29	0xbf94ed2f449399c1	-0.02043603759821067
30	0x3fa11a8462c1d2bb	0.033405434661209786
31	0x3fc4dc8ae1461769	0.16298042297074325
32	0x3fc9f4fa953f7562	0.2027886608838499
33	0xbfba5ff46f88f41f	-0.10302665446302271
34	0xbf8d6d012a757a7e	-0.014368065937273796
35	0x3fc27ba834dc626b	0.14439871388528344
36	0x3fbce9ac12feb4b5	0.11294055427306911
37	0xbfb7383d293881a4	-0.09070188766827997
38	0xbf6ab804ee79f5ca	-0.003261575347834199
39	0x3fb1470209cffe9f	0.06748974551737284
40	0x3fc99e4014a24c21	0.2001419163467242
41	0xbf73cf9813c0da31	-0.004836648990070234
42	0x3fb12d6f293356cc	0.06709952121613155
43	0xbf9f3aeaaa6f51ab	-0.03049818673373898
44	0xbfb3ce9f81e04072	-0.07737156792450309
45	0xbfb15c555f19c588	-0.0678151471309062
46	0x3f767dbfca927148	0.005491017517808956
47	0x3fc89dc2dadb0400	0.19231448828034559
48	0xbf76d50fdcd83bae	-0.0055742854724617884
49	0x3fc472cea8f666a8	0.15975363969919454
50	0xbfc455290ecb37fa	-0.1588488886104072
51	0x3fc7627be09d7f29	0.18269298999347797
52	0xbfb73cf5f2a047ad	-0.09077393697250953
53	0x3fb6bcbf65e4897e	0.08881756055465037
54	0xbf62e887a9fea525	-0.002308144539672557
55	0xbfc74ff9be6c4c10	-0.18212816045760905
56	0xbf888b5b960addf2	-0.011984553829605258
57	0xbfc43517cc06c73b	-0.15787026846151683
58	0xbfc43304f1086f8c	-0.15780698556124795
59	0x3f8eeed49390b6a5	0.015103970292411015
60	0x3fc6ff004cf401fb	0.17965701825598032
61	0x3fcca2f2a4a90fec	0.22372277298029475
62	0xbfb85233b3ce28c1	-0.09500430240419445
63	0xbfa2bc64442c6f5e	-0.036593564340562365
64	0xbfc9df26d206178c	-0.2021225476748295
65	0xbfb788bcc2b0a79e	-0.0919301963155292
66	0xbfbd6d791ffa8339	-0.11495167761542015
67	0xbfbe0cb96b30356d	-0.11738165728475787
68	0xbfc8aac6f8efc5ec	-0.1927117076407251
69	0x3fc9cdaf54303071	0.2015895043445002
70	0x3fbf02735d4500d7	0.12113114382828215
71	0x3fb345876a154340	0.07527967777174371
72	0xbfc8a26e4c6cc4cb	-0.19245699626620758
73	0x3fa71288c9ff8ca9	0.04506328073309735
74	0xbfc80e0943f2b571	-0.18792835061814686
75	0xbfb37436c9bf6c17	-0.07599203515512475
76	0x3fb70abbb1a81986	0.09000752532310771
77	0xbf8cef7f590f3a7f	-0.014128680138950188
78	0xbfa55a7035057e48	-0.041705614540430036
79	0xbfc752887ba75783	-0.18220621145036028
80	0x3fbd60370e83f1f7	0.1147493753850951
81	0x3fc3ea110ff36fb7	0.15558064726689988
82	0x3fa7ec820f7ef51e	0.04672628821524881
83	0xbfaf3952f3181350	-0.06098422257858849

lstm.weight_hh_l0 f8 [84, 21]
0	0xbfc71ea9f6af1b03	-0.18062328858487584
1	0x3fc43ee9f9ae1537	0.15816998187453077
2	0x3fa9913e19961c82	0.049936237929665075
3	0x3fb94ce448453eac	0.09882952465454292
4	0xbfbaf27141a0cb15	-0.1052618775582171
5	0xbfc673584c49f6c1	-0.17539504742665282
6	0xbfc907529ee3f1dd	-0.1955359721977307
7	0xbfc754b446e4abcd	-0.18227246724685955
8	0x3f9e15b89c9c2292	0.029379734572133893
9	0x3fc464fd4ed7e81a	0.15933195447706866
10	0xbfb3ad784ce2f080	-0.0768656909667147
11	0x3fa7db2c327eb1b6	0.046594029582908744
12	0xbfbaeefdde434c9b	-0.10520922352161437
13	0xbfc880788ee6aa27	-0.19142062165822546
14	0x3fb1d903ebc458a7	0.069717640934274
15	0x3fc352401d294ec8	0.15094758438009692
16	0x3fc586f362d9a0da	0.16818086935678062
17	0xbfa7d87a30a0f9a0	-0.046573465763219746
18	0xbfc35e114f9c8faf	-0.15130821597369734
19	0xbf978303bd3a761a	-0.022960718559820938
20	0xbfa9ee94a85c37e2	-0.05064835124186097
21	0x3f927151ae7bcb35	0.018010402941352772
22	0xbfbd7d1729a03328	-0.11518997923139962
23	0x3fb439634209332c	0.079000667211585
24	0xbf91b154abd333f9	-0.01727802561508793
25	0xbf983d8cdb170691	-0.02367229544848343
26	0x3fc25072a28bcfe8	0.14308007180045412
27	0xbfc28f44318d755c	-0.14499714297827893
28	0xbfb21b41121cf9ee	-0.07072836582390327
29	0x3fc7d8dbbd43e05a	0.18630549184286133
30	0x3fa3b103c4ea30d8	0.038459890162899135
31	0x3fb908ddba9d6d70	0.09779153638867455
32	0xbfaf891207d61da4	-0.06159263940486007
33	0xbfc4a89de969b354	-0.1613957776748075
34	0x3fc40c847c2b665f	0.15663200438466426
35	0x3f901a353ca1f957	0.0157249754197378
36	0x3fa7e72928d1b0e6	0.04668549178390595
37	0x3f9680a111465e4a	0.021975056342482348
38	0x3f6bc6af679b74a7	0.0033906389115672844
39	0x3f8df5a832c3a0da	0.014628709840011234
40	0xbfa37e994c7c6ce1	-0.038075247370409356
41	0xbfc4b2ca4c188354	-0.16170624461758598
42	0x3fc75d52c940391c	0.18253550364210802
43	0xbf85d969865c2b43	-0.010668587124674672
44	0x3fb0945ea48b0a67	0.06476394192854117
45	0xbfa6d1b60b96def2	-0.044568718828882484
46	0x3fcc465a100ddb25	0.22089696678059415
47	0xbfad626db93927e3	-0.05739157568002875
48	0x3fa930b192ec33e1	0.04919962805261214
49	0x3fc63a7a2b79db3a	0.17365958330966597
50	0xbfc9b4dc6631aa8d	-0.2008319376939948
51	0x3fa9f9d7f7416f7f	0.05073428052193573
52	0x3fc3681c9d5377f3	0.15161473924575794
53	0x3fc223ad3347d1ac	0.141713762320831
54	0xbfb21984905c2248	-0.07070187115108084
55	0x3fc08c822b5dbf20	0.129287978339101
56	0x3fbc5bc8876163d1	0.11077550225435508
57	0xbfa1b0d9e282e030	-0.034552391910836255
58	0xbfc6cfebec7a61ad	-0.17822026297359397
59	0x3fc8ae5681ed1b22	0.1928203710942507
60	0x3fc549bd12ab1856	0.16631282245197337
61	0x3fbc98a81600025b	0.1117043546401048
62	0xbfc2f9c1e6b332f2	-0.14824699177406547
63	0xbfcad2ef9c21d5a7	-0.2095622551311582
64	0x3fcab5e2195ba881	0.208675634748321
65	0x3fb9db7911b1cd84	0.10100514108653696
66	0xbfa5f04d6ebf7ad7	-0.042848987359084205
67	0x3fb0c58fefc26387	0.06551456073283478
68	0x3fade18c47cd0abd	0.05836141945339566
69	0x3fcb7fe34fd33a7a	0.214840330102067
70	0x3fa4285f03716178	0.039370507402682386
71	0xbfb8d9a27428ab08	-0.09707084022435819
72	0x3f98fdff901aa4b6	0.024406426592268736
73	0x3fc834bd94c08baf	0.1891095138863341
74	0xbfc0ee71ff559f12	-0.13227677314284186
75	0xbfc7223c94c79ec3	-0.18073231949460053
76	0xbfbdc043da4420f6	-0.11621498183024301
77	0xbf7ae30c85eef4d1	-0.0065641869722956195
78	0x3fc33027f6a404e8	0.14990710776331828
79	0x3fc2464f8cfcbc9a	0.14277071365493016
80	0x3fbc80c5a143d428	0.11133990466244426
81	0xbfbe0fdf5c832a7e	-0.1174296952114364
82	0xbf81be3cf9c8c531	-0.008663631794748912
83	0x3fc6abf9a8bb83b8	0.17712326754465635
84	0x3fc0a7ff1a240318	0.13012684608840952
85	0x3fc16b9b9fbe3457	0.13609643268537994
86	0xbfca420919347e91	-0.2051402447768749
87	0x3fa26bacd44a7495	0.035977745928201056
88	0xbf909a4407824717	-0.016213477094942776
89	0x3f9b7ea570c6bd29	0.026850304611511753
90	0xbfc0052fd0124a90	-0.12515828761805325
91	0xbfb7c4efd988966f	-0.09284876881482672
92	0xbfca034ca8bbb6c0	-0.20322569121292666
93	0x3fcba63452e1cbba	0.21600965544675238
94	0xbfc36a984ed5fce7	-0.15169051980408385
95	0x3fcc4090b82ca866	0.22072037690060425
96	0x3fbb68375302b13c	0.10705896164535472
97	0x3f809b4a4103f30b	0.008108692273248083
98	0x3f96fb010a012285	0.02244187949716771
99	0x3fb6d8d911d9cdb1	0.08924633680162831
100	0x3fc9a5eea9ad2529	0.20037635121324485
101	0x3fc9e5b59abeafac	0.20232267433072815
102	0x3fc4af4a4576abe9	0.16159943000579283
103	0xbfc55aa466e20474	-0.16682868026331088
104	0x3fba8baf128d04d8	0.10369390681173074
105	0x3fb9a9942208d202	0.1002438147632532
106	0xbfa696c1f6ef5f30	-0.0441189397749312
107	0xbfc6aea2e227899c	-0.17720447581002652
108	0xbfbebcb5cf22e702	-0.1200669890121411
109	0x3fa06d36fb3c14de	0.03208324257688287
110	0xbf97cab26d94483b	-0.023234165132699252
111	0x3fcc57bca5ec2b49	0.221427517907012
112	0xbfc2e06131bbd276	-0.14747252396013594
113	0x3fbd97301e7e4625	0.11558819527115156
114	0x3fc6b78e4f10d76c	0.1774766813338674
115	0xbf86882bd9244c07	-0.011001913608685866
116	0xbfbc650f2922a73b	-0.11091704134255746
117	0x3fb766acfbb141af	0.09141045708498184
118	0x3f58b8e9a00a4c1d	0.0015089303489375157
119	0x3fb7a9e822c06eee	0.09243632172040936
120	0x3fa168e25f7ae7cc	0.034003328471456123
121	0x3fbcb7a0b61cdfae	0.11217693754303923
122	0xbfbd4669e1405bf2	-0.11435567616750555
123	0x3fcc657714d07c1e	0.221846470988539
124	0x3fc7308fe1303d01	0.18116949553994036
125	0xbfb97c61ebec0a07	-0.09955417642417085
126	0xbfbb53e9cf77dad4	-0.1067491656793707
127	0xbfc14cb9a7bea463	-0.1351539677682779
128	0x3fbf9b647a08334e	0.1234648511819618
129	0x3fb5c6fe28546afb	0.08506763920415132
130	0x3fca44b2253b2c0a	0.20522143190314096
131	0x3fb8cf89e4b467a7	0.09691678842173578
132	0x3fab8f117c77352b	0.05382589954715863
133	0x3fb6fdc93a7b171b	0.08980996778253962
134	0xbfc65043ed324d4d	-0.17432450372562372
135	0xbf959bf65b0df1a8	-0.021102761561893196
136	0x3fc9a39e5498f085	0.20030573969586754
137	0x3f43a975f3493686	0.0006000352792143316
138	0x3fca50a4eab8763b	0.2055860658737617
139	0xbfa5d10c549b0809	-0.04261053593428705
140	0xbfc4b0f1fe6d7b84	-0.1616499416658962
141	0xbfc2d9bfb6a1051d	-0.14727016847067712
142	0xbfc2f6bbc82b8251	-0.14815470956729596
143	0x3fca879223299f48	0.2072622939770048
144	0x3fa6fad1253bc8ac	0.044882331652744994
145	0x3fb3fe429afece52	0.07809845241609395
146	0xbfbeb84565da11dd	-0.11999925362221782
147	0x3fc51ccd12fabff1	0.16494143892987226
148	0x3fa69b1071345d4e	0.044151796168245924
149	0x3fc78ae5a40076e2	0.18392630107785296
150	0xbfc9bab2dfdf1d9c	-0.20101009303310213
151	0x3fb57de14544656c	0.08395202580540734
152	0xbfac9ab0b809095c	-0.0558676933910813
153	0xbfc33079b43942fc	-0.1499168519972257
154	0x3fb0aa921dd2e367	0.06510270336265266
155	0xbfc1ae5810e5dbf4	-0.1381330568799225
156	0x3fa8b7472cc4d67f	0.04827330037589394
157	0x3fab2251b111f642	0.05299620901585601
158	0xbfb5841a42c33f96	-0.08404697542141401
159	0x3fb52a951e9c9c3e	0.0826810073600521
160	0xbfc770438a64a517	-0.18311352021672953
161	0x3fb532d2f887c810	0.08280676429402001
162	0x3fc9fe1444d45aaa	0.2030663810807785
163	0xbfbf5b5eb6215fb3	-0.12248794504682685
164	0x3fbd634d97a20379	0.11479649497961288
165	0xbf97c222d3c36377	-0.023201507735254503
166	0x3fc1eccd01152dc9	0.1400390868460433
167	0xbfa4b89b84bb79a6	-0.04047094340579642
168	0xbfc9bbc519c9f9f3	-0.20104278334834155
169	0x3f8da347144ee283	0.014471583659415593
170	0xbfc3af64b331569b	-0.15379008054394636
171	0x3fc672c807f9e003	0.17537784947830923
172	0xbfbd913b46a9e5ad	-0.11549730754076988
173	0x3fba60158c79d37c	0.1030286281546306
174	0x3fbdbbd459ac6733	0.1161473006181069
175	0xbfc98448c90b6f2b	-0.19934949700006518
176	0xbfa29d59b58f44d0	-0.03635673848442311
177	0x3fc850cfe3fa2522	0.18996618873306043
178	0x3fc6ef7a16f4176e	0.1791832553937484
179	0xbfb9afc25ce49813	-0.10033812301534821
180	0xbfb06314202faa84	-0.06401181970401565
181	0xbfcd0feb4daa077c	-0.22704831402011993
182	0x3fb4a1e53a5b1648	0.08059532808973657
183	0xbfc1e0b3e8cb8ff2	-0.1396698843665259
184	0xbfc9f873cbd08e1c	-0.2028946633518992
185	0x3f91dee0c7475e17	0.017451774752627793
186	0xbfb8b320404a7607	-0.09648324555970343
187	0xbf9948f6f7e78fa3	-0.024692400818721826
188	0x3fc871aafe9ae0c9	0.19096887046703717
189	0x3fc1a143b296e9e0	0.13773390026274424
190	0x3f8ad0f6218d7522	0.01309387483496011
191	0x3fc29a1fff95e284	0.14532852153549325
192	0x3fa6f8f949afc714	0.04486826920027745
193	0xbfc1deb6538150aa	-0.13960913731955787
194	0xbfc37fba9562dfa4	-0.15233547491311328
195	0xbfc7c3edb9125d8f	-0.18566676651674327
196	0x3fc04e2cf347baf2	0.12738572958865962
197	0xbf9cd6c2f30cd766	-0.028163000187496755
198	0x3fb5a37910123b26	0.08452564852107666
199	0xbfc778a913528cec	-0.18336976474265698
200	0x3fc00b1ead739e66	0.1253393504077735
201	0xbfb3951bc95c94d7	-0.07649396577888311
202	0x3fbe2610d43d7123	0.11776833707466898
203	0xbf77f558f62c7d5e	-0.00584921599036589
204	0x3f98ff61878169f3	0.024411701102829707
205	0xbfa2023a33fb8f37	-0.035173243375338385
206	0xbfc34df14ea36fd2	-0.15081611957327695
207	0x3fc81aca4caa9b83	0.18831757300833027
208	0xbfbb6456c167196e	-0.10699979993578321
209	0xbfb3c0bc83e8c1e3	-0.07715967388572369
210	0xbfa55f304d2fabbf	-0.04174185697760135
211	0xbfcc98fdba3a4b35	-0.22341891854429155
212	0x3fc40827b42da0ed	0.15649887368932217
213	0x3fc7d84246c6d89f	0.18628719764609955
214	0xbfb5ebe5aeca9b5f	-0.08563075559014298
215	0x3fc8bbfcf28256b1	0.19323694077745793
216	0x3fc2f77b2d258220	0.14817752556247488
217	0x3fc16688cde8912c	0.13594160131572985
218	0x3fbedc69dc502a82	0.12055074337710361
219	0xbf9841c185353301	-0.023688339000091044
220	0xbfb787f22517043a	-0.09191811948314035
221	0xbf87160e92e86a09	-0.011272539003631914
222	0x3fbab7ebe38f2744	0.10436891847271307
223	0x3f9a7cdcaab4c511	0.025866935652804793
224	0xbfc5696450e8b91e	-0.16727880430830394
225	0x3fc45f294240de1b	0.15915408835438502
226	0xbfbb744a7eed7b7e	-0.10724320982761346
227	0x3fc842ff57f1e983	0.1895445994776531
228	0x3fca882393c8a067	0.20727963176728112
229	0x3f951df5a6245481	0.020622099175927836
230	0xbfb913e8ad6d98bc	-0.09796003564915429
231	0x3fbdfcbfdc1f9235	0.11713790058235747
232	0x3fbfc3883d5e50a0	0.12407733438732516
233	0xbfb3f221bde3abfd	-0.07791338811846056
234	0x3fbe35ecb9baa070	0.11801032575988457
235	0x3fca6f2dca6d37c8	0.20651790985215102
236	0xbfa3bbcf9f0b2c8f	-0.038542259373195546
237	0xbfca0b82dee1fdf3	-0.20347629435489942
238	0x3f98b4fa78b48792	0.024127877824077944
239	0x3fb2e2a4c675f724	0.07377080769762451
240	0x3fb0fdfd8e66d568	0.0663755867634187
241	0x3fb1f05e3ee3b628	0.07007397685421124
242	0xbf9ef38a94836e77	-0.030225911440409505
243	0xbfba832ce7c9a373	-0.10356407793882542
244	0xbfa967c7ce2517a5	-0.04961990729729785
245	0x3fa8dd1141558544	0.04856161043677301
246	0x3fb939d6a3ba8cc3	0.09853879449160545
247	0xbf9e9abb586882a0	-0.02988713004208654
248	0xbfbc9571a782061d	-0.11165533389614564
249	0x3fc4071629966588	0.15646626501692773
250	0x3fc62004112dae35	0.17285204733649243
251	0xbfc0f89a73c43507	-0.13258677151353757
252	0xbfc4039d0aa5e3c9	-0.1563602735511991
253	0x3fc61d9ee6ebb04c	0.17277895236418528
254	0xbf99b6d2224f13c2	-0.025111468643234998
255	0x3fc017bbef3646fa	0.1257243078257984

lstm.bias_ih_l0 f8 [84]
0	0x3fc95e91160619ad	0.19819844794637956
1	0xbf952a1209fcda65	-0.020668298587418827
2	0x3fcbea107f746341	0.2180805799805743
3	0xbf9442a116342add	-0.0197854203989135
4	0xbfc575d82de6caa6	-0.16765882722173336
5	0x3fc6427f7473244e	0.17390435396217402
6	0x3fc816f905fb0db0	0.18820107261681818
7	0x3fc2e6fe90c2e7ac	0.14767438953805134
8	0xbfbaf7a00c1edcbb	-0.10534096046363832
9	0x3fbfd8e45874a1a4	0.12440325889168108
10	0x3f8bc516bbd76ce7	0.013559510810344523
11	0x3fc1a4883265ac64	0.1378336187438861
12	0x3fc41f58a20008c1	0.1572066107765462
13	0x3fc1f45d2a0c49a0	0.1402698951065533
14	0xbfbb0ecd84e6201b	-0.10569462294199676
15	0x3fb59cd19080e5a8	0.08442411210935197
16	0x3fc4368011f92a93	0.15791321637728525
17	0x3fbd70bae7b657ac	0.11500137478864642
18	0xbfca54e41233525b	-0.20571566475577438
19	0x3fc255f0ce08b98d	0.1432477003122127
20	0x3fcab1e32428069d	0.20855368867346594
21	0xbfc807d59432096c	-0.18773908363443625
22	0xbfbaf1a2ffb2c3db	-0.10524958365091612
23	0xbf9296753869b4ad	-0.01815207630936715
24	0xbfc88f8415822b51	-0.19187975931375914
25	0xbfabb03fe0a1c8aa	-0.05407905213441329
26	0x3fb3f997d28bb568	0.078027237799423
27	0xbf987cf335c96fff	-0.023914146573915215
28	0xbfb58701ed7cf491	-0.08409130142259104
29	0xbfc21a2da18761a9	-0.14142389666700453
30	0xbfc1d2825fef7ab5	-0.13923673328732425
31	0x3fc2c0558f8e0df5	0.14649457463757157
32	0xbfb4ae5db63ea686	-0.08078561496099654
33	0x3fb57c2cdd995474	0.08392601404314509
34	0xbfb3c397dbab1cb7	-0.07720326531408515
35	0xbfb78fa0a78307c8	-0.0920353325809905
36	0xbfa8509b4e38e109	-0.04748998002873079
37	0x3fb15d0c96675232	0.06782606765711632
38	0x3fc286b033dbfa2b	0.14473536045257282
39	0x3fcad4bddd080b3a	0.20961736004400128
40	0x3fc54a0a8df69ace	0.16632205898095836
41	0xbfb55c78165d4c6f	-0.08344221635825176
42	0xbfa9fee6fc761186	-0.050772875135439086
43	0x3fca12f05be53cb1	0.20370296942789914
44	0xbfa36d7f6b7e99f7	-0.037944776412860586
45	0xbf9019bfb43084c5	-0.015723224041839474
46	0x3fbd15cdbdc0fb3a	0.11361394770299862
47	0xbf8a54e8db99ace1	-0.012857264711064466
48	0xbfc6d8df7277a931	-0.1784934338496185
49	0x3fc6721cc7bf8a21	0.17535743478136204
50	0x3fa5edc3e9e0f085	0.04282963018383249
51	0xbfa0a0b09e2afced	-0.03247596674690976
52	0xbfb457b06686db09	-0.07946302893729408
53	0xbfbab5a6d66b4790	-0.10433428511467313
54	0xbfbcdaf9f3f5d7c7	-0.11271631437361328
55	0xbf97ea95eb90ce8f	-0.023355810644899718
56	0xbfc6d4647d210685	-0.17835670575918897
57	0xbfb736fb0a583acf	-0.09068268778376452
58	0xbf92dbc3b4da87b6	-0.018416459954671636
59	0x3f93aa10ba1577fa	0.01920343528524169
60	0x3fc55b0fb8f4d78a	0.16684147387576004
61	0x3fa141c0a1400a61	0.03370477646241877
62	0xbfb5998d3782bbc7	-0.08437426190606266
63	0xbfc64cf80cf243b1	-0.17422390586992045
64	0x3fcb4dc03787ee75	0.21331026755784746
65	0xbfc0287ef1babba1	-0.12623583605951885
66	0x3fc87c1ba7065963	0.19128747611530192
67	0xbfc296f6b0dedc43	-0.14523204456574676
68	0x3fae582a310a1e47	0.05926639412524231
69	0x3fc63978d394e114	0.17362890559321242
70	0x3fc7aa6ea6932f4b	0.18488867887060176
71	0x3fcb7b48d2fbd2de	0.21469984342515763
72	0xbfb899c35c92be5c	-0.09609623918617544
73	0xbfc87a2333323393	-0.19122734069642586
74	0x3fc42fc36f0ab607	0.15770762369122357
75	0xbf697e40aaf0c1c9	-0.0031119597474786637
76	0x3fc9a385da17ffbb	0.20030282162769972
77	0xbfab337b5ec73a64	-0.053127150840386134
78	0x3fb7498555d6d518	0.09096558900531126
79	0x3fb5527a67f9f549	0.0832897666786795
80	0xbfc778fcf86e9b8a	-0.18337976580116006
81	0xbfbb81072b2f926d	-0.10743756107656006
82	0xbfc0dec2449af2d3	-0.13179806089274013
83	0x3fbb4f9285244acd	0.10668292761355787

lstm.bias_hh_l0 f8 [84]
0	0x3fbfbd50ac0c334a	0.12398246956236139
1	0xbfbb28cfe27f36aa	-0.106091492459394
2	0xbfc3a8a0608b9cbf	-0.15358357156876498
3	0x3fbaa1c9fa72f54f	0.10403120388487717
4	0x3fbe88b764326a95	0.11927362629141165
5	0x3fc63d41b473244e	0.17374440489791926
6	0x3fc2085c45fb0db0	0.1408801404669311
7	0x3fc4993250c2e7ac	0.1609251875250356
8	0x3fc5bfa099f0919e	0.1699105025919722
9	0x3fb390a65874a193	0.07642593059120477
10	0x3fb718f2d77aed98	0.09022443543192649
11	0x3fba378364cb58dd	0.10240956507491057
12	0xbfc532121dfff73f	-0.16559053864323833
13	0x3fa173baa8312689	0.034086068183183
14	0xbfa62eaa49cc4042	-0.043324777134444506
15	0x3fc80700084072d4	0.18771362688939652
16	0xbfbb346ddc0daabf	-0.10626875517270216
17	0xbfa623ecb09350ab	-0.04324283271276504
18	0xbf93b89a919a926e	-0.019258895050955287
19	0xbfbd0519e3ee8d1b	-0.11335908713094904
20	0xbfb60f17d7aff2b3	-0.08616780296137953
21	0x3f945e205e6fb3ef	0.01989031387704537
22	0x3fc9605a20269e21	0.19825293130746593
23	0x3fbd5709f1e592d5	0.11460935741122154
24	0xbfb030912b0456a3	-0.06324107456415588
25	0xbf8e67cb8287227b	-0.014846410675901858
26	0x3fc695ad6945dac4	0.17644279136921714
27	0x3fc4a383d946d1ff	0.16124008282862687
28	0x3fc6675cc94185d6	0.1750293715186177
29	0x3fbeaadafcf13cbe	0.11979454684591226
30	0xbfc5ef3adfef7ab5	-0.17136321958874637
31	0x3f8cdb14f8e0df01	0.014089740605512715
32	0xbfb0c42fb63ea686	-0.06549356650671187
33	0xbfb1d7292266ab8c	-0.06968934144849309
34	0x3fa1dd94c8a9c68e	0.034893655295389
35	0x3fc956bdec3e7c28	0.19795965228419843
36	0xbfbd1239c71c7089	-0.11355935202704094
37	0x3f8c8004b33a91b5	0.013916050643566583
38	0x3fb6046d67b7f417	0.08600505621139153
39	0xbfabafd10bdfd33e	-0.05407574911070022
40	0x3fc736e04df69ace	0.18136218840409984
41	0x3fc5f5dac4d159c8	0.1715653859161661
42	0xbfc775559f1d8467	-0.18326826352407297
43	0xbfa9fac7106b0ce6	-0.05074140620629368
44	0xbfc18ff49adfa67c	-0.13720567285718122
45	0xbfb09c2e2d0c213c	-0.06488312339582064
46	0xbfba1d9c423f04c6	-0.10201431863153507
47	0xbfbfe290db7335b7	-0.12455087049166634
48	0x3fca544b4d8856cf	0.2056974533631348
49	0xbfcb8a6bd84075df	-0.21516178187532284
50	0xbfc47c3a2587c3cf	-0.16004111130271645
51	0xbf96ea2d3c55f9da	-0.022377688224418303
52	0x3fc2d7a3ecbc9283	0.14720582065014662
53	0x3f9afdf2a652e1a9	0.026359359170528816
54	0x3fc61c12e6051418	0.17273174506604572
55	0xbfc3c8c1fd7219dd	-0.15456414103773755
56	0xbfcb635b5d210685	-0.21396963164629682
57	0xbfa9c32014b0757b	-0.050316813016460814
58	0x3f8eed68964af0a4	0.015101258360452903
59	0xbfcb22efa8bd5103	-0.21200366725191352
60	0x3fb6d4fb71e9aefe	0.08918735056948532
61	0x3fc4d5fc885002ac	0.162780348357065
62	0xbf70cbc3782bbc2b	-0.004100574066554545
63	0xbf9b4ed767921dca	-0.026667943664987516
64	0x3f8d1503787ee6ab	0.014200236429917487
65	0xbfbfa066e375774e	-0.12354128888315793
66	0x3f92c9fb3832ca99	0.01834862261302792
67	0xbfbc56c581bdb86b	-0.11069902818209847
68	0xbf6cf18cef5e1b32	-0.0035331490170763752
69	0xbf7070d18d63de46	-0.004013842166606779
70	0xbfc25924f96cd0b5	-0.14334547213514318
71	0xbfca46cd0d042d22	-0.2052856744343013
72	0xbfca7ef26e495f16	-0.20699911484802475
73	0xbfc5841df3323393	-0.16809439062890572
74	0x3fc707ab2f0ab607	0.17992152974095196
75	0x3f955a8beaa1e7d3	0.02085322017271791
76	0x3fa92193685fff2b	0.04908428811176998
77	0x3fc89559c84e3161	0.1920578220418845
78	0xbfbbd0a3ca292ae8	-0.10865234075133012
79	0x3fca59de33fcfa9e	0.205867553124297
80	0x3fc959cd07916476	0.1980530058815792
81	0xbfc3621ef597c933	-0.15143191329804892
82	0xbfaa5170126bcb3d	-0.051402570961633455
83	0x3fc96f170292255b	0.19870269418269512

linear.weight f8 [1, 21]
0	0xbfaf06206eff109e	-0.0605936179631794
1	0x3fc48138916f0cef	0.16019351102122623
2	0xbfc455aa7b8ebbaf	-0.15886431725581704
3	0xbfc13f48b35a4091	-0.1347437740082609
4	0xbfb108d7d0cedc6a	-0.06654118392803957
5	0xbfb5c5a3c81bdace	-0.08504699359387333
6	0xbfbfb9d2bd82224f	-0.12392918707531318
7	0xbfa4760e7ec7e8bd	-0.03996320054643963
8	0xbfb1edd690ac549c	-0.0700353720861408
9	0xbfc5d698f2cbea99	-0.170611494591715
10	0xbf976435b02a1670	-0.022843207242223718
11	0xbfb9b68909c27896	-0.1004415177180554
12	0xbfacbfa4e8d3dd14	-0.0561496290410394
13	0x3fc6c179f471e385	0.17777943073067717
14	0xbfc470aa8d60beff	-0.15968830016344523
15	0xbfbb903e4402159b	-0.10766972694735559
16	0x3fc363d8c6c622e6	0.15148458200226073
17	0xbfb825ea48f96984	-0.09432853967283533
18	0xbf83b85796854fff	-0.009628948479679876
19	0x3fc4a4d616f8a297	0.16128040429727683
20	0xbfbe7872f8f536d8	-0.11902540758202507

linear.bias f8 [1]
0	0x3f770e6fc1f5caf8	0.005629002145144162
