Thesis-codes/Exp-1/results-archive/archive(without scheduler)/results-5/sg7/save_model/2/RNN_best_train_68.pth (torch, 3159 bytes, 6 tensors)

rnn.weight_ih_l0 f8 [10, 1]
000000 23 4a 97 7d d5 d2 d3 bf 79 ec 67 a0 0e 21 e0 3f
       -0.3097432829355588 0.5040352948120833
000010 7b ac 04 2b 4e 20 d9 bf d3 7b f6 53 2e ef d6 3f
       -0.39259676171304364 0.3583484477948648
000020 84 fc b9 05 d8 c3 d3 bf fc e7 2a c1 71 d6 a6 3f
       -0.30882835921506335 0.0446048305797859
000030 3e 53 af c0 e1 e6 db 3f e2 0d 8c 5d 3c 08 d8 3f
       0.4359669095695614 0.37550267348725985
000040 6e 04 fb 2d 21 73 c3 bf 6a 75 27 2e 05 0c c0 3f
       -0.15195097680228592 0.12536682847614183

rnn.weight_hh_l0 f8 [10, 10]
000000 cc 2f 2b bb 9f 9b c6 bf c5 39 bd f1 9b be de bf
       -0.17662426604363046 -0.4803838597044002
000010 db 45 80 5c c8 46 b7 bf 37 de f5 8b 91 89 b9 3f
       -0.09092380770041279 0.09975537936213007
000020 54 4f d6 2f 53 72 ca 3f 72 0d dd 4a bb 82 b8 3f
       0.2066139205531906 0.09574480607721172
000030 e1 ae 61 73 25 ac d3 bf ea 04 ed 01 be b6 72 3f
       -0.30738197581989196 0.004568807808767542
000040 f2 e9 82 16 05 11 b5 bf 67 f3 a0 07 0f cb cc 3f
       -0.08229095267862599 0.22494686005111506
000050 1c f5 85 fd 70 cf c3 3f 73 18 d7 bb 86 04 b0 bf
       0.15476810816827757 -0.06256906591360849
000060 5a 94 29 9f 15 ca d4 3f 1f 06 a7 46 90 f7 c1 3f
       0.32483425658421583 0.14036754083467515
000070 1a 81 f9 b2 c0 d3 c2 3f 00 7d 63 20 5e f3 aa bf
       0.14708718050952357 -0.052637998059930524
000080 5d 55 d7 7a 02 a8 9a bf 99 e5 cb 8f c2 67 b5 3f
       -0.026031531093243177 0.08361450205474909
000090 60 e5 5d fc 78 3b b4 3f ec 03 8e 21 d1 3d d9 bf
       0.07903247987078066 -0.3943980052645759
0000a0 3c b0 80 77 72 e3 dd 3f ba 0b a7 cd 80 99 b7 bf
       0.4670072714823197 -0.09218602200330298
0000b0 d0 23 06 c5 e1 95 c7 bf 43 7a d6 f5 61 c6 c5 3f
       -0.18426153297721592 0.17011665824698427
0000c0 a4 1b d9 be 8e db d0 bf 4a 0f a1 54 93 86 a0 3f
       -0.2634007323981058 0.03227672966070701
0000d0 2f e5 6d e6 66 65 dc bf 70 30 75 21 cc b0 98 3f
       -0.4436890840803071 0.024111928503132096
0000e0 6d f9 af fe 0f f6 8f bf bc 24 51 77 0e 91 cd bf
       -0.015606045684759729 -0.23098927331947106
0000f0 f9 eb 7d a0 b4 a6 a4 bf 64 5d 3d ce 45 46 d0 bf
       -0.04033436259393137 -0.25428910389515225
000100 80 17 bd 6e 70 74 cd bf 6c 10 4e 53 c1 98 cb bf
       -0.23011594206962727 -0.215599218059768
000110 83 7b c8 71 34 21 d3 bf 8b 4c 45 6e 89 32 a7 3f
       -0.2989016638911652 0.04530744048192855
000120 7f ee 43 86 7d c8 ae bf ce 4d 68 ce a3 50 d4 3f
       -0.06012336982709331 0.3174218669602994
000130 2a 46 98 0c f7 88 c3 bf 77 ab bd 62 a0 53 c5 bf
       -0.15261734118443943 -0.1666145784505166
000140 3b 6c 3f bb de 2e d6 bf 5c 99 7e 46 85 5c b1 3f
       -0.3466107205001127 0.06781800242479136
000150 89 1d 7b 79 ad 73 a6 3f b5 41 38 18 c0 da 89 3f
       0.04385130031510715 0.012624264468315308
000160 ec ea f2 3b 05 c3 c9 bf 06 82 12 dc 5c cf c0 bf
       -0.20126405169670336 -0.13132820840566256
000170 c7 22 bb 74 d9 9e af bf 48 a7 59 0c e0 43 b4 bf
       -0.06175880002917249 -0.07916069318312424
000180 8f 59 43 17 b6 ab d6 bf 70 7b b7 fa 96 76 b9 bf
       -0.354230425565583 -0.09946578618062829
000190 fd bb 49 cc ae 83 d6 3f 4f b0 1b 42 54 0a 88 bf
       0.3517872805595628 -0.011738451259098918
0001a0 c7 0a 03 70 1d 8b d1 3f 6b b9 d3 54 ff f6 d0 bf
       0.2741159051767394 -0.26507552417651564
0001b0 61 2c 38 e2 02 be d0 3f 8e d1 03 82 ea 31 bc 3f
       0.26159736720791754 0.11013665842239659
0001c0 29 2e 51 13 90 d5 c5 bf 9e 45 33 c7 ca cc d3 3f
       -0.1705799192735509 0.3093745179476971
0001d0 89 b0 aa 2f a2 f6 b8 3f 60 b9 b0 d6 80 83 bc bf
       0.09751332916011014 -0.11138158074820614
0001e0 cc 5f 14 cc 36 85 92 bf c3 3d 1f b2 22 c2 d3 3f
       -0.018086296278027977 0.30872409243326276
0001f0 9e f5 43 de 24 cb a6 3f 3a ef 8a 31 a6 e0 bc 3f
       0.04451861584855553 0.11280287465609443
000200 0f 0e 38 9c 8a fe ba 3f 13 69 f5 c0 88 64 ca 3f
       0.10544649423541606 0.20619306012924507
000210 7f 1d f6 16 fb 54 cf 3f 47 99 2e 3c a6 8a ce 3f
       0.24478090878640654 0.23860624254775528
000220 df dd df 30 09 3d a5 3f 26 56 db da 29 b8 d4 bf
       0.04148129197704597 -0.32374044773800603
000230 38 a0 ca f4 3f 20 d0 3f ce 6e 07 c2 43 ae cc bf
       0.25196837335034017 -0.22406813596795988
000240 5d 27 99 81 10 51 d7 3f 1e 6f ba be 1d bc cf 3f
       0.3643227830512979 0.24792835057166313
000250 7c 4a e5 ae 42 67 b2 bf 4e 37 24 a2 91 cb a2 3f
       -0.07188812990106358 0.03670935730234125
000260 db af 51 85 bf 0f 91 3f 5f 4e 09 11 5b 64 95 3f
       0.01666163684096476 0.020890639223877346
000270 cb 45 09 90 43 4a c1 bf f3 f5 20 19 06 46 9f bf
       -0.1350788548757421 -0.03054055717824684
000280 7f d3 72 2e d6 62 c0 3f d0 ee 0b c5 b2 c0 c8 bf
       0.12801625507350065 -0.1933806860105194
000290 6b cc 6d 34 9c 76 62 bf 09 e7 3e 04 1d 97 7b bf
       -0.002253823363781706 -0.006735909791979252
0002a0 f7 a6 15 45 7f 58 c8 bf 74 f2 86 23 bd 37 b3 3f
       -0.1902007186247869 0.07506925694810623
0002b0 cb a2 35 88 cd 62 c8 bf eb 9f c3 99 87 75 b2 3f
       -0.19051522398810614 0.07210586074836527
0002c0 37 f8 4c 71 df e8 85 bf b6 27 b3 a1 1b 7e 63 3f
       -0.010698075909768885 0.0023794688873736937
0002d0 40 9f fa 5b 23 04 ca bf b8 2e 4c 99 66 8e a4 3f
       -0.2032512854686903 0.04014893170650907
0002e0 74 09 f5 a9 5c ae d2 3f b3 ad bb 8a f4 33 c3 3f
       0.2918922099817316 0.15002304815366826
0002f0 3b 08 ab 90 36 b7 b1 3f ec e9 2c 43 17 56 bd bf
       0.06920186073242089 -0.11459489240670678
000300 56 2b 49 1a f9 f2 d1 3f f0 8d 28 a7 6d ba cf 3f
       0.2804548985192715 0.24787684118301412
000310 a5 cc 3a 4b 5b 4d c0 3f c3 3b 02 5d 1a 67 d2 bf
       0.12736073659252614 -0.2875429065979313

rnn.bias_ih_l0 f8 [10]
000000 87 d2 77 6b 72 75 ae 3f 63 7e 7a 2d 24 ea c5 bf
       0.05948979913583679 -0.1712079259932465
000010 59 06 08 87 71 9a ca 3f a6 cf 3a 1a 84 b7 90 3f
       0.20783824055984004 0.01632505807965825
000020 fb 91 b3 62 3a 48 b2 3f 21 cc c7 d9 cf 88 d6 3f
       0.07141461286261823 0.35210033671973134
000030 9f 25 62 55 10 42 b9 bf 64 39 92 bc ed 87 d2 bf
       -0.09866430363231025 -0.2895464269176016
000040 08 84 32 69 ed c1 b7 3f 93 a8 e8 30 24 3e b3 3f
       0.09280284708303566 0.07516695207655948

rnn.bias_hh_l0 f8 [10]
000000 8f 0b 22 25 12 3a c0 bf c5 07 16 4a be ad a7 3f
       -0.1267721825898573 0.04624743131991197
000010 49 06 08 87 0a ee c3 3f 0e 5a 47 03 71 05 c6 3f
       0.15570193856551587 0.17204106006711622
000020 56 37 a6 ce 4d ce cf bf 93 cd e0 98 cb 4b b6 bf
       -0.24848339643761602 -0.0870940445172919
000030 44 da 9d 2a 1a 16 b5 3f 9b c6 6d c3 42 a6 d1 3f
       0.0823685030025923 0.2757727535709848
000040 3f 84 32 e9 f4 2f b2 3f 5c 54 74 58 2d c3 c4 3f
       0.07104426091474723 0.16220633334220025

fc.weight f8 [1, 10]
000000 97 bc 62 ab 9e f6 dd bf 28 e0 c7 4b 13 7b e1 3f
       -0.46817747818836025 0.5462738494961785
000010 84 cc 5a e0 95 9a c9 bf f9 b5 43 3f 67 73 d4 3f
       -0.20003007368868364 0.31954365900205023
000020 1e 4f a2 8b dc 88 d5 bf 74 5f cc 97 9b 23 c6 3f
       -0.3364783633817171 0.17296166336086183
000030 5c 7d b4 42 ed a0 d6 3f 9a b3 b1 16 21 8b d9 3f
       0.35357219232715464 0.39911677566743153
000040 41 c8 88 ba 89 3a bf bf 9f ce 22 3a 6e 5d ce 3f
       -0.12198696903286167 0.23722627485914402

fc.bias f8 [1]
000000 e0 92 2f 6a be 73 b6 bf
       -0.08770361034801111
