Thesis-codes/Exp-1/results/sg9/save_model/6/LSTM_1_best_train_4.pth (torch, 18327 bytes, 6 tensors)

lstm.weight_ih_l0 f8 [84, 1]
-0.15507373097477067 0.07222525461053045 0.19979373822765206 -0.012116733880764834 -0.047105360063011574 0.00957340000192531 -0.006538151303312478 -0.14261611314426986
0.07855988940642124 0.10088971710781011 0.16271552273287748 -0.11759036575212813 -0.03246314969266977 0.05078644051700159 -0.1275408422004361 -0.10836794011816334
0.24400249455176984 0.00547067667811772 0.07430957950768499 -0.14145522962922555 -0.17398826882908452 0.2138719008357022 -0.11852031114143805 -0.02092511289036398
0.1838204640819161 0.14092508258405842 0.076966851293639 0.1602251832386655 -0.16349782280713976 0.09266641568988973 -0.08264343132225907 0.04468836228292488
-0.07692827300898675 -0.03200241815899688 0.046552765838335876 0.23132341378212146 0.17733955750533775 -0.14223198497619327 0.1505453720876319 -0.06544366437336563
0.032723971093182425 -0.05213058774601404 -0.04806650852406387 -0.06946085565421492 -0.08876173344179705 -0.04193096742828281 0.17146054931186455 0.09893003288485644
0.18520327128043929 -0.06543311296797905 -0.16256851985349485 -0.08120394951653415 -0.1603713067862079 -0.014154505075086164 0.061607140273730224 0.09198993911647428
0.004963983409022947 0.08795687402742818 -0.21886040793300804 -0.15466843670533612 -0.22582569174372988 0.017348059723250903 -0.1263759608358491 -0.01865537743603472
-0.15594827007025164 -0.08233243671491257 -0.009062660044646354 0.09151313831859183 0.023586730230730782 -0.1744840147705169 0.023140340518381538 0.1579788750811058
0.12762844895422487 0.04891413610676083 -0.20727671967130915 -0.17367634264515674 0.02842064281579307 0.11704375665333958 -0.07863974652621131 0.17101100384479095
0.09293283199649732 -0.14229290645467774 0.16489479126103587 0.037291697505567496
00000000: 0eaf 80bd 74d9 c3bf 425c 7fb2 5a7d b23f
00000010: a211 d159 d792 c93f fc8b 047e a8d0 88bf
00000020: 7fb6 df99 311e a8bf c4bd 5bff 379b 833f
00000030: 006a 62a0 bfc7 7abf d22b ebaa 3e41 c2bf
00000040: 2128 c73b 801c b43f 8611 7b93 e8d3 b93f
00000050: 7439 58bc dcd3 c43f c9e5 3af7 661a bebf
00000060: 87a5 828c 029f a0bf 4798 332a ae00 aa3f
00000070: 9adc 1321 4253 c0bf ca0d be56 00be bbbf
00000080: b102 1f47 793b cf3f 6d4b b696 6b68 763f
00000090: 46d8 c3dd f305 b33f 6187 8d78 341b c2bf
000000a0: f618 4162 3f45 c6bf 81b4 cf89 2760 cb3f
000000b0: faa3 43dc 5857 bebf 32ec 1d8e 646d 95bf
000000c0: a89f c8d0 6d87 c73f 8f3b 7146 d509 c23f
000000d0: 90a9 2e7d 19b4 b33f fbb9 0041 4282 c43f
000000e0: 5041 f624 7fed c4bf ae5b d378 fcb8 b73f
000000f0: 9221 c2b2 1e28 b5bf 47af 089d 64e1 a63f
00000100: 881b b640 92b1 b3bf a588 c5f6 9e62 a0bf
00000110: 6dc4 a09d c3d5 a73f 0a24 7f70 019c cd3f
00000120: 7ee2 e207 10b3 c63f 307e f55d a834 c2bf
00000130: 9e1b d71c 1245 c33f 14c9 367e eac0 b0bf
00000140: 68eb 4743 32c1 a03f 3914 fb42 dcb0 aabf
00000150: da9a 4964 2c9c a8bf 6214 63c7 2fc8 b1bf
00000160: 48cf 44c6 16b9 b6bf 5c96 96cb f977 a5bf
00000170: aea0 ec55 6bf2 c53f 6629 d587 7a53 b93f
00000180: 7a7f a1a4 bdb4 c73f a0df 4578 39c0 b0bf
00000190: 24a0 1096 0bcf c4bf bcc3 7a33 c8c9 b4bf
000001a0: ab88 ee06 0c87 c4bf ecc5 1b83 09fd 8cbf
000001b0: aafc 5999 f88a af3f 43f8 1014 a78c b73f
000001c0: 12ed 6426 1d55 743f 73fc 6779 5784 b63f
000001d0: 0e12 3b2b 9e03 ccbf 07ba afe2 2ccc c3bf
000001e0: 1365 5134 dbe7 ccbf 7844 a494 b0c3 913f
000001f0: b330 6565 162d c0bf 7be1 ed2f 651a 93bf
00000200: 96e5 e8e7 1cf6 c3bf 932d 1713 bd13 b5bf
00000210: 675b 0da4 718f 82bf ad90 3bb0 676d b73f
00000220: e49d d7ab 1e27 983f 809c 8e00 7e55 c6bf
00000230: 5fa0 faf6 19b2 973f f252 f7da a638 c43f
00000240: cc17 2607 2156 c03f ba00 c80d 460b a93f
00000250: 75ef 1a26 0b88 cabf b4fa dfc1 063b c6bf
00000260: e954 b30d 4d1a 9d3f 72ee 0663 94f6 bd3f
00000270: 38ed 7e03 bc21 b4bf 387f 6246 b0e3 c53f
00000280: 644d 2632 72ca b73f fc7a d669 a736 c2bf
00000290: 479a dfc3 451b c53f e1c0 65ba e517 a33f

lstm.weight_hh_l0 f8 [84, 21]
-0.14995367930679276 0.13370785344979633 -0.10726005468979198 0.05701268659341596 0.1033818421845638 0.12472352347215104 -0.08785630048234436 0.03240153006853149
-0.15066259060207485 0.13686022115018018 -0.019021202195844897 -0.11141417950041714 0.1049462769353846 -0.13368806884797488 -0.08839624512845076 -0.18937181710060627
-0.1163316390176716 -0.17109069130156193 -0.19438686870379077 0.10418620820695598 -0.19266866988226353 0.1551699253040744 0.039933765117705626 0.09241459974391254
-0.05581324482903915 0.16771167354721847 -0.2172035346927093 -0.17631944602607139 -0.11378956775206593 -0.03504247199881058 -0.13737978301488174 -0.0021938676641877933
0.19532591556309337 0.07501826280312758 -0.11043212653102522 0.16571196089055576 0.15981616437735308 -0.19835203755745523 0.1609201203265596 0.16440986822149958
0.18333278704423733 -0.12861197905121302 0.19239514953769124 0.009740397153020837 -0.12135080545543879 0.013176885855454514 -0.16608869663400613 0.0017802791878580592
0.002979432947784266 -0.08219298595571033 0.1645455662450914 -0.053583303331239396 0.093171679626302 0.2107435545357065 -0.11547624637888546 0.1497336607929548
-0.08706639135327011 0.17097254166738335 -0.09256835101379027 -0.01952680710503619 -0.07053668230107259 -0.1055310136603958 0.003913376433552969 0.18271217885197003
-0.10215164402363898 0.10305010769242431 0.18345208720406242 -0.04911753692326405 -0.11471035845117808 -0.11393059317487057 0.20833721052213264 0.19325705271127488
0.1183354442600031 -0.19287164214923563 -0.13332948359853403 0.13598298590684046 0.11500649345425558 -0.146502792488158 -0.22597203688011458 0.23481115160349658
-0.09928914350393314 -0.1028506678199415 -0.11834105428410753 -0.13707107641698935 -0.20522087796468044 -0.16025366895124254 0.02956780828249722 -0.14893486234377107
-0.06160199918739266 -0.10819953232649798 -0.01193004364091936 -0.13938498369893487 0.15446112535667522 -0.16421031864351843 0.026029629639961714 -0.15919872921926126
-0.15943861957625 0.1811347992774901 -0.15137389533176382 -0.17671835673048722 -0.11262354238865131 -0.10465054473270949 0.16051818314186075 0.07467045077593244
0.11246880654978936 0.05369925326776449 -0.031234851563783028 -0.200337680403349 -0.11451568174072133 -0.1993152476929885 -0.11990854426171686 -0.07560398177192593
0.07951669817817836 -0.1497669283956859 0.2083563091092633 -0.05884648606088943 -0.19392140515193892 -0.07682236066321316 0.13607549092563653 0.10360689252289089
0.0015381639534702589 -0.16987489091502314 0.009442136817301251 0.013685093656595242 -0.0037161988808813353 -0.17567536931591807 -0.17627739725494848 0.20053483836583075
0.07879789549555125 -0.004545816845364135 0.011164923414626193 -0.15527196425471326 0.21342889916713603 -0.02254550416442663 -0.14387814866429546 -0.14705541138934738
-0.16125569081781785 -0.00587350775482842 0.14986344340316052 0.019993610331088377 0.23112139149586097 0.08880136404465427 -0.03583990257194413 -0.06863611316584735
0.09708034192070765 0.05819425542413045 -0.007840106339159792 0.18702650358273976 0.047026989981601104 -0.08573169332225386 -0.14867448156610236 -0.12982610933682137
-0.19168565699024198 0.011860512487178771 0.13810729446190279 -0.10610692429278899 -0.1888144320745305 0.0866291016774556 0.14633998064415463 0.18452543175847294
0.006516468539762164 -0.03885608009013934 0.082766115268327 -0.17376616648732443 -0.0034181814213252474 0.13326964335250924 -0.06836064385261122 -0.018653653766705837
-0.07898578831096689 -0.15928286361017557 -0.1534981473782549 0.046515000075282524 -0.17043828728317986 -0.19936936545794293 -0.17268526142918175 -0.023764740413377165
-0.10162436773298357 0.2051665574185989 0.15672488238145518 0.03550084342611695 0.18336533526760376 -0.09063368975345253 0.15492242171955953 -0.17811312993681622
-0.037325432387191014 0.15098160807594455 0.07851927676898178 0.05094947935930432 0.09324230837786943 -0.013412394518818236 0.1730558146335038 -0.1985708478208374
-0.03392039326150574 -0.06338968919867709 -0.0037762592701950813 0.14246033521317147 -0.0016365143885262669 -0.1682640913584562 0.22017361442172656 -0.2032369175948225
-0.001728244681454415 0.15344747154940414 0.06847172700621591 0.18336427113532083 0.02180332917727056 -0.17572044052618116 -0.11150260574054044 0.01317870302714813
-0.099999948333101 0.11045875381560626 -0.12450705609497857 0.024417492055774512 0.010430071971517166 -0.07925961282706978 -0.10521582015457989 -0.12752057340063877
0.15557123087684208 -0.1308685539476758 0.03467290881375274 -0.12691122370662886 0.12244327883989843 0.17988517578112004 0.10739123162767106 -0.10395452139867346
0.07562889985443384 -0.16755431041104363 0.1592306258214733 0.03264189569266932 0.14813793023001742 0.1412045723887121 0.03287149014967945 0.024223459438851538
-0.043625617123208844 0.07742263503657885 -0.1838634027828427 0.0110767091942417 -0.19042765734451833 -0.07466976046442922 -0.16435068522098759 0.20649059128027358
-0.10463618817287161 -0.03585686253638611 -0.059270991959221725 0.02369652701177487 0.10950154928832563 -0.09215826149823415 0.19365368180728787 -0.10242592610720036
-0.17760087900677435 -0.07885015756219708 -0.037289824117607354 -0.10219192993698051 -0.07237490342134259 -0.10682855468102997 0.21648100682508756 -0.1783089833032757
00000000: 56ce 44a2 ae31 c3bf 9d82 e4c4 561d c13f
00000010: e350 0f1b 6575 bbbf 606b c050 c430 ad3f
00000020: cfd4 2e7f 3b77 ba3f acd2 5a7e e1ed bf3f
00000030: 46b8 5121 c07d b6bf 0b2b f8ef ee96 a03f
00000040: 0feb ae69 e948 c3bf 194f fbbe a284 c13f
00000050: 7c70 7245 4b7a 93bf c3d4 43c1 a385 bcbf
00000060: 6f41 465b c2dd ba3f 27a2 c8cd b01c c1bf
00000070: 1e78 eae5 22a1 b6bf e197 9df0 553d c8bf
00000080: 8e2b 1209 e9c7 bdbf 9726 e5bd 4ce6 c5bf
00000090: 6d64 ed3d abe1 c8bf 7e70 f184 f2ab ba3f
000000a0: 99d7 0df2 5da9 c8bf 497b 40ad 9bdc c33f
000000b0: ff95 5fce 3272 a43f 61b2 92b3 7ba8 b73f
000000c0: dfdf 72ba 8d93 acbf 3b78 857c 9377 c53f
000000d0: 4257 0a4f 53cd cbbf 1b58 2ab7 a291 c6bf
000000e0: 5f00 1f28 5021 bdbf 0c6a 693e 16f1 a1bf
000000f0: 681a 9725 a995 c1bf a770 d2bb dff8 61bf
00000100: a2ce b389 7000 c93f 3598 5799 6534 b33f
00000110: 8ae4 e0a3 4745 bcbf 295d 4aae 0c36 c53f
00000120: eaba af27 db74 c43f f0bd 337d 9963 c9bf
00000130: 2a15 09cf 0799 c43f 4f54 93ef 610b c53f
00000140: 2edc 51e2 7277 c73f c80b f379 5b76 c0bf
00000150: 6932 967d 67a0 c83f a438 c7f9 c5f2 833f
00000160: fb3c c6ac d810 bfbf 4198 7fae 7bfc 8a3f
00000170: 0ba0 23f8 6442 c5bf 0534 ef38 082b 5d3f
00000180: 3391 48e2 5268 683f d7ee a37a 990a b5bf
00000190: 67bb dc40 d40f c53f 40b1 d64e 456f abbf
000001a0: 0f8a e864 19da b73f 6d6d 4911 a5f9 ca3f
000001b0: c282 a9ed d98f bdbf 1ca9 1bfc 782a c33f
000001c0: 916a 71a7 fb49 b6bf 32da 7ca1 6de2 c53f
000001d0: 72b6 3f38 8fb2 b7bf 224e a5d7 d5fe 93bf
000001e0: 59c5 a627 b10e b2bf d497 629c 1404 bbbf
000001f0: a2e5 c8fc 7807 703f bd03 60d8 1c63 c73f
00000200: 016d 5032 9c26 babf ba63 63ea 7d61 ba3f
00000210: 5a52 76a5 5b7b c73f 12b1 7d0d ef25 a9bf
00000220: 5a6c 0f76 a85d bdbf eb2f b32b 8e2a bdbf
00000230: 29c0 dd30 cbaa ca3f 0fe2 8ea8 a5bc c83f
00000240: 81e9 0d4f 3b4b be3f 0aab ad99 04b0 c8bf
00000250: 94fa d2c5 f010 c1bf b122 a4f6 e367 c13f
00000260: cdb2 36c8 1071 bd3f 2c31 417f 9ac0 c2bf
00000270: e0f4 1ad6 a6ec ccbf 42c2 6fb4 4a0e ce3f
00000280: 907e 3268 036b b9bf 738d a8de 6b54 babf
00000290: a5a5 ec6d 994b bebf 5020 3887 8b8b c1bf
000002a0: 6748 a87f ad44 cabf 16d4 9a35 3183 c4bf
000002b0: 30d4 5906 0647 9e3f dc18 802d 4c10 c3bf
000002c0: 6692 c117 4c8a afbf e4e8 c8ec f6b2 bbbf
000002d0: 1887 385a c76e 88bf 6e2c 45fd 5dd7 c1bf
000002e0: f083 f4d4 61c5 c33f e0ac 1efe d704 c5bf
000002f0: e65c 1fe0 82a7 9a3f ccde c7bb 9f60 c4bf
00000300: 0e52 6614 7c68 c4bf 703c 88d3 6c2f c73f
00000310: c082 f544 3860 c3bf a551 6105 b59e c6bf
00000320: 35a5 517f e5d4 bcbf deb4 22cb 60ca babf
00000330: 09fa 801d dc8b c43f c569 0f48 9a1d b33f
00000340: 3c95 f375 c1ca bc3f 4197 35f1 777e ab3f
00000350: 80f2 d867 07fc 9fbf c193 be44 aaa4 c9bf
00000360: 6e9e f453 e650 bdbf 49bf 377b 2983 c9bf
00000370: 6b73 1d8c 53b2 bebf b665 2855 c85a b3bf
00000380: 0443 29d2 345b b43f 16ad bd0d 902b c3bf
00000390: 1110 c566 6bab ca3f 9769 3b6a 2021 aebf
000003a0: d99b 8fa6 6ad2 c8bf 8a67 a656 a1aa b3bf
000003b0: 5008 a8f3 eb6a c13f 27a8 0637 fb85 ba3f
000003c0: 8c0d 11f8 8633 593f af1f 72de 75be c5bf
000003d0: 9465 ad26 6656 833f 560a 952d ee06 8c3f
000003e0: ac07 1515 6f71 6ebf f758 f6ce 877c c6bf
000003f0: d7f3 1dfc 4190 c6bf b0b4 3e26 20ab c93f
00000400: fea2 2550 192c b43f 717c f36a a29e 72bf
00000410: 53e1 6ca7 a2dd 863f 9dd6 3aa4 f3df c3bf
00000420: 48d9 f85e a351 cb3f ef6f 3b2c 2b16 97bf
00000430: 6fa3 8f63 996a c2bf 3ffc 4e33 b6d2 c2bf
00000440: 039f 2dc7 06a4 c4bf fe42 84bb d10e 78bf
00000450: a929 24ae b92e c33f 2104 017a 3479 943f
00000460: f0bb f0c0 6295 cd3f 8c77 69aa afbb b63f
00000470: 4f6c e092 9b59 a2bf d532 5fe5 2292 b1bf
00000480: b549 a2dd 41da b83f 2c32 b92f a3cb ad3f
00000490: 8d40 9742 790e 80bf 8cc1 2f06 7cf0 c73f
000004a0: d926 00f0 eb13 a83f 82be 0c23 83f2 b5bf
000004b0: c2bf 09f2 c307 c3bf 7060 e256 249e c0bf
000004c0: 9453 f1d5 2789 c8bf b748 f809 534a 883f
000004d0: e6c5 86f4 7fad c13f 1f78 b7c9 d229 bbbf
000004e0: 1bef 6241 122b c8bf de26 9626 532d b63f
000004f0: a361 7bbb 44bb c23f f569 5783 879e c73f
00000500: 7114 3834 03b1 7a3f b6ce 79b2 f1e4 a3bf
00000510: d05f 4bfe 2830 b53f cf6f 1b41 f83d c6bf
00000520: 460a 532d 7200 6cbf 7cd2 dfcb fa0e c13f
00000530: 3133 ae49 1580 b1bf aa00 8483 f119 93bf
00000540: 36f6 a4a1 6938 b4bf 626c 0281 6163 c4bf
00000550: 923b 7ec9 d3a5 c3bf 9f8c 3168 d0d0 a73f
00000560: 930a effa ebd0 c5bf 60aa 3b74 ef84 c9bf
00000570: 3d76 2bf7 8c1a c6bf 7e58 7ebb c855 98bf
00000580: b1cc e3f7 0d04 babf cc42 2cd3 e542 ca3f
00000590: 331e 269a 8f0f c43f d4bd fda2 2a2d a23f
000005a0: 33e3 18eb 8378 c73f df29 68fd c433 b7bf
000005b0: b9ef 5977 7fd4 c33f b28d 083a 69cc c6bf
000005c0: 83f7 d2ae 511c a3bf f1e8 7d86 5d53 c33f
000005d0: b30e d4dd d619 b43f 7760 31d7 0c16 aa3f
000005e0: 9a24 1659 bade b73f f213 8e1e f577 8bbf
000005f0: 8be4 1d64 b126 c63f b62c aa00 c56a c9bf
00000600: 3e85 7387 035e a1bf 5b0d 0382 4e3a b0bf
00000610: e671 22c2 63ef 6ebf d8df 5be8 233c c23f
00000620: 6745 cdf1 09d0 5abf 94e4 bc80 ad89 c5bf
00000630: 3814 b124 a62e cc3f 176e 34d5 aa03 cabf
00000640: 94ac b998 c850 5cbf cab2 faaf 2aa4 c33f
00000650: 053d 31f4 5c87 b13f 6cfa e3fd 7a78 c73f
00000660: fd8b 0aa7 9c53 963f 873a a6e4 017e c6bf
00000670: 140c 134d 6f8b bcbf 5fd9 0a94 6ffd 8a3f
00000680: 683e b1bb 9899 b9bf dbe7 315f 0647 bc3f
00000690: 6f96 0cc6 b1df bfbf 09cf 5127 e600 993f
000006a0: 15ca 1990 5c5c 853f 1463 fca4 5b4a b4bf
000006b0: f2f2 958a 6cef babf 2655 291a 9852 c0bf
000006c0: 9b41 6812 c2e9 c33f a3d9 a3ff 4cc0 c0bf
000006d0: 8113 d3c2 a5c0 a13f 1b5c a881 a03e c0bf
000006e0: c57c 3b56 7158 bf3f 83ef 8139 7a06 c73f
000006f0: 60cf b7e3 fd7d bb3f 01bb ad75 c39c babf
00000700: 4ddb 8163 6a5c b33f 4477 c26d 6b72 c5bf
00000710: 3061 364d ab61 c43f 857b f544 70b6 a03f
00000720: 7849 d106 2ff6 c23f 7043 3ace fd12 c23f
00000730: 2acb 532e 88d4 a03f 07e9 57d8 08ce 983f
00000740: 69be 9fcd 1856 a6bf a7c6 7345 f8d1 b33f
00000750: 4e19 f102 d688 c7bf 227f e4bd 62af 863f
00000760: 8a38 46f8 ee5f c8bf 7ae3 31b3 8e1d b3bf
00000770: ebb6 0c79 7109 c5bf 4c80 3da0 486e ca3f
00000780: db3a 2eee 6fc9 babf f3a4 dca7 d45b a2bf
00000790: d4f6 2178 c458 aebf 0d6b 2d02 e743 983f
000007a0: 3500 0e25 4b08 bc3f 01ee 300f af97 b7bf
000007b0: 925f 0ed3 a4c9 c83f 9897 e4e2 9538 babf
000007c0: ec97 8927 a0bb c6bf fb9a 0320 862f b4bf
000007d0: fa0f 1ede a617 a3bf 9494 fe14 4029 babf
000007e0: 62ee 3e63 2987 b2bf f44b a2bc 1d59 bbbf
000007f0: 716b 424e a6b5 cb3f 236f ef29 d4d2 c6bf

lstm.bias_ih_l0 f8 [84]
-0.009517334047528947 0.08701422550060335 0.02324405132644554 -0.2182799077194172 -0.15209066837577714 0.14595400719674842 -0.1863770272499624 -0.14783001760962805
-0.07108786145113935 0.13939026831949053 -0.09169067756703671 0.021579507948283668 -0.02910900461382608 -0.020155019812825 -0.006765244533825774 -0.12454009519414788
0.22930105607594817 -0.19027445047282482 -0.18839002606317345 0.0757585934317134 -0.03515487219223944 -0.016259809691322437 -0.10229725570043376 -0.10000852336074834
-0.1583039056905365 -0.03678783758548253 -0.14965430109422612 -0.14792033751236866 -0.20962042562753114 0.16371009086491387 0.0030679676239841994 0.19458587541680786
0.12873905211995504 0.20590182077940006 -0.1898798152981262 0.22823767270200754 -0.03535623988072166 0.13324590987473836 0.025108094373947426 -0.1559891973607487
-0.042380123771193816 0.016183740499141862 -0.21362385890678745 0.15499707724121997 0.24183101356425482 0.118239610511777 0.1886739774622765 -0.08407994220917259
0.15889984180511718 -0.05474537681922724 -0.09102109062455278 -0.19513336970869477 -0.15745367417699746 0.18992019267255986 -0.14906548415886384 0.10557854123585098
0.18830380774894423 0.09550343391928416 -0.021347145342466692 -0.005313111689213988 -0.1019058332208537 -0.02236003521922349 -0.1464981565648319 0.09809533774470498
-0.03757482685197727 0.08269934859444483 -0.14199193647531322 -0.05621302170556659 -0.16734608608258492 0.18602543065793933 -0.12568395674095856 -0.06934594640347619
0.15736238752671258 0.1847762964659173 -0.13800915844358685 -0.04139135037206591 -0.12725077667593837 0.016468554534318693 -0.07039626315215561 0.09836830912459993
-0.04379761860800893 -0.09836212575511842 -0.11959725615830222 -0.01279648533087661
00000000: f37d d5f3 d27d 83bf 19d6 cf74 9046 b63f
00000010: 3432 18e1 49cd 973f 8caf 8394 98f0 cbbf
00000020: fdb1 59ff b477 c3bf d7a9 d0f3 9eae c23f
00000030: 3cd4 61d2 33db c7bf f60e 8011 18ec c2bf
00000040: ca41 1368 d032 b2bf 580c e851 8ad7 c13f
00000050: ed9d 7f4d 0a79 b7bf 3f4a 9b43 f018 963f
00000060: 4c8c 573b c0ce 9dbf e906 c97b 84a3 94bf
00000070: 0a08 5b80 dfb5 7bbf a84b e613 dce1 bfbf
00000080: 2b69 64ac bc59 cd3f 9ec7 05c7 e95a c8bf
00000090: d0bd 6a14 2a1d c8bf 961f 2e49 ea64 b33f
000000a0: 5fb1 b8c4 d1ff a1bf ba22 745b 69a6 90bf
000000b0: 9d33 b427 2730 babf bcd9 2799 289a b9bf
000000c0: d38c e268 4d43 c4bf 2ef2 a3fe dad5 a2bf
000000d0: 66e5 7344 df27 c3bf 2cb3 03ba 0def c2bf
000000e0: 9069 5294 d7d4 cabf 811e 25c7 73f4 c43f
000000f0: f9bf 8693 fe21 693f 4de0 96a1 30e8 c83f
00000100: 2360 4971 857a c03f a699 37a9 fd5a ca3f
00000110: de1f 7056 fb4d c8bf f331 fc5d e436 cd3f
00000120: fe94 fe8b 361a a2bf 136f 9eb4 330e c13f
00000130: 38cf cdb0 efb5 993f 55cb 983a 74f7 c3bf
00000140: ff06 32fb d8b2 a5bf 06dd ae70 7892 903f
00000150: 3b32 d3cf 0658 cbbf 1202 ddb8 f1d6 c33f
00000160: 7b60 3593 51f4 ce3f 7867 3d7c f344 be3f
00000170: 8e42 6709 7826 c83f 28b8 095a 4386 b5bf
00000180: 243f f27b d456 c43f 2670 1706 9607 acbf
00000190: 818c 7a7f 284d b7bf 58e9 a058 21fa c8bf
000001a0: cad4 9c26 7127 c4bf 0b78 300c 4e4f c83f
000001b0: 6e5d b6e9 9314 c3bf 3072 c4fd 3107 bb3f
000001c0: f63a ffd3 561a c83f 2fca 56bd e972 b83f
000001d0: 3477 6fac 06dc 95bf f169 1f8f 33c3 75bf
000001e0: ca87 f42c 8016 babf 8511 0490 8ce5 96bf
000001f0: 0c64 af9b 73c0 c2bf c5ea 80ab c61c b93f
00000200: 78d6 f6f8 013d a3bf c817 9dd5 c82b b53f
00000210: de84 bab1 ca2c c2bf ea63 ab03 f4c7 acbf
00000220: 834d 6bb7 986b c5bf 9d38 736a aecf c73f
00000230: 34ca ea71 6916 c0bf dcc0 e9eb a7c0 b1bf
00000240: 531b 0662 7324 c43f acd4 32eb bfa6 c73f
00000250: ec26 08bb 48aa c1bf b6df 5e40 3f31 a5bf
00000260: 525c 1be2 c049 c0bf 1796 8cfc 21dd 903f
00000270: 36c6 ff4f 7d05 b2bf 6029 a75e aa2e b93f
00000280: 04cf 2037 a46c a6bf 9384 48a1 422e b9bf
00000290: 7a28 e4ff ec9d bebf f6b5 ff2f 0b35 8abf

lstm.bias_hh_l0 f8 [84]
-0.13218448275682665 -0.018437358361701406 -0.17569935501701447 -0.10128081800155245 -0.09619320898799837 0.14367091088327186 0.2214700196021494 -0.17220074753287634
0.09110947510338778 -0.021531975871679675 0.07786345912644094 -0.1782068719850731 0.03798211765580417 0.12313131267523478 -0.15790667944173856 -0.21082161830263005
-0.018817419003588 0.09829389721966406 0.24191356244638618 0.05103993629574979 -0.15605402792820883 0.06434001986323562 0.09097655683199117 0.22151208828304284
0.05122136655963891 0.011796027580228022 0.19637730510313106 -0.17789730150925587 0.08023723013609525 -0.16787208284018715 0.017599431008612488 0.04136450662713522
-0.00829768865992178 -0.08812202829067164 0.13210972098727372 -0.1020974824274256 -0.1722993715659779 0.17135878867417687 -0.22016664310335565 0.14627902461362405
-0.012288316524985618 -0.17633169233548332 0.14654945590301174 0.23836871649292896 0.00247895121970375 -0.11452668992805737 0.07684553107403101 0.02965096523101312
0.1967413704592157 0.029224752670671476 -0.13270820665143138 0.14628491148885317 -0.09160961518651954 -0.11502826391284802 -0.18985586320625764 0.1730733806657064
0.06773353554168379 0.1688904309037664 -0.14058584233486354 0.12672589883553584 0.11499979045353959 -0.20865752641204188 0.05863796375453502 0.20883281051730243
0.22386080108533926 0.169817765619057 0.10976564803692036 -0.14708466870587944 0.0956152419470484 -0.15326757242433606 0.20664220214022888 0.02222817113783698
-0.12797301913432077 0.22256811484627315 -0.13320268459238302 -0.12772192810319863 0.11625350913643942 0.010962337054612876 -0.14357240870574503 0.190661482199322
0.011607998152244971 -0.18438129901962153 -0.08029796180577081 0.07563444087285125
00000000: f257 3dcf 6beb c0bf b0a7 c02c 3ee1 92bf
00000010: b7f9 dc03 517d c6bf 2a5f 0729 8aed b9bf
00000020: 1b64 b33e 1ea0 b8bf d7a9 d0f3 ce63 c23f
00000030: c42b 9e2d 2159 cc3f f60e 8091 ac0a c6bf
00000040: 2bbe ec57 f352 b73f c69d bf70 7a0c 96bf
00000050: 1462 8012 dcee b33f a796 8c97 7bcf c6bf
00000060: c039 5462 6472 a33f 36be 0da1 8885 bf3f
00000070: 31d8 023c 4936 c4bf cd25 f3e9 33fc cabf
00000080: 5ab6 dc9c df44 93bf 8e70 f4f1 c929 b93f
00000090: 3042 950b 06f7 ce3f 133f 5c12 e821 aa3f
000000a0: 522c 2e11 94f9 c3bf 64f7 2269 9678 b03f
000000b0: 63cc 4b58 3d4a b73f 2113 6c13 825a cc3f
000000c0: accc 75dc af39 aa3f 8237 7005 8428 883f
000000d0: 9a1a 8c3b e422 c93f 2cb3 03ba 56c5 c6bf
000000e0: f52c 5b57 6d8a b43f 7fe1 da18 d57c c5bf
000000f0: fdd7 70d2 9505 923f 5381 5b86 ba2d a53f
00000100: 0ffe 69eb 60fe 80bf 92cc 904d 2a8f b6bf
00000110: 11e0 8fa9 f8e8 c03f 3b9c 0784 0f23 babf
00000120: 26a5 ffe2 e70d c6bf 146f 9eb4 15ef c53f
00000130: 2c46 e6a9 6b2e ccbf a734 6765 45b9 c23f
00000140: f81b c8ec 9d2a 89bf 5d24 ea71 0992 c6bf
00000150: c5cd 2cf0 21c2 c23f 1202 ddb8 dd82 ce3f
00000160: e41e 58cd bc4e 643f 7898 c203 9f51 bdbf
00000170: df84 ce12 26ac b33f 8e1f d997 d25c 9e3f
00000180: 243f f23b d22e c93f be1f d1f3 17ed 9d3f
00000190: 4946 bd1f 95fc c0bf a916 5fc7 76b9 c23f
000001a0: bfa9 394d ba73 b7bf 1710 9f07 7e72 bdbf
000001b0: 6e5d b669 324d c8bf 1b39 e2be 4427 c63f
000001c0: d675 fe27 fc56 b13f 2765 ab9e 339e c53f
000001d0: d6ee 8d85 b7fe c1bf b304 87e3 8d38 c03f
000001e0: 6078 0b53 a070 bd3f 4a82 0032 4ab5 cabf
000001f0: 1270 4291 cb05 ae3f 4575 c095 08bb ca3f
00000200: 554a c281 78a7 cc3f db8b ceaa 96bc c53f
00000210: 39f6 8afc 9919 bc3f fcd8 eaa0 abd3 c2bf
00000220: 3065 2991 3d7a b83f 63c7 8c95 459e c3bf
00000230: cc35 156e 4073 ca3f 8ffc 5850 fbc2 963f
00000240: a3e4 f97d 6b61 c0bf acd4 32ab 1c7d cc3f
00000250: ef26 081b c90c c1bf f5b7 1730 3159 c0bf
00000260: 5247 c93b cac2 bd3f 2a2c 19f9 6b73 863f
00000270: 2fe3 ffa7 9460 c2bf a894 536f 9867 c83f
00000280: eec3 7c23 efc5 873f 3c42 a470 ce99 c7bf
00000290: 7c28 e43f 688e b4bf 4b09 005a c75c b33f

linear.weight f8 [1, 21]
-0.1996602855701906 0.004483841724826765 0.019813590476136192 0.04380240727585014 -0.1611275067991991 0.11988496653092204 0.1425543844689527 -0.22143613381211444
0.05382616989420166 0.16638797095087285 -0.10678199134556257 -0.0516682974017566 -0.2266648807235298 0.011527120113417041 0.16354218799973105 -0.15254486462754338
-0.1472675041109969 -0.09480799040404897 -0.2231601040515314 -0.1400166292856334 0.1311293356141987
00000000: 2ac0 6ade 778e c9bf 1ade 1819 a65d 723f
00000010: a403 728c 034a 943f 2dc1 78e5 446d a63f
00000020: 5123 187e d39f c4bf 0e49 88fa c7b0 be3f
00000030: 2e08 99d9 383f c23f 4f17 70ec 0458 ccbf
00000040: 73a4 ba8e 1a8f ab3f 1f45 d776 334c c53f
00000050: b285 a188 1056 bbbf 603d 295f 4474 aabf
00000060: 96fd edd4 5a03 cdbf f8c7 3bdf 879b 873f
00000070: 03d1 7c4e f3ee c43f f9bf 5f12 9786 c3bf
00000080: a5cb f55c a9d9 c2bf c853 2f22 5645 b8bf
00000090: 2f2e 56a2 8290 ccbf 1cc7 d69d 10ec c1bf
000000a0: 302d 0198 d8c8 c03f

linear.bias f8 [1]
0.0480549763101047
00000000: b1eb 526f a99a a83f
