Thesis-codes/Exp-1/results-archive/archive(without scheduler)/results-5/ew3/save_model/1/GRU_best_train_82.pth (torch, 5143 bytes, 6 tensors)

gru.weight_ih_l0 f8 [30, 1]
0	0xbfa9c5de8f5d9b89	-0.05033774852818513
1	0x3fdf33d3cf9ad9df	0.48753829263605825
2	0x3fdffae98bc6d85e	0.4996894707686631
3	0x3fd560bdbfeb49ab	0.33402961485003385
4	0xbfd6b4e6b3ce8ef3	-0.3547913318563893
5	0x3fe3743d07cecd2b	0.6079392578598449
6	0xbfdd9db42cec4812	-0.46275047671326874
7	0x3fbda4b05c63b743	0.11579420333484074
8	0xbf9fc961978ba8f1	-0.031041645884138217
9	0xbfe08a04d8af1d64	-0.516848014079113
10	0xbfe0886ed7bf9f1e	-0.5166544164503397
11	0xbfd88fa33fa5ceb3	-0.38376694884866963
12	0x3fd27649d2c531e4	0.2884697492889059
13	0x3fafbfb0daf964ec	0.062009360056160506
14	0xbfe20388d2c25bc1	-0.5629314533606405
15	0xbfdbeca32c1e48d1	-0.436318200191761
16	0xbfe350d293e15fa1	-0.603616036251868
17	0xbfba06f97d9f30ec	-0.10166892353953799
18	0xbfe476d45b31566f	-0.6395055562122262
19	0xbfd34a280ebb754b	-0.301401152026149
20	0xbfd4702918fb282c	-0.3193457359271885
21	0xbfc94fcc69863326	-0.19774775650548654
22	0x3fb24f096c86ad6d	0.07151850604593842
23	0xbfd55b70e17908d8	-0.3337061120875098
24	0x3fe2df49fb4d34cd	0.5897569568857307
25	0x3fdb79f91aca52ed	0.4293196450828834
26	0xbfdb1853c0ec274f	-0.42335981216512136
27	0x3fbf2455cf0745bd	0.12164818100361337
28	0x3fdd10ecde685634	0.45415803641785435
29	0xbfd8d2b76d1ac093	-0.3878611150239603

gru.weight_hh_l0 f8 [30, 10]
0	0x3fd4511ce665b9ea	0.31745073795073486
1	0xbfc1caeedf06b444	-0.13900552644682496
2	0x3fc356daad0cd342	0.15108807992660372
3	0xbfc2be7a5607e22b	-0.14643792343828585
4	0xbf78688a1e77affb	-0.005959071662328337
5	0xbfd357f9e859cbb0	-0.3022446412134583
6	0x3fd05877fce8448f	0.25539970109918725
7	0x3fb5569bbbba8392	0.083352788288279
8	0xbfbd375f1bcc470c	-0.11412615231190787
9	0x3fa131772c6cfc78	0.033580516980230735
10	0xbfb0de601e7ceff6	-0.0658931803163226
11	0x3fcbaf977746f928	0.21629613231738998
12	0x3fa1957859116b97	0.03434349143272824
13	0xbfe117e04f82c799	-0.5341645768114517
14	0x3fcc6ef2c81b8c27	0.2221358754241873
15	0xbfcbc55d99f0ab36	-0.21696062103850416
16	0xbfd4b4b61421e4d9	-0.3235297390561534
17	0xbfb4237b89560e3d	-0.07866642096456018
18	0x3fc68ab5c9aa266f	0.17610809657007873
19	0xbfcd058b30bcef36	-0.22673168067728405
20	0x3fcd4002773fa82c	0.22851591894806356
21	0xbfb20b7246219ae3	-0.07048715793790054
22	0x3fb74b66fa3be78a	0.09099429711559828
23	0x3fc1e2a28582075a	0.1397288467306293
24	0x3fc931d0519d5b7d	0.19683269486514723
25	0x3fbe024b3c182462	0.1172225019182789
26	0x3f94da14919035da	0.0203631605000306
27	0x3fcc1bc53d02d41d	0.21959748724990016
28	0xbfd0aa3d6fd56126	-0.260390624248901
29	0xbfbef2017cacb83a	-0.12088021558585718
30	0xbfb9ad927922f075	-0.10030475099023468
31	0xbfdde3b1dbb7bebb	-0.4670223851853554
32	0x3fa19e4c6f15f287	0.0344108472445202
33	0xbfc736a8baf637ff	-0.18135556344026324
34	0xbfd0f160e34ac56f	-0.2647325725220843
35	0x3f7bf6ebe68f4c9b	0.006827279555142197
36	0xbfdb82c5a8bcade6	-0.4298566959211868
37	0x3fbeb610e4f0d434	0.11996560658811078
38	0x3fc7cbbbeea9f85c	0.18590497163308128
39	0xbf9e9a1684c273eb	-0.029884673932077204
40	0x3fd10422ae385e09	0.26587740911188057
41	0x3fba5bb5d10511ba	0.10296188691160682
42	0x3fb7f6d35d3edc90	0.09361001039984473
43	0xbf832978385e7a78	-0.009356440754172399
44	0xbfc4f57f6fb95d93	-0.16374199824597876
45	0x3fda30dcac8a77ce	0.4092323002786288
46	0xbfb44f05a3a661c2	-0.07933078046187972
47	0xbfb799a8ca09ef71	-0.0921884053477109
48	0x3fd2cf821e113d04	0.29391529976142317
49	0xbfc4f68b417a4af9	-0.16377392480043065
50	0x3fa88ce05c9ef100	0.047949801737077635
51	0xbfd17ac7d60363bf	-0.2731189336751036
52	0xbfb3e5ba5ac04081	-0.0777241202888508
53	0xbfe1f323b1756a63	-0.5609301057805393
54	0xbf9fdec660f75cbe	-0.03112325636706425
55	0x3fc8cdf8ef8cd3f5	0.19378577896864582
56	0xbf618f2bce84c62b	-0.002143464622485399
57	0x3fad60c7befd1cb1	0.057378999771168344
58	0x3fd9aa876683064a	0.4010332585422459
59	0x3fb127e721937002	0.06701511926388551
60	0x3fd077b09fe0e47c	0.25730529416211545
61	0x3fc0d2b2283852e7	0.131429929388694
62	0x3fbd37b5e6854a83	0.1141313255114174
63	0xbfc137998df724e4	-0.1345092719259703
64	0xbfcfa1a179fd0c48	-0.24712007957905002
65	0x3fdb0a89773e08a2	0.42251812596090066
66	0xbfceb9156a381419	-0.24002330481030823
67	0xbfc77757a2213c83	-0.18332953850265107
68	0x3fd3d5f497d6f6f3	0.3099338038262964
69	0xbfd420de4f2d7fdd	-0.31450612766457003
70	0xbfa6dda1428050de	-0.04465965210707322
71	0xbfd5dfc0ada3f130	-0.34178177792616093
72	0x3fc34670693304d0	0.1505871308964175
73	0xbfd3680736fe3f19	-0.30322437639641603
74	0x3f9dcf3e6213e440	0.02911088441485199
75	0xbf6dd58bb81a3421	-0.0036418656243939617
76	0xbfcbfd3d6bb13b70	-0.2186657691804288
77	0x3fa5f13ba5f8490c	0.042856086740487326
78	0xbf626d9218f423bb	-0.002249513002997775
79	0x3fb832ddd80e1824	0.09452616238385808
80	0xbfbb6c1c0d432ecd	-0.1071183712367045
81	0xbfc5a31ee7ddb74f	-0.16904054948411804
82	0x3fcd20382f4dddb9	0.22754576024793297
83	0xbfd4565536133de5	-0.31776933937814383
84	0xbfbf053392a9ff4c	-0.12117311793008162
85	0x3fc80e693c97c0f0	0.18793979128486837
86	0xbfca4ef21a699ce3	-0.2055342320411234
87	0x3fa5ee231cbb4da4	0.04283246732452575
88	0x3fd190aecd0c3fa6	0.2744557382984517
89	0xbfd7d5036ba055da	-0.3723763037717994
90	0xbfa3697227d35f05	-0.03791386352685148
91	0xbfd6f826b3f47857	-0.3588959462521237
92	0x3fbd61bcf41ec203	0.11477261505093143
93	0x3fd471e3a1d2ed1e	0.31945124438398576
94	0x3f9f72f98211ad36	0.03071203094843363
95	0x3fd3953b28c4032c	0.3059833429434089
96	0x3fc95592fe4c6796	0.1979240171138456
97	0xbfb098c846dfac84	-0.06483127336803035
98	0xbf77a0652dd45a1e	-0.005768199186852145
99	0xbfa6ab3ee9598223	-0.044275251374305456
100	0xbfe5a6cb60c04925	-0.6766106500311123
101	0x3fe345dcea2a956c	0.6022781919061067
102	0x3fe087b1c2c6f9d7	0.5165642551654014
103	0x3fe53112a40460a9	0.6622403338870032
104	0x3fd5d4589e6113a6	0.3410855814620909
105	0xbfe33c8db9fe4197	-0.6011417992286167
106	0x3fe24ef4c2f11158	0.5721381957487592
107	0xbfe4985a864c0a27	-0.6435978529919496
108	0xbfd8fd7b0ba59ece	-0.39047123086355107
109	0x3fa4cb64ef46d6f5	0.04061427517755859
110	0xbfbce45d3efa8240	-0.11285956180155043
111	0x3fd7420d08411bf4	0.3634064274414748
112	0x3fb279d0f2a5ebba	0.07217126773859564
113	0x3fd00168528b8e80	0.2500859075646318
114	0x3fd9f16619a8b47e	0.4053588152481281
115	0x3fb6d17e29c117d2	0.0891341068209777
116	0x3fbdaa14757fafc3	0.11587646359083607
117	0xbfd1f05e222d840c	-0.28029588067698863
118	0x3fb62d619716e11b	0.08662996233659152
119	0x3fb7ed73ca1a6a8c	0.09346698459777708
120	0x3fcd319e04541432	0.22807669841145778
121	0xbfc51477ed06672e	-0.1646871478413287
122	0xbfbc2c508f26d04c	-0.11005118842041489
123	0xbfc7e0b61afe634d	-0.1865451461606206
124	0x3fc5598641df85f2	0.16679456917249486
125	0x3fc91a7de6db0be5	0.19612096569298312
126	0xbfd5f8730c05d0bb	-0.3432891480836237
127	0x3fb54886584f2db0	0.08313789039600894
128	0x3fdc04cf17fb175d	0.43779351560475793
129	0x3fc3d087919c4e04	0.1548013173092927
130	0xbfc7864ea1067a94	-0.18378622877658712
131	0x3fe29e6b6f9ad339	0.5818383388310401
132	0x3fd7aecac051a100	0.3700434568513771
133	0x3fa96e3acd77fac5	0.04966911085283735
134	0x3fd1c28ee74d75c4	0.2774998911680451
135	0xbfd0cecfc774f0ec	-0.2626227805919956
136	0x3fd55a1261142d85	0.33362254600862
137	0xbfe30f43da8eee98	-0.5956134098737094
138	0xbfb1607bef172801	-0.0678784807888917
139	0x3fc56ded9c98af7c	0.16741724153814264
140	0xbfe3fb975f36d50b	-0.6244618281986346
141	0x3fc8995903b5d7ee	0.19217980080765024
142	0x3fe68f6d1bbb7aaf	0.7050080815932541
143	0x3fd2f6e6a76813ca	0.29631964062019434
144	0x3fe079e6b67d9028	0.5148805202738957
145	0xbfc674af30c3fead	-0.1754359233964257
146	0x3fe1eb8d862805b3	0.5600040073624569
147	0xbfc8f227a51db691	-0.1948899799567028
148	0xbfe2443c4065119a	-0.5708295114241537
149	0x3fd7b698be1a0d4a	0.3705198151075889
150	0xbfd5998835981ac8	-0.33749585374645763
151	0x3fd314ed3b508563	0.2981522635692128
152	0x3fc899f8c45ce076	0.19219884479548782
153	0x3fc8f27625ffc3a5	0.19489933829711706
154	0x3fcc4dd3d2bbac35	0.22112510480596517
155	0xbfe1e11edde461a0	-0.5587305387335171
156	0x3fdf998cc347da05	0.493746939376621
157	0xbfe4f8f9600f0091	-0.6553923488754824
158	0xbfd036c5ca8242d3	-0.25334305549862995
159	0xbfb3882930826f60	-0.07629640039743668
160	0xbfbfd5c8da8e0a9f	-0.12435584388553388
161	0x3fe1bf5141e685e2	0.5546041762465246
162	0x3fe2a29ac2386bdc	0.5823491853110414
163	0x3fc94fd63fc350b6	0.1977489291517764
164	0x3fc5066660f2f7fd	0.16425780996172526
165	0xbfe1751abcca9729	-0.545544975979941
166	0x3fd63c2e638e1810	0.3474231693475085
167	0xbfe3d69b55249414	-0.6199471152255023
168	0xbfe5d06444df9bbc	-0.6816884370026552
169	0x3fcc7cc65d67ef78	0.2225578266223882
170	0x3fccc91c04b5fd2d	0.22488737325691358
171	0xbfbbc4a9d7d3d1a3	-0.10846959609245359
172	0xbfdda765ecf3e490	-0.4633421720496438
173	0x3fcc30d69209f524	0.22024042254262455
174	0xbfd8b032e249179a	-0.3857543191737648
175	0x3fb91b8f0b350812	0.09807676337825935
176	0xbfc2fe2b2e97e8b4	-0.14838161253994075
177	0x3fd148ad26cbf569	0.2700608137964396
178	0x3fc87631e9378f70	0.19110702407408153
179	0x3fc23c90f2b239df	0.14247333383941815
180	0xbfc6ff1e3fb4c0ac	-0.17966058836600973
181	0x3fd8d244279e052c	0.38783363217233346
182	0x3fe0e8c05ba6ebea	0.5284120359495976
183	0x3fe0245de0a0d7f6	0.5044392955085175
184	0x3fe37a3d6d4227e4	0.6086718687013186
185	0xbfe1c032a835e4ff	-0.5547116551744294
186	0x3fe4a07139970da2	0.6445852398687075
187	0xbfccffeae41ac6e2	-0.22655998361511026
188	0xbfe7b1ff5dd14c11	-0.7404782135366778
189	0xbfb16de369e66c53	-0.06808301291896272
190	0xbfcf0af28c599dfd	-0.24252158978491414
191	0x3fe2499f8a4d4bc3	0.5714872075280869
192	0x3fe1f37b2e925250	0.5609718236542651
193	0x3fe488d9e2ecccf8	0.6417054588440854
194	0x3fe4764e286da2b9	0.63944156547685
195	0xbfdfb0ac38f0dc11	-0.4951582485259119
196	0x3fd214846b542723	0.2825022743351033
197	0xbfdc66afa6bd92e7	-0.44376746447805576
198	0xbfd9594aa77f09b9	-0.39607492787413495
199	0x3fe06844511c3b60	0.5127278885064293
200	0x3f98e5c8d85a0675	0.024314058499391018
201	0xbfcfbc399fa2bdf7	-0.24793167395317514
202	0x3fc7d4c2bd282b39	0.18618044124772284
203	0x3fd218a379f9d18f	0.2827538195772598
204	0xbfd33e02e64dd87f	-0.3006598710120513
205	0xbfb9b002f03d42be	-0.10034197201936032
206	0xbfc0721db788e2be	-0.1284825464406562
207	0x3fd451ea524104a9	0.31749971420874573
208	0xbfd4f1c227dfa1b9	-0.3272557629957436
209	0xbfd0017c7ab07848	-0.25009071332340627
210	0x3fa152437cfa3a62	0.03383074665645293
211	0x3f849c4795ebf022	0.010063704741234917
212	0x3fd41a888db17e31	0.31411947095145637
213	0x3fe2bd2fe5e8b220	0.5855941286477595
214	0x3fa78ceb6c256b42	0.045997006370007046
215	0xbfc39e974455b364	-0.15327730976732845
216	0x3fdd575ea1ade306	0.4584576205157166
217	0x3f96c223923f25f7	0.02222495632284979
218	0xbfd6cbae74f1b77b	-0.35618173046429263
219	0x3fbff275495ab184	0.12479336777568589
220	0xbfd9bfc9783be701	-0.4023307489547819
221	0xbfcc1b00ec6098be	-0.21957408468114709
222	0x3fd373bfa5f0a87e	0.30393973546109254
223	0x3fd211cfd866c266	0.28233715184163655
224	0x3fcaca2c7c720d38	0.20929485393944858
225	0x3fc8a29defabcffc	0.19246267512028215
226	0x3fca1fd09137557c	0.20409590807564004
227	0x3facb18a3b32ca9e	0.05604202244412203
228	0x3f8a6b907245a9ab	0.012900475013073306
229	0x3fbe9bd6187712f3	0.11956537339490207
230	0xbfa146d6f400f00b	-0.033743588719943395
231	0xbfc7a332b96458ff	-0.184667912028722
232	0x3fc84c839f1ca12d	0.18983502644665276
233	0x3fbec5274ab6ec08	0.12019582342229296
234	0x3fc493896416fae0	0.16075246226497253
235	0x3fd0e59489b68c33	0.26401246498625425
236	0xbfbb974a3d5f76c5	-0.10777725218164409
237	0x3fc7a54fc18d938d	0.18473240805465388
238	0x3fc7b99d4533f809	0.18535200003674415
239	0xbfdee4df7e926dbf	-0.48271930084748854
240	0xbfb1c0dfeccd45f4	-0.06934928447051175
241	0x3fca41111f799621	0.20511068379271172
242	0xbfb02df2ace8d3cd	-0.06320111009047409
243	0xbfc0403dd009f261	-0.12696049364230347
244	0x3fbacb30d7016b39	0.10466294526251553
245	0xbfd35ae901fb43a2	-0.30242371743684704
246	0x3fa99dc646bea40a	0.05003184903700493
247	0xbfc4eff6051fb50e	-0.16357302904308607
248	0x3fd1ed090c47b9ea	0.2800924892352713
249	0x3fd6185d50705144	0.3452370915922709
250	0xbfb0444ffc720dee	-0.06354236520024134
251	0x3fa06e3ef3fdb876	0.03209110954672749
252	0xbfafcfc69d302cf3	-0.06213207882691476
253	0xbfd825595188fb85	-0.377279595970258
254	0x3fdd30516e0209b1	0.4560741018578041
255	0x3fc19af694d573bd	0.13754160182261713

gru.bias_ih_l0 f8 [30]
0	0xbfc514860e161b98	-0.16468883216677166
1	0x3fd7327e102c8b21	0.3624568136166762
2	0x3fb4252e6902fcc5	0.07869234145890676
3	0xbfc0438aa33df6d6	-0.12706120463183507
4	0x3fc0244c6720e11d	0.12610774074142564
5	0xbf950ecd1e2dbd27	-0.020564274756393133
6	0xbf981cd147c4ec69	-0.023547430043646154
7	0x3fcdf342b013db58	0.23398622128999125
8	0x3fd34fb5518c68c2	0.30174000705450166
9	0xbfabab26e55d4138	-0.054040160654610536
10	0xbfe49210c5d10521	-0.6428302634814466
11	0xbfd850eab4a026b8	-0.37993877066820003
12	0xbfbfbde860ea2b54	-0.12399151197511787
13	0xbf9bffa509899b14	-0.02734239454948824
14	0xbfcc688880a8ae0d	-0.2219401004998506
15	0xbfd6e738416b781e	-0.35786253346111774
16	0xbfbfadd5a039d044	-0.12374625360263375
17	0x3fd795771c3916d8	0.3684976363768846
18	0xbfe0d8ed37fc7ca2	-0.526480302189061
19	0xbfc845ddb1369ff4	-0.18963214066502554
20	0x3fd33fde165adfb0	0.30077316458800407
21	0xbfd2dfda95246198	-0.2949129539934119
22	0xbfd1f6603824f303	-0.28066258890957857
23	0xbfa3487339ae1563	-0.03766212538816196
24	0xbfd1ab301aa694dd	-0.27607348063095377
25	0x3fc37ba49770751e	0.1522107829522747
26	0xbfd28ad9117c951c	-0.28972460467987715
27	0xbf64e6d7eb48ae79	-0.002551480977009576
28	0xbfa5cc1a27c66fc1	-0.04257280097519312
29	0xbfcac9acb4284400	-0.2092796210932022

gru.bias_hh_l0 f8 [30]
0	0xbf93398d70b0dc5a	-0.018774232867340458
1	0xbfc5091ddfa6ea5c	-0.1643407194186065
2	0xbf95242a5bf40d66	-0.020645772802720862
3	0x3fced4921cc208fa	0.24086214451023819
4	0xbfcfe83bd8df1e92	-0.2492747124617734
5	0x3fd253a3ae1d23fc	0.2863549423532843
6	0xbfb6a63d51f13b12	-0.08847411394638652
7	0xbfc9e0b98fec249e	-0.20217055823767266
8	0x3fcd83862318d1e2	0.2305762931224669
9	0x3f99112135457dee	0.024479407192641682
10	0xbfe514be35d10530	-0.6587821055510741
11	0xbfd8a00b14a026ba	-0.38476826681344856
12	0x3fd42f0d07c5754c	0.31537175902288506
13	0xbfdbb72a809899ae	-0.4330545669385185
14	0xbfc35f8c80a8add8	-0.15135341913388234
15	0xbfd577f1816b7814	-0.33544576300289575
16	0xbfe23da9740739d7	-0.5700270906616492
17	0x3fa38cbf61c8b720	0.03818319386151203
18	0xbfe259d8effc7c98	-0.573467701647945
19	0xbfd4cf32189b5011	-0.3251462211894714
20	0xbfc2b49b45e567bd	-0.14613667405029487
21	0xbfd22cc0226d752e	-0.28398135530535995
22	0xbf9cf4940726e8c1	-0.028276741920969743
23	0xbfc7eae3fcef693b	-0.1868557915721086
24	0xbfd25b3369a2d5f9	-0.2868164569475478
25	0x3fc736d0507121c6	0.18136028220966532
26	0x3fb217bed028b212	0.07067482549673113
27	0x3fd418c27f6f1685	0.31401121563644835
28	0xbfbe7ae56c1c6e0e	-0.11906274690084492
29	0x3fd9ba4b674a09a1	0.40199551665150507

fc.weight f8 [1, 10]
0	0xbfcfafc55da5ef28	-0.24755160401024878
1	0xbfd049b0b0e1ccc9	-0.2544976928104004
2	0xbfcf3077fbcf1f1e	-0.24366664691319156
3	0xbfcc1a29e5f6da62	-0.21954845169757947
4	0x3fd27a282411fc2b	0.2887058593987059
5	0x3fc8988de0326669	0.19215558478463216
6	0xbfd28017fe9f4d80	-0.28906822076279326
7	0xbfbb6e45e83818fb	-0.10715138358509428
8	0x3fe3c0791a5d471b	0.6172452464036015
9	0xbfdc981a7758300d	-0.446783653781268

fc.bias f8 [1]
0	0x3fb442567c609994	0.07913723503643261
