Thesis-codes/Exp-1/results-archive/archive(without scheduler)/results-5/ew3/save_model/1/RNN_best_train_0.pth (torch, 3159 bytes, 6 tensors)

rnn.weight_ih_l0 f8 [10, 1]
000000 0e de 2e b7 a8 f0 d1 3f d1 43 4e db 04 78 b2 3f
       0.28031366242382283 0.07214384416717158
000010 f5 70 7f a6 05 e9 74 3f 7c 86 85 31 64 8c c0 3f
       0.005105039665036272 0.12928440492673932
000020 aa 1f a2 ce f7 ef b2 3f a3 ad 11 93 b5 9a d1 3f
       0.07397412104376025 0.275067704794049
000030 7a 98 8a 54 2f da b3 3f b5 4d 01 c8 b7 03 c4 bf
       0.07754798711775548 -0.15636346116899139
000040 19 29 e5 ed 43 d1 c5 bf b0 f3 45 fb 2f a7 c6 bf
       -0.17044877162909058 -0.17697715539170877

rnn.weight_hh_l0 f8 [10, 10]
000000 e5 cc a9 08 23 d2 d0 bf 45 44 01 34 70 12 b5 bf
       -0.2628257355310793 -0.08231259603168535
000010 8d 07 0c ab 26 1b c0 3f a3 a2 54 23 b5 aa bd bf
       0.12582858421233958 -0.11588604080737723
000020 2d b5 3b 16 7c 38 c2 3f ab b2 c5 05 0d 0e b5 bf
       0.14234877668006032 -0.08224564925121551
000030 cb c2 d4 3b a1 24 d1 3f a8 4f cf b9 06 bc a5 bf
       0.26786070673828694 -0.042450151616918064
000040 12 b9 33 7a 48 44 cd bf 07 32 5f 48 50 d2 bb 3f
       -0.22864633528610817 0.1086778809250931
000050 47 62 99 6f 48 1c d1 3f 4c 06 07 f7 07 20 d0 bf
       0.26735125444750846 -0.251955023992285
000060 95 69 da 5f a9 cd b5 bf 87 5b 99 fe 7a c5 d3 bf
       -0.08516939726033564 -0.3089282499617458
000070 d2 c1 20 c5 d8 cd c5 3f f4 69 01 90 ea 87 a6 3f
       0.1703444445170264 0.04400570876960677
000080 92 93 fb 3f e5 a7 b4 3f 5f 9f 63 4d 51 77 c3 bf
       0.08068688213422906 -0.1520787837864601
000090 25 d4 40 ef da c8 d2 bf ef 28 f1 0b ba 8c c9 bf
       -0.2935092293221849 -0.1996071394262979
0000a0 9f bb c2 7f bf ca cd bf 9b d3 2d 9d ee e4 cc bf
       -0.23274987924875476 -0.22573645281559326
0000b0 1a 6b f2 0d 57 70 c8 bf 45 df 5a 95 08 4d d3 bf
       -0.1909283464527441 -0.3015767534775374
0000c0 4e 40 6b 11 e2 c5 cc 3f 54 c4 70 ca 5b d6 bc 3f
       0.22478891230139414 0.11264585201640048
0000d0 24 3b bb f0 33 2f c5 bf 8d ab e6 83 7d 14 d0 3f
       -0.16550301794492228 0.251250628289818
0000e0 ad be 3e 1f 08 ac ba bf f7 5e 96 7a 2a 03 d1 bf
       -0.10418749583072424 -0.2658182332174727
0000f0 56 20 0d 44 37 d3 d0 3f 9f c1 de 78 e4 7a a9 3f
       0.2628915943682889 0.049765720133453366
000100 fb 4a c9 52 98 07 d2 bf 61 d5 d3 18 7a 5c 8a 3f
       -0.28171356281852383 0.012871698267626188
000110 35 89 70 71 ed 1f b6 bf c1 5c e8 09 c3 4f bb 3f
       -0.08642467517396286 0.10668581954847679
000120 98 ac 11 28 8e 2f c8 bf 70 f5 8c 6d 19 16 9a 3f
       -0.18895127254959188 0.025474927245558943
000130 f2 ff 58 3e 3c c4 a4 3f 2a 99 40 99 07 c6 d1 bf
       0.04055965672569063 -0.27771177259491486
000140 aa 5a 47 90 eb ec cf bf 8b 9c 44 10 61 a5 a1 bf
       -0.24941772980556226 -0.0344648678167739
000150 6d 68 f4 5c 2d b5 ba 3f ac 2c cd f2 3c a8 ad bf
       0.10432704467203431 -0.057924179686403704
000160 2d f8 8c 8e 3e 16 d3 bf e7 ef de 9b 7b 26 aa bf
       -0.2982326881500537 -0.051074850823596134
000170 45 80 92 62 a7 ca d0 bf 50 57 b5 84 2b 8c a2 3f
       -0.26236900926779 0.03622566218352452
000180 22 68 b9 aa 77 a4 1e bf d9 f6 dc 7e 02 42 c9 3f
       -0.00011689167393438883 0.19732695765008293
000190 89 e5 f7 67 ba 53 c9 bf 14 05 5b fe 8c 2e 86 3f
       -0.19786768032626537 0.010830976021113638
0001a0 48 9e ae 35 6a cf b6 bf 82 e9 d6 30 5a 6c c8 bf
       -0.08910239992712221 -0.19080665001622427
0001b0 c0 66 f6 46 b6 75 aa bf ff 1e 51 8c 75 2c c7 3f
       -0.05167932144395371 0.18104428626451605
0001c0 26 6c 15 fa 8d 2b d1 3f 8a 17 2c 53 bf b6 cc bf
       0.2682833616469814 -0.22432700692314383
0001d0 d4 34 9b 90 5c 09 d2 3f e9 ac 5c ab d5 72 c4 3f
       0.28182138559061554 0.15975447528158007
0001e0 ae f5 5d de f9 10 b7 bf 3f f2 23 65 11 a0 9f 3f
       -0.0901027839554078 0.030884048269387284
0001f0 7a 70 19 bd 70 29 cc bf 5f 10 c4 77 e9 55 d4 bf
       -0.22001466019981192 -0.31774365135084354
000200 24 41 53 49 4f 4e 9b bf 78 92 91 b9 ad 47 cd 3f
       -0.026665915346542182 0.22874995766609962
000210 58 38 6f c0 84 12 d3 bf 49 f6 85 f6 51 07 cd bf
       -0.2980052832834921 -0.22678589379568084
000220 89 7e b1 25 f4 ea a4 3f d2 54 3e 1b 6d 4b ce 3f
       0.04085505447505706 0.23667682485817082
000230 39 f4 4a 50 f4 9d c1 3f 85 ee 85 6d eb 65 d3 3f
       0.1376328842215189 0.30309568114874025
000240 d8 72 ea 25 56 c5 b1 bf d4 a7 97 29 05 24 c6 bf
       -0.06941736627272677 -0.17297424822692042
000250 15 b6 89 cb ba 55 d3 3f 73 95 09 71 86 5f cc bf
       0.3021075236964362 -0.22166519660383308
000260 5d 6d df ea b3 19 ce bf 1d ee a6 70 af 5f ca bf
       -0.23515938728710753 -0.2060450840052547
000270 99 47 f1 50 bf f6 b2 bf 64 69 b4 2d e6 b2 c8 bf
       -0.07407756544242118 -0.19295956832577155
000280 19 66 4a 57 d0 1f bc 3f 8f 8c 4b b2 cc b0 d2 3f
       0.10986044055098211 0.29204099094040087
000290 9f 40 e5 a9 5f 1f d4 bf e3 00 a6 f1 07 20 d1 3f
       -0.3144148978362952 0.2675800189827113
0002a0 e3 92 07 89 2b c9 b1 bf 83 4b 96 ce a3 34 b7 3f
       -0.06947586150597433 0.09064697068815346
0002b0 1b 18 c8 21 fd bf a5 bf ea 20 32 35 92 34 a0 3f
       -0.04248038327573075 0.031651085847501495
0002c0 3a 18 25 af 0f 14 c2 3f f3 7b b9 39 94 b6 a9 3f
       0.1412372212600433 0.05022109226842266
0002d0 e1 60 66 1f 67 1f cb 3f 2c aa 0b a3 c4 f6 c4 3f
       0.21189583810042392 0.1637807651635098
0002e0 a5 57 0f c9 fb 0f d3 bf 87 99 c1 f8 a4 7f ce 3f
       -0.2978505576587572 0.2382703985815164
0002f0 21 f6 93 87 d1 07 c2 3f a5 33 8d 11 98 38 c6 3f
       0.1408636009218052 0.17360211236009807
000300 08 07 19 22 d1 81 d0 bf 2b f3 70 f6 e8 f7 c7 bf
       -0.25792339639529915 -0.18725311311018208
000310 8e 55 b3 73 fc da ca 3f 0c 99 4b 69 c6 92 cf bf
       0.20980792664947184 -0.2466667188775279

rnn.bias_ih_l0 f8 [10]
000000 9e 39 c1 66 c1 af d1 bf 9e 06 f3 d0 ca 6e a6 bf
       -0.2763522628273679 -0.043814027792462115
000010 4b bc 1f fd 37 00 b2 bf 01 aa f9 ca f0 91 c9 bf
       -0.07031583719047878 -0.19976625357533354
000020 5b fc 9b f7 6e 12 c9 bf 8c b2 54 e9 de 9a b8 3f
       -0.195875044730175 0.09611314007333699
000030 30 1f 45 d6 78 58 b2 bf b3 95 d4 2f 40 bf c9 bf
       -0.07166247588349672 -0.20114900908917618
000040 91 c4 1d db 57 c3 cc 3f 2e 37 ba 2a 4a 7e cb bf
       0.22471140097653522 -0.21479155622767493

rnn.bias_hh_l0 f8 [10]
000000 c8 8c 7d 32 7e 11 cc 3f 9f c1 3c 14 fe c8 c5 bf
       0.21928384271004675 -0.17019630420828677
000010 4b bc 1f 3d 29 13 b5 bf ff 55 06 b5 dc 89 cf 3f
       -0.08232362501415584 0.24639471854304415
000020 a5 03 64 28 b3 ef cc 3f c5 a6 55 eb a8 cb c4 bf
       0.22606505844308092 -0.16246520510622112
000030 30 1f 45 16 50 ba b8 bf 3b a9 ad 40 bc c3 aa 3f
       -0.09659290832234713 0.05227459229975514
000040 6f 3b e2 e4 0d b4 c8 bf 2e 37 ba 6a 14 b5 cc bf
       -0.19299482036555157 -0.22427611552523657

fc.weight f8 [1, 10]
000000 96 b7 b8 c8 40 ed b3 bf e5 b3 74 12 f6 f4 ca bf
       -0.07783894443920611 -0.21060062314191366
000010 f0 3d 29 43 0b 6c c5 bf b9 02 c8 78 84 4b d1 3f
       -0.16735974101400997 0.2702342204575348
000020 7e dd df 11 c3 67 bd 3f a1 9e 10 e2 39 ea bd bf
       0.11486453234089386 -0.11685525674021814
000030 f7 2d 38 b1 d0 12 b8 bf 5f b6 2f 35 6c 18 d2 3f
       -0.09403709723135721 0.2827406424902161
000040 90 b0 d4 83 05 57 c3 3f 42 20 bd 92 0a a3 d1 3f
       0.1510931867318317 0.2755762513156733

fc.bias f8 [1]
000000 4a 4d 9a 9c f9 fe bd 3f
       0.11717186044034125
