Thesis-codes/Exp-1/results-archive/results-1/sg7/save_model/4/GRU_best_train_1.pth (torch, 5143 bytes, 6 tensors)

gru.weight_ih_l0 f8 [30, 1]
000000 c0 f5 5f a7 a9 b8 ca 3f e7 8b 0c 35 64 2a cd bf
       0.20876045868491921 -0.22785618391307524
000010 de 79 a1 41 5d 51 c0 bf ec 06 ad 92 12 70 d0 bf
       -0.1274830408537601 -0.2568403656369884
000020 eb c9 f8 22 1e a6 c3 3f 68 1c 01 21 0a 23 a5 3f
       0.15350701053246438 0.041282955674028454
000030 09 b1 43 c5 b5 96 c9 3f 7d 5f f3 d7 a1 ca 98 bf
       0.1999118054585625 -0.02421048050459217
000040 7d 28 d1 70 31 22 bf bf ca 97 ce 87 fe 5d b9 3f
       -0.12161549572297932 0.09909048858261751
000050 06 eb 4b bd 58 bb a6 3f f3 b1 47 c2 9d bb 6b 3f
       0.04439809141873323 0.0033853608349458885
000060 43 ba ee ba 06 16 c2 3f 33 bb 09 6c c2 11 c5 bf
       0.1412971890217297 -0.16460447573941792
000070 dc 87 44 04 0d 78 b5 3f 4d 33 19 6a f2 97 c7 3f
       0.08386308054153296 0.184324552350882
000080 1d 9b 3e f1 87 c4 76 bf b4 de c1 3c 04 d2 b4 bf
       -0.005558520340776221 -0.0813295982678664
000090 f1 40 2d 9a 98 ce d2 bf a8 a7 0f 44 56 3f c2 bf
       -0.29385962539983185 -0.14255789111422001
0000a0 06 d1 df e4 79 9b c0 3f 5a de 42 e8 d6 1e d0 3f
       0.129744755511304 0.25188229257353145
0000b0 f5 1e a9 d8 a1 7d d0 3f cc c2 f6 be ed 5a d1 bf
       0.2576679817034198 -0.27117484711474726
0000c0 5e 73 a0 17 1f 7f cd bf e2 62 c1 5c 64 bb d2 3f
       -0.23044193891191872 0.29268750246187214
0000d0 aa f7 1e 28 c3 04 cb 3f 9c 9b 5f c7 2b 81 c5 3f
       0.21108283480674334 0.16800448641808152
0000e0 5c 77 d6 b3 f5 5b b0 bf bb 26 ca 7e aa a0 8f bf
       -0.0639031948143986 -0.015443164820016056

gru.weight_hh_l0 f8 [30, 10]
000000 f6 64 a9 19 3e e4 c9 3f f7 d3 e8 a0 6e de ce bf
       0.2022779107381109 -0.2411630902949182
000010 98 c6 c6 18 ab f0 c5 3f 78 86 8e 1d 4f 4f c9 3f
       0.17140711507595507 0.1977328199691788
000020 f8 7a b2 88 1b c4 d0 3f a2 6a fd 73 34 cb b8 3f
       0.2619694552358136 0.09685066062722084
000030 9d 5f a9 2a 5c 73 c9 bf 98 75 c6 89 ff c1 a7 3f
       -0.19883300860487632 0.04640196377588807
000040 dd b5 64 37 98 fc b8 3f 2c ee 94 ea 11 21 cf bf
       0.09760428764703684 -0.24319671587169134
000050 a9 5c 90 b3 3b 48 b6 bf 27 d2 a1 dc ad 8f b8 bf
       -0.0870396912945234 -0.0959423698094005
000060 f4 b9 c6 d1 fa 0c c7 bf 0e 82 75 60 b1 26 b6 3f
       -0.18008361094457792 0.08652790646511496
000070 70 8e 1e 45 88 f1 c7 3f c8 1d 0c 8c 7c 82 a2 bf
       0.1870584809777145 -0.0361517830806935
000080 b4 e9 1a 92 07 18 d1 bf ae e1 00 98 78 44 c1 bf
       -0.2670916487510582 -0.13490207120936532
000090 3a f2 94 05 03 13 b4 bf 63 c6 e0 f0 43 53 b0 3f
       -0.07841509710574082 0.06377052908717355
0000a0 1c 70 e9 d5 43 36 bb bf c1 29 69 6b ae a4 a8 bf
       -0.10629676792581261 -0.048131418811482536
0000b0 1a dd 35 8d 21 b9 d0 3f 23 b5 11 64 06 8e b2 3f
       0.2612995032317983 0.07247962897391295
0000c0 18 d7 56 5d 0b 3a ad 3f a8 2d c5 1e 9c eb d2 3f
       0.05708346857447405 0.2956304836740977
0000d0 61 51 0f 65 72 18 d2 bf 7a 4b 95 14 ae d8 c3 bf
       -0.28274211758732376 -0.1550500488761733
0000e0 ad 95 1b b1 bb a3 73 3f 91 1a cf 9d ac 43 be bf
       0.0047948199951170336 -0.11822012760885971
0000f0 f9 6b c9 ab 3f 92 c9 bf b9 b2 83 73 3c 6c d3 3f
       -0.1997756565859559 0.3034812095709572
000100 02 3d a3 8f d7 be c5 3f ce fd 63 41 cf 80 bc bf
       0.16988653672749626 -0.11134047838640201
000110 d1 34 d6 85 6d e5 b5 bf 3c d6 86 f4 06 ba d3 3f
       -0.08553204076288813 0.30822919730721643
000120 4c 17 84 19 98 29 b8 3f a4 47 d1 ef 2c 55 b3 3f
       0.09438467619847052 0.07551842551154536
000130 3d fa af 1e 12 f3 b7 3f 78 f9 15 df 9e 46 d2 3f
       0.09355271577076336 0.2855603388378749
000140 b7 e3 c8 af 85 97 d4 bf b0 e4 ef 41 bb a0 d0 bf
       -0.32174818197705285 -0.2598102706829861
000150 dc d3 60 96 58 b3 93 bf e9 41 7f f1 a5 45 a0 3f
       -0.019238838365897112 0.031781373719812774
000160 27 ad f8 8a e6 c6 cd bf 0a 1b c0 6c b4 6d b1 3f
       -0.23263246331894402 0.06808021216430063
000170 26 cf ce 1f 2c d8 cc 3f d4 bd 9a 3d 03 3c b6 3f
       0.22534705689542384 0.08685322050109018
000180 b7 28 f2 65 1a 89 9b 3f d9 ab e9 01 68 4b cc 3f
       0.02689019438961601 0.22105121701619515
000190 fa c4 10 ce fc e1 c5 3f 05 e5 d2 8a ab ac a7 3f
       0.17095909177582042 0.04623924321772147
0001a0 13 c9 74 8d 3f 6e c0 bf b5 8d a5 e4 98 a8 bc 3f
       -0.1283645096496647 0.11194758970446268
0001b0 51 9e c7 78 7e c1 99 bf 86 c8 c5 cf 14 07 be bf
       -0.025152183648883334 -0.1172955519921591
0001c0 82 6c 30 4c 70 ac c0 bf d6 e0 84 21 77 0f b6 3f
       -0.13026241035627 0.08617348259292909
0001d0 bd e4 a8 77 0f fd cb bf 41 2f 91 0d 30 04 ad bf
       -0.21866029112587695 -0.0566725746690211
0001e0 2b 4a 7c a7 ea cf c6 3f d1 b4 59 56 cd 91 d1 3f
       0.17822011163714654 0.2745240538850569
0001f0 30 43 53 5c 42 b9 94 3f b8 d4 bd 87 a9 e5 9d bf
       0.020237957844815913 -0.029196404371266665
000200 75 f5 9c 76 70 9f d2 bf 4d 33 cc 53 3c 0a ca 3f
       -0.290981403191686 0.20343736735994825
000210 fd e1 37 8f d0 ce c2 3f 68 07 b7 fd cc 36 b0 bf
       0.1469364833171908 -0.06333619302952587
000220 dc 4c be 9b 50 b9 cb 3f 17 28 b3 19 95 13 d2 bf
       0.2165928612199427 -0.2824452162718684
000230 1d 0c 66 81 26 24 cb bf 9c aa f0 81 e5 35 b8 bf
       -0.21204072302143198 -0.09457239553800395
000240 82 0c af 6d fd f1 cb bf a1 52 51 12 65 e4 88 3f
       -0.21832244735387368 0.012154378530035816
000250 a8 58 f0 fc 3a 3d d1 3f 65 d9 f8 6e 75 c1 cf 3f
       0.2693622083765015 0.2480913917403981
000260 cd 91 b9 31 09 50 bd 3f b1 2a 04 a3 ee 18 d1 3f
       0.11450250114427903 0.26714673919256443
000270 23 38 45 9c f3 15 b9 3f 26 81 74 73 b8 16 d3 3f
       0.0979912048835279 0.2982617499819916
000280 67 69 c7 42 94 0f d2 bf 2e b2 74 59 19 6d cc 3f
       -0.2822008754862026 0.22207943790398715
000290 12 5b 36 92 56 2e c1 bf 4d b7 c0 6b 4f 03 ca bf
       -0.13422662867807184 -0.20322602044455565
0002a0 ad fc 92 f8 67 16 ac 3f 47 03 23 53 16 e2 a0 3f
       0.0548584452567352 0.03297490849354872
0002b0 48 06 ea 4b 83 2a a1 bf d5 60 e8 9a 56 32 cc 3f
       -0.03352747251211646 0.2202862030396832
0002c0 81 a3 da 63 17 d2 ad 3f 3a 91 dd 50 19 05 c6 3f
       0.05824349492951964 0.1720306057787953
0002d0 91 3d a2 9c 3b 8d 85 3f 3a 92 7b ed 6d 59 a4 bf
       0.010523286550123941 -0.039744792213046456
0002e0 a5 ae 8a af 21 53 b9 bf f5 53 8c aa df df cb 3f
       -0.09892473731695846 0.21776958301111873
0002f0 e5 2d 23 96 33 e9 cc 3f 0d bb 16 00 84 b7 b2 3f
       0.22586674529007592 0.07311272623222127
000300 24 ea aa 96 cf ea 9b 3f 54 09 74 bb e4 c4 d1 3f
       0.027262919970533997 0.2776424246404947
000310 5e 47 50 a1 34 99 70 bf fd 08 cd 27 00 d6 ba bf
       -0.004052358232927348 -0.10482789012624845
000320 1c 21 82 0e 79 b2 c6 bf dd cf e4 45 f8 a9 c2 3f
       -0.17732155998624755 0.14581206715376896
000330 97 67 41 db a4 76 a2 3f 9b 13 ab 1a 51 eb ba 3f
       0.03606143166025715 0.10515314961510429
000340 0a f5 aa 36 87 94 8f 3f e3 09 60 22 aa e5 cc bf
       0.015420013767079261 -0.22575880697702563
000350 77 bf e0 a3 66 a4 aa bf e8 d7 5e 72 45 d7 c4 bf
       -0.05203552961790952 -0.16281955799575987
000360 86 62 1e bf 82 08 c9 3f d2 97 a1 f1 c8 24 c5 3f
       0.1955722268292172 0.16518508718871644
000370 32 e7 cc da bd 73 c8 3f 69 3c 90 fa 5a e3 89 bf
       0.1910321539269773 -0.012640677234257507
000380 7c 7c d2 9b 6f f5 9e bf d7 c0 40 01 c6 96 d3 3f
       -0.03023313892901712 0.30607748148305575
000390 6a 3f 96 e4 a3 c1 c7 3f 4f 8a 45 9a d3 18 ce bf
       0.18559693013639428 -0.23513264687342647
0003a0 33 d2 7a cf f8 2b a6 bf d3 3a 68 17 74 47 d2 3f
       -0.04330422909462008 0.28561117444853074
0003b0 73 31 dc 44 3e b4 d2 3f 83 f7 05 d3 d9 61 d3 bf
       0.2922511742078974 -0.30284734351868553
0003c0 64 69 d2 6c 79 3b d0 3f 0b 0c 4c 1d 9d c5 d1 bf
       0.2536300242151326 -0.27768638478318114
0003d0 33 04 b7 cd 83 ac 73 bf 94 23 30 77 a7 0f c1 3f
       -0.004803194863996873 0.13329022712448746
0003e0 52 16 ba b6 d9 ff ba bf 7b f1 2c a3 db 5e c3 3f
       -0.10546646796327622 0.1513323351627028
0003f0 fb 5f cc 8a 9b b0 a1 3f 81 e4 63 f6 c5 c6 d1 3f
       0.03455053395572346 0.2777571588663435
000400 bf a2 dd 31 7a ca c8 3f b3 39 cb 36 cb fd b2 3f
       0.1936791175351313 0.07418508613338907
000410 7d 0b f6 e2 c6 b8 c7 bf ec 9d 4d ea 2c 85 aa 3f
       -0.185326443501335 0.05179729805132269
000420 dd 8b 5c 20 0a ec c4 bf 1b e9 ed 78 1c 75 b4 3f
       -0.16345335559989752 0.07991197540642185
000430 ad ef dc 64 d8 0f c6 bf 32 c2 0e b1 69 99 9e bf
       -0.17235855984642737 -0.029882098609677672
000440 ba a6 11 cb 75 a3 98 bf 03 9f 52 c9 d3 d1 c8 3f
       -0.024061050910325156 0.19390342073642594
000450 4d ff 2b e6 e2 ee c8 3f 98 b4 20 f0 c0 b9 d3 bf
       0.19479023207531512 -0.3082125039098371
000460 a6 fa 96 6a c2 eb b2 bf 88 66 58 06 4c 65 c5 bf
       -0.07390990354813684 -0.16715383825139818
000470 8a 87 4c df 0d 30 bf 3f bb ae 2f cb 92 7b d3 bf
       0.12182699872621874 -0.30441732256324955
000480 4e a6 35 dc 85 15 d2 3f 36 8d 9a 91 49 a0 cc bf
       0.28256365303841313 -0.2236415825801516
000490 82 9c 81 17 4d 23 a4 bf 94 05 ef c0 92 0d 97 bf
       -0.03933182632391043 -0.022512715364205585
0004a0 42 66 7b 59 1c cd c4 3f 83 e1 b3 64 93 ab d4 bf
       0.16250948304404927 -0.3229721530365383
0004b0 fe d4 c6 0d 92 ec d1 3f d3 61 5e a0 37 d4 c1 3f
       0.2800641188180889 0.13928885775091135
0004c0 28 4c 2c ad 59 c3 b1 3f f5 6c 2d 00 72 eb c5 3f
       0.06938705900056219 0.1712477208010125
0004d0 3f 0c ba 80 b5 ba b6 3f 05 39 53 79 ec ff cf bf
       0.08878645317786125 -0.24999767231060602
0004e0 64 1d c0 43 72 4d b9 3f 59 67 b1 09 d3 82 d4 3f
       0.09883798746169742 0.3204848856599845
0004f0 23 aa f8 91 fa f7 c7 3f 69 72 ce 19 f8 7d 64 bf
       0.18725521209246762 -0.0025014730185389145
000500 4b 92 c7 b9 8b 76 d3 3f 01 c2 b9 d3 ba e7 a0 bf
       0.30411046164070815 -0.03301795801678865
000510 28 3e 8e 5b 07 8f c7 bf 87 fc 36 56 1f 4b b9 bf
       -0.18405239077081714 -0.09880252699712076
000520 62 c4 09 3c 14 cc c8 3f a6 c0 92 f9 8d 17 d1 3f
       0.19372799808073454 0.267062658046607
000530 d1 1a 25 fc 7b 0a c4 3f d8 1a 96 82 6e 21 b5 3f
       0.1565699559380023 0.08254137695449104
000540 1c 86 93 73 06 86 8c 3f 56 60 0f ac c4 0b c6 bf
       0.01392750778399248 -0.17223413850183772
000550 20 e8 ca f5 07 0b c8 bf 5b 8e 90 7e 99 8e d1 3f
       -0.18783664228050245 0.2743285881026389
000560 ee f8 91 80 bd 64 b4 3f d4 d7 ed 49 f1 5c d0 3f
       0.07966217411919604 0.2556727621043795
000570 bb d5 40 ae 33 2e d2 bf d4 f8 b0 27 87 37 cf bf
       -0.2840699388210301 -0.24388207853366473
000580 e7 93 fc ca 54 3f c6 bf eb 14 a4 ab 71 20 d1 bf
       -0.17380771552521354 -0.2676052261525245
000590 7d 02 08 89 b3 1d bf bf 58 dd 15 c0 92 81 c2 bf
       -0.12154695601931027 -0.1445792615811381
0005a0 fb 6a 3c e3 26 8d d1 bf b3 01 60 2d ac 49 cc bf
       -0.2742402285672793 -0.22099830833032072
0005b0 90 04 ac 23 af 5e c7 bf 76 a9 96 78 06 42 cc 3f
       -0.18257703058046504 0.22076493156539428
0005c0 06 fc db f5 05 23 d4 3f 61 c0 33 b9 ae 80 b8 bf
       0.3146376515359751 -0.09571353932892769
0005d0 76 6f fc 07 bc 3f bd 3f 5f 20 5a 02 b0 1c 8f 3f
       0.11425376124355843 0.01519143588235766
0005e0 e1 44 85 30 1a 76 d0 3f 07 cd a5 6a e2 65 cd bf
       0.25720839250887023 -0.22967176635175
0005f0 72 a8 91 d2 b6 f8 d3 bf 42 0a 0f 81 b2 01 c0 3f
       -0.31205530703903783 0.12505179692932883
000600 81 59 8c ae 97 38 b6 3f ea 24 0a 8f c9 9d ac 3f
       0.08680103312904032 0.055891321860210244
000610 45 3b 6b 25 2c 77 c8 3f 94 94 04 90 04 15 c7 3f
       0.19113685443013587 0.18032891304134024
000620 59 4f 8e 0a 2f 6b b9 3f a9 da af de dc 20 d1 bf
       0.09929174430572853 -0.26763078448076755
000630 76 26 9f 4b e5 79 bc 3f 11 e4 52 8e 5e d7 b6 3f
       0.11123498054726064 0.0892237756223866
000640 b6 8e a6 0f 1d 75 d0 bf d7 cb 73 d5 7a eb a5 bf
       -0.2571480419958151 -0.042812193447296636
000650 46 9a 7e 68 91 5a ba bf 0c df 15 e6 6d d0 28 bf
       -0.1029444580186488 -0.00018931714570746166
000660 53 a0 5b 9f 65 a3 d0 3f ab f0 74 ed 4d 23 b8 bf
       0.25997295915886304 -0.09428870246205416
000670 e3 c1 08 3c 8d 45 c3 3f 8a 7c 59 b3 e7 e3 c7 3f
       0.15056004935605846 0.18664261109640662
000680 b2 60 ae e1 d6 a9 c2 bf 29 da 39 d9 36 bf c3 bf
       -0.14580808658206973 -0.1542728958772426
000690 59 84 f3 56 59 9a bd bf ec 63 f7 99 23 98 c1 bf
       -0.11563642857392277 -0.1374554158963116
0006a0 10 f9 d5 a9 89 3d bd bf 02 91 7d 97 f0 43 d0 3f
       -0.11422024151213273 0.2541467170142512
0006b0 7a 3e cc 71 58 ac d1 bf bf 6e 35 b8 e8 20 c2 3f
       -0.2761441336924474 0.14162930483404598
0006c0 0a 57 62 bd b9 6a b0 bf 3b 8e f3 ee 2d 7c b8 3f
       -0.0641285025943398 0.0956448276879706
0006d0 25 d8 14 03 67 3e 82 bf af 5d b0 33 e9 4a 6e bf
       -0.008908085614717074 -0.003697829697113262
0006e0 a3 02 8d a8 f5 94 ab bf 1a d0 71 0f d8 3e c4 bf
       -0.05387084658150811 -0.15816784624223673
0006f0 d1 f3 4c 1a 3d df d0 bf e8 3a d9 24 39 c5 bd 3f
       -0.26362540787141336 0.1162906374895375
000700 3a b6 92 62 d3 f9 b6 3f 67 ac 24 6d bd 81 92 bf
       0.08974953800744681 -0.018073043619704878
000710 84 00 76 b3 14 30 bc 3f e1 0c 2e 61 1d 88 a4 3f
       0.11010865575190293 0.040100973236826716
000720 85 ae 5d 38 bf a8 c9 3f 41 5a c6 c2 6d e0 ae bf
       0.20046224834674234 -0.06030600550291299
000730 f3 45 26 ae 5b bd c1 3f 2c fe a1 c4 89 f2 b9 bf
       0.13859125140565673 -0.10135708857159703
000740 c1 90 3e 6a 03 bc c7 3f 73 20 36 c7 62 70 af 3f
       0.185425211789271 0.061404311006357036
000750 f2 fc 59 fc 9f 22 cc 3f 76 48 0f 5f 20 7e d2 bf
       0.21980666944362032 -0.28894814761327525
000760 62 0e 46 7d d8 30 a8 3f 97 3c 7d 74 c1 5c d0 bf
       0.047247662822908834 -0.25566135764979364
000770 61 11 e2 68 d0 ce d0 bf 72 e4 1f f0 50 74 b0 3f
       -0.26262293093193106 0.06427484381119244
000780 57 11 3d 64 4b 13 9b bf 75 89 b1 22 bf 94 d1 bf
       -0.0264407901697877 -0.27470377338445157
000790 c3 a1 8f 37 18 e5 d1 bf 18 e5 c7 d2 ec 5a a9 3f
       -0.2796078245724198 0.049521828394015255
0007a0 bd 9d a4 ba ae 1b a2 bf 1d 1d 02 2a 3b 6c a4 3f
       -0.035367450984547834 0.0398882378368006
0007b0 c8 d2 47 26 a6 22 b2 3f 07 e3 6b 6d 1e 9e 4b bf
       0.07084120211204514 -0.0008428238459990697
0007c0 a1 11 52 e1 6c 21 b8 bf 9d 35 95 a5 e8 a8 c3 bf
       -0.09426002980223426 -0.15359218678569855
0007d0 fe 32 f2 d0 cc 1f c4 3f 32 20 8f b9 78 95 d0 3f
       0.15722046091504888 0.259123021326107
0007e0 cc 60 81 cf 5b ef c4 bf a0 e2 33 92 7a fc c6 bf
       -0.163554645844448 -0.17958004130175187
0007f0 2c 34 e2 f3 6e 5a 86 3f aa b8 d8 13 b5 3e b0 3f
       0.010914675538765982 0.06345683798346849

gru.bias_ih_l0 f8 [30]
000000 1a 7b f0 4a 99 6d 89 bf 48 27 4e b2 77 d1 cb 3f
       -0.012416074370830855 0.21732994276345097
000010 31 fb ee 65 b4 d9 c9 bf f9 ee d6 ef 9b 08 85 3f
       -0.20195631959173846 0.01027032685930561
000020 60 d9 e6 b3 87 ae c8 bf fb f4 f1 0d 2a aa 76 bf
       -0.1928262356211219 -0.005533375048910156
000030 c0 73 11 dd bd 12 d0 3f dd 13 fe 55 d2 02 c3 bf
       0.25114389980972973 -0.14852360915042953
000040 6e 4c 80 58 27 45 bb 3f 47 d5 31 cb 0e 62 b3 3f
       0.10652395163224224 0.07571499310309547
000050 53 72 30 e2 f5 aa 98 3f f3 4c 0c b1 57 61 c3 bf
       0.024089662485595586 -0.1514081587307384
000060 a9 21 af 53 a3 2c c1 3f 0c a6 89 be b4 3a a8 bf
       0.13417474352014594 -0.04732289148234878
000070 01 dc 7e 26 a7 2f c7 3f e4 04 ef d7 57 59 b8 bf
       0.18114175204911478 -0.09511326810663295
000080 af cc bb f4 7f cb af 3f 91 0a 80 cc e4 63 c0 bf
       0.06209945547552686 -0.1280485151802009
000090 59 09 19 a5 b9 2c bf 3f 25 9a bd 9c 34 59 c3 bf
       0.12177620201786023 -0.15115983632422672
0000a0 b8 4b e7 bd f4 d4 d0 3f 5d 3d 08 e1 50 7a a5 bf
       0.2629978041197165 -0.04194882151579791
0000b0 56 f3 f5 c8 97 69 cc 3f c0 04 d6 bf 13 d7 c1 bf
       0.22197243988548604 -0.13937613360397982
0000c0 37 03 a1 51 84 88 b9 3f 28 5e 88 22 27 6a ce 3f
       0.09973933213133256 0.23761452852407783
0000d0 51 34 f8 b1 ca 27 c8 3f b5 52 6d bc 7e 60 d3 3f
       0.1887143486968932 0.30276459122732585
0000e0 3d 32 89 0c 25 a7 d2 3f a2 e0 2f 4d 0c 88 c4 bf
       0.2914517042561647 -0.16040185707948235

gru.bias_hh_l0 f8 [30]
000000 12 7b f0 4a 75 ea 8c bf c6 62 c7 36 88 7c a9 bf
       -0.014119068479030914 -0.049778229414817285
000010 cf 04 11 5a dc f9 c0 3f fa 6e fd be 39 e9 cb 3f
       0.13262514493729902 0.21805497956926684
000020 b1 6c f3 89 23 47 d3 bf 35 38 c8 17 d9 a0 d0 3f
       -0.3012169692207847 0.25981738398047877
000030 86 e7 22 fa 98 c8 c1 3f b1 27 fc ab 7a 76 b7 bf
       0.13893425191582426 -0.09165159891941134
000040 ae 98 00 b1 8f 43 a1 3f 6f 15 67 3a 6a 60 ce bf
       0.03371857677147837 -0.23731735088055525
000050 91 1c 8c f8 e2 29 bd 3f f3 4c 0c 51 7a 22 c2 bf
       0.11392038887071211 -0.1416771789305141
000060 cb 0d 79 9d b6 91 96 3f b3 34 d1 37 02 21 d3 bf
       0.022040227280980134 -0.2988896889772363
000070 01 dc 7e 66 34 bc ca 3f b8 09 de 2f be 9d a5 bf
       0.20886855129876383 -0.042219107955151214
000080 9d 79 97 7e 7c c6 d2 3f 70 f5 7f 33 14 d6 c5 3f
       0.293364642739016 0.17059566988602226
000090 57 7b 73 cd b1 35 c9 bf f3 32 a1 81 9e 82 d0 3f
       -0.19695112735549955 0.2579723611750488
0000a0 f2 8c 30 d1 b2 ae ce 3f d1 7d d9 53 0f df d4 3f
       0.23970637525881205 0.3261144942134396
0000b0 f5 3a a9 72 9b f4 c9 3f 95 44 03 cc 68 f8 75 bf
       0.20277731989559525 -0.005363854754436255
0000c0 1a 1c b8 ad 8e 8c ab 3f d6 03 e8 65 7a fc d2 3f
       0.05380674238772816 0.296660041349296
0000d0 33 d8 60 e3 0e c7 66 bf 6b b1 31 0e aa f7 d3 3f
       -0.0027804652009093766 0.31199122797149553
0000e0 96 9e cb a8 62 42 8a bf ae d5 87 6b 7f 61 c5 bf
       -0.012821932579256495 -0.16703789473073755

fc.weight f8 [1, 10]
000000 69 bf cf f1 e6 9b b4 3f 6e 6b 62 4d 4a 34 cd 3f
       0.08050387767411639 0.22815827158487018
000010 6e b0 7f da ff 09 ce bf 48 ff d7 46 90 ee 62 3f
       -0.23468015831838634 0.0023110216050098754
000020 e6 18 55 d4 85 04 b2 3f 8f 03 b5 7d 39 d6 c3 bf
       0.07038151201149709 -0.15497511518517768
000030 ba 32 a9 3d de aa 94 3f 68 45 d1 42 9c 97 d4 3f
       0.020183060182079805 0.32175356412070366
000040 d2 24 48 1c 70 67 94 bf a3 57 49 a2 07 35 c1 bf
       -0.0199258343946312 -0.13443084167618932

fc.bias f8 [1]
000000 89 19 b0 17 c8 a0 82 3f
       0.009095729086777709
