Thesis-codes/Exp-1/results-archive/archive(without scheduler)/results-3/obs/save_model/1/GRU_best_train_6.pth (torch, 5143 bytes, 6 tensors)

gru.weight_ih_l0 f8 [30, 1]
000000 47 4d 68 c8 0e 5a d1 3f 34 8b 4d 36 56 48 c3 bf
       0.2711216885665703 -0.15064504291066216
000010 bb 26 3f 43 c5 4e d5 3f ef 3f 88 32 44 df d1 bf
       0.33293277327593856 -0.2792520993689313
000020 42 df a7 37 5a d3 d1 3f a8 50 48 32 00 db b2 bf
       0.2785249274743259 -0.07365418651198985
000030 5a a5 d3 91 e1 70 d0 3f b2 39 ac 83 48 fa c3 3f
       0.2568897174920345 0.15607553891500242
000040 5f 4c 55 cc 1d 59 b1 bf c5 e8 9b d4 e3 e5 d4 bf
       -0.06776605833629067 -0.32653136980628644
000050 de 0a 7e c1 a8 a8 b4 bf d8 6f 2a ed 04 16 ce bf
       -0.08069853519377143 -0.23504697399482555
000060 ba eb 40 29 30 95 b1 bf c7 e5 dc 62 f3 7c d4 3f
       -0.06868268019836324 0.32012638716295466
000070 57 43 66 82 ae 38 d0 3f 29 f5 d3 e5 1a d8 c6 bf
       0.25345957502672917 -0.17847000333851185
000080 3b 62 40 e2 49 c9 b6 bf 10 ab 44 28 ed 43 c1 bf
       -0.08900892041891321 -0.13488544908735678
000090 0f ed 34 20 40 33 c5 bf cf 1d c2 4d 25 19 b5 3f
       -0.1656265408763393 0.08241494320292662
0000a0 fa ba 64 22 b6 17 d3 3f c2 14 84 74 ac 08 d1 bf
       0.298322232806569 -0.2661543977595323
0000b0 31 7e c2 3e 7d 90 ab 3f 49 14 8d 67 fc ed b2 bf
       0.05383674040899356 -0.07394387748816302
0000c0 4b 40 ef 62 23 e8 ad bf 98 8a f7 8e e0 af d0 3f
       -0.05841169913003393 0.26073469125382465
0000d0 39 cf 46 10 7c 09 cd 3f 83 34 42 3c 27 67 cc 3f
       0.22685194773441156 0.22189798776927114
0000e0 82 1b 7e d7 d4 c5 b2 bf f1 ad b5 03 bc 1a c1 3f
       -0.07333116780328733 0.13362837010514242

gru.weight_hh_l0 f8 [30, 10]
000000 cb 8e 15 a3 24 b4 d2 3f 05 5c 7a 09 56 8d d3 3f
       0.2922450630778541 0.305501469856097
000010 6f 83 d7 24 ac 10 b5 3f 51 55 86 cf a5 dd c3 3f
       0.08228565120181285 0.15520165093463814
000020 bf eb d3 6f 1b 6d c7 bf c7 0f 2e dc 61 ef d0 3f
       -0.1830171867403276 0.2646107340044605
000030 c5 5e 0f a7 ec f4 c9 bf 42 5c b0 ee 7e 50 b2 bf
       -0.20278700024822718 -0.07154076888433372
000040 bc 0d fb 34 78 72 ce 3f 32 43 af 90 3b 0d 9c 3f
       0.23786833369204696 0.027394228654716808
000050 1a cc f4 c0 c6 d4 c2 bf 99 80 1f 2a 5a 38 c8 3f
       -0.14711841985408186 0.18921973282613605
000060 14 7c dc 71 04 f2 b9 bf 49 15 ca fb 1f 41 a8 bf
       -0.10134914188209648 -0.04737186382866782
000070 17 4a b4 71 20 e7 bd bf 68 1b 2a e0 e2 c6 b1 bf
       -0.11680796409590531 -0.06944101307645456
000080 ef 0b 26 3b eb ca af 3f 08 ae 15 e0 25 f9 8f 3f
       0.062095023126879194 0.01561193075277513
000090 f2 64 2d 25 e3 c0 bb bf 4e c3 07 99 22 4c cb bf
       -0.10841197641038372 -0.21326096031364233
0000a0 7b d4 ab f5 bb 6a c9 3f 1c 20 01 d5 dc 98 c5 bf
       0.19856976981796834 -0.1687274971066025
0000b0 c7 30 64 74 67 fd c1 bf fb 9c bf ce e3 65 ca bf
       -0.14054578002140358 -0.2062344321741206
0000c0 c2 97 77 02 60 b8 7b 3f c7 59 29 23 78 e3 b8 3f
       0.006767630612989297 0.09722090586124131
0000d0 7e 32 34 7b 87 16 c6 3f 22 15 50 a5 1d 73 b1 3f
       0.1725625373441239 0.06816277776677684
0000e0 b8 9b 25 78 8f 5b cc bf ce 1d 43 ed 9d c1 b4 3f
       -0.2215442024855443 0.08107935946019681
0000f0 f3 e8 95 4f f7 d6 c8 3f cb e9 97 14 bc cd d0 bf
       0.19406024347319537 -0.2625570489032298
000100 ea 5e 79 0c bc 49 c7 bf cf 8a 95 a4 06 bb c1 bf
       -0.18193770035826812 -0.13852007900557914
000110 25 49 1e f6 11 7c bc 3f 34 15 80 c2 9e da ae 3f
       0.11126816042659422 0.060261689417567516
000120 53 8d 58 74 9b c9 ce bf c3 41 ab 05 74 c0 d2 bf
       -0.24052756482078994 -0.29299641183481756
000130 07 8d f4 49 7e f8 bb 3f 9d 36 5b ee c8 83 d4 bf
       0.10926045709179642 -0.32054351117117524
000140 98 87 a4 f7 cd d5 ba bf a7 97 3b 6b e9 6f c4 bf
       -0.1048248986812993 -0.159665276870496
000150 b3 d8 f1 04 cd 09 a1 bf c3 41 be 33 4a a8 c6 3f
       -0.03327789960251106 0.17701079870722766
000160 56 0e 80 b1 d3 f0 a8 3f 86 8e ff 59 6e 99 c2 bf
       0.048712363641268894 -0.14530734438368514
000170 77 91 d4 c1 2c b4 d0 3f c5 69 ff fb 43 28 c1 3f
       0.26099699906105606 0.13404130749297685
000180 bc a9 81 ea d8 4b b0 3f c9 b3 12 6e c7 32 90 3f
       0.06365733838325743 0.015818706601453934
000190 48 5d 7c 08 07 75 d1 3f e9 06 1a 6e 02 02 cc bf
       0.2727677901143193 -0.21881132484491353
0001a0 e1 0c 65 d2 bc b8 c6 3f 21 26 2e da bf 6f a3 bf
       0.17751274369411532 -0.03796195543607107
0001b0 80 39 7f ee 29 01 d4 3f 9f 96 3f b0 1d d7 ca bf
       0.31257103243560636 -0.2096898184383251
0001c0 c1 1f 77 ff 93 27 94 bf 0f 0e 24 df 46 66 79 3f
       -0.019682228534094074 0.0062010544227209105
0001d0 45 e2 94 ef 26 8b d2 bf d5 06 34 ea 05 09 ba bf
       -0.28974316975248754 -0.10170018165447499
0001e0 10 ef 55 40 53 93 9d 3f 65 13 1a e7 dc 02 cf bf
       0.028882313539255355 -0.24227486881514007
0001f0 eb 90 89 a5 7e ad d1 bf d3 ff f7 96 97 a0 c9 3f
       -0.2762142769409041 0.2002133834030234
000200 f3 09 e5 fb e0 ee c9 3f 30 5d 0c 4b 11 98 cc 3f
       0.20260250377221176 0.22339073338000892
000210 1e f0 06 99 ca 0c d3 bf c7 26 b3 3a b7 80 90 bf
       -0.2976557249455726 -0.016116011579277136
000220 ae 6c fc a6 34 c8 c7 bf 8e 14 d5 a6 8e 8b c1 bf
       -0.18579729226698788 -0.1370714487658557
000230 5d 13 7a a4 03 f3 cf 3f c6 1b 2e 5d 65 11 c5 bf
       0.24960370570274906 -0.1645933823567402
000240 18 a0 c8 dc b2 17 d0 bf 9a a4 1d c6 bc 3f a7 bf
       -0.2514464527216673 -0.04540815275579142
000250 a2 a2 9e b0 7c 7d c8 bf 1c b0 37 5e 50 23 d3 3f
       -0.19132956146247176 0.29903039170199164
000260 e9 d0 77 21 cb 09 c5 bf 28 4e 05 d7 a1 81 c3 bf
       -0.16436137327367042 -0.15239356040056973
000270 ae 5b 1b a7 93 75 9a 3f b4 07 08 51 d0 3d cd 3f
       0.02583914477767351 0.22844890553102248
000280 e5 bb fa 63 06 48 c2 3f 05 3f 3b 80 a9 4c b4 bf
       0.14282302743728717 -0.0792947710099235
000290 1a 40 4e 6b e7 ca c4 bf 13 da 29 81 7f 97 a8 3f
       -0.16244213809523061 0.04803083850577052
0002a0 2d 88 c3 1c 7a 25 bb 3f 2e c3 3e 3d d4 f1 ce bf
       0.10604060365906838 -0.24175503721701247
0002b0 73 a4 16 b7 24 5a d4 3f 75 b1 6b 57 c8 5d d4 3f
       0.3180019176457513 0.31822403466391985
0002c0 e2 dd 77 ba c1 91 c2 3f df 48 57 58 44 d5 b4 bf
       0.14507314305204405 -0.0813791957546388
0002d0 85 24 5d 0d 02 60 8b bf f1 4a 0e 11 cd 44 c9 bf
       -0.013366714508850084 -0.19741214115909814
0002e0 94 0b b3 31 2e 8f a2 bf f6 55 57 4a f1 a1 d1 bf
       -0.036248630110569696 -0.27550918826940973
0002f0 3f 8d 8a 87 2d ee ca bf 82 4d cb bb 31 20 b5 3f
       -0.21039361112807772 0.08252249560182714
000300 14 6d 67 bc e4 c8 d0 3f fc e2 e2 33 98 e4 b3 3f
       0.2622615661509411 0.0777068258929709
000310 1a a6 56 ce 49 46 d3 3f ab ed 23 0a 74 ee b6 bf
       0.3011650576614514 -0.08957600829665206
000320 b4 b0 3f 56 a5 17 a9 3f f3 c4 05 3f fd ad ab bf
       0.04900852849809337 -0.0540618075782592
000330 0b 60 b3 27 d9 df ad bf 0e 86 f8 71 8b dc c4 3f
       -0.058348451706194814 0.1629804903505349
000340 77 2b d5 29 04 3f 87 3f df 58 9b e0 61 e6 c3 bf
       0.011350662733681223 -0.1554682108605396
000350 68 ca a7 dc 42 5d 84 3f 18 5e 46 1c ff 77 b9 3f
       0.009943506583089248 0.09948725166611216
000360 39 2e 27 5f d5 ef d0 bf 0a 45 eb b8 3d 81 b0 bf
       -0.26463827411928126 -0.06447206272720876
000370 7d f7 3d 65 c5 47 95 bf a7 ef 72 96 a9 a4 a4 3f
       -0.020781597427677923 0.0403187748101737
000380 a0 8c 0c af 74 1f c9 3f 62 ac 15 7a aa 3d ca 3f
       0.19627245471301524 0.20500689469494932
000390 a6 81 a1 73 c4 2c ce bf 98 73 85 80 06 e4 ae bf
       -0.2357411923030785 -0.06033344572890725
0003a0 5d 51 32 a9 a2 f7 c4 3f c4 1a 2b 08 45 c3 b9 bf
       0.16380723249006737 -0.10063582848952551
0003b0 6b 79 0b 9b 95 1a b1 3f 24 de 22 ee 45 69 c0 3f
       0.0668118957068821 0.12821268203491443
0003c0 2b 08 41 be 02 d6 bc 3f a9 33 5d db d9 03 cc bf
       0.11264054436563302 -0.21886752329956252
0003d0 f9 01 96 86 aa 14 a5 bf 03 b9 1d 76 e9 df b8 3f
       -0.04117329495329964 0.09716662534421876
0003e0 82 d3 af a4 32 7e c6 3f fe b0 50 d6 17 5b cf 3f
       0.17572625199650466 0.2449674412213269
0003f0 ff b6 48 9b f1 83 60 3f 60 d7 6f 08 16 96 cd 3f
       0.002016040695045684 0.23114276325184857
000400 86 6b 3a aa e9 5a c2 3f 30 49 1e 86 ca 89 b0 bf
       0.14339943706439956 -0.06460252546665823
000410 3e 76 55 d8 36 19 c1 bf 3b 47 7f 40 73 2e d5 3f
       -0.13358197749305306 0.330960095391777
000420 1b 57 77 eb 68 fa d2 3f ae 65 e4 4f 40 9f d2 3f
       0.2965338038896889 0.2909699230382
000430 ae 5c cb fa 5a a1 cf bf 62 e9 52 96 31 ac 8d bf
       -0.24711167569941977 -0.014488589668293531
000440 e8 66 b2 63 87 ad b2 3f 27 e9 17 4e 9e 65 c2 3f
       0.07296034034734655 0.14372614682344784
000450 34 e6 73 6d fb ff b0 3f c7 c6 a0 37 19 12 d2 3f
       0.06640597746072602 0.28235464508462055
000460 47 1d 0d ff ab 64 ca 3f c3 4e fe 57 e2 ed a9 bf
       0.20619726136849634 -0.050643037072544604
000470 fe 25 6b 81 b7 ea 99 3f 89 1d 49 1c 5b a7 d3 bf
       0.02530943610580571 -0.3070895935274725
000480 cf bc 47 f6 23 55 c0 3f 40 d9 92 84 f2 b5 c9 3f
       0.12759828114892577 0.20086509202310232
000490 d9 55 90 9d 92 82 cb bf 16 16 fe e4 18 5e c5 3f
       -0.21492226308389098 0.16693411999965296
0004a0 7e dc d7 b5 7d e1 c7 3f f7 ed 5d cb 62 00 c6 3f
       0.18656894091666126 0.17188677721047416
0004b0 4e 50 0b 1c d7 ce b1 bf 3f e6 e3 9c 7d de c4 3f
       -0.06956238207504947 0.16303987656265126
0004c0 8d 17 93 43 dc 56 c0 3f b9 43 e4 76 7a ab c6 bf
       0.1276507692293162 -0.17710810475594288
0004d0 39 b6 0c d7 87 af cc bf 97 42 c5 66 f5 46 b7 bf
       -0.22410676956626377 -0.09092649230047765
0004e0 f7 a1 5b e8 d5 47 cb 3f 61 9e a8 50 31 fe b4 3f
       0.21312974782564684 0.08200367182927827
0004f0 98 c5 c4 00 0f bc a3 bf 0c 7c a4 5f a1 d8 ca 3f
       -0.03854414829619229 0.20973603410763564
000500 a9 20 34 91 18 e1 bf bf 09 51 e9 da 45 19 d0 3f
       -0.1245284418583902 0.2515425336653299
000510 68 54 ca c6 df 2d b4 bf b4 a5 04 b6 36 c0 b3 3f
       -0.07882498362808266 0.07715169853022169
000520 8c f2 b9 b9 e4 11 a4 3f 07 bd db 70 10 6d ac 3f
       0.03919901625792929 0.05551959397950595
000530 55 b2 f3 33 68 0c c9 3f c1 fb 09 0b ca 81 ce 3f
       0.19569113289562048 0.23833585299504814
000540 c4 9b 52 81 5c 04 78 3f c3 4c b5 ef e2 84 a9 3f
       0.005863534305865895 0.04984196830869216
000550 9b e7 1d cc af 98 b8 3f c6 c8 69 2a c2 df b5 bf
       0.09607981427498517 -0.0854455331371212
000560 4c 15 a6 be ca d2 9d bf 64 35 4a c4 d8 7b d0 bf
       -0.029124420057560926 -0.2575590054410297
000570 3b 2f 35 ed 97 65 ca 3f 83 db 9f df e3 d3 9a 3f
       0.2062253864518143 0.026198921703293642
000580 50 0f 41 0a 93 40 94 bf d8 3a 15 1f 42 13 d0 bf
       -0.019777581692564994 -0.2511754325432043
000590 9f e5 7a 72 15 b1 ad bf f1 c6 e1 d1 68 42 d6 3f
       -0.057991667008035146 0.347803311312517
0005a0 cd e1 50 55 28 ef bb 3f b0 e5 21 c8 7a 21 c6 bf
       0.10911800463589501 -0.17289671680536634
0005b0 49 ac bf a4 96 f7 b9 3f c3 a0 dc 33 a9 dc af 3f
       0.10143414995370494 0.06223038442686992
0005c0 b0 05 9a 0e af 0c b9 bf ed 3a b1 ad 86 c1 95 3f
       -0.0978497896812971 0.021246055938088416
0005d0 20 36 f0 5b 65 33 93 bf f8 bc b6 27 14 82 c2 3f
       -0.01875074742934235 0.14459468783523
0005e0 9c 54 8d 5a 6f 6c 92 bf db 36 32 22 25 29 c0 bf
       -0.017991771604404336 -0.1262556473706614
0005f0 5d 38 4b c8 33 11 d3 3f 78 7b 71 a3 39 5a bd 3f
       0.2979249435419485 0.11465797653498366
000600 88 70 b3 a6 e1 1f b8 3f 77 1c 70 32 02 9b d2 3f
       0.09423647231909815 0.29071097302989507
000610 5a a1 c1 0f 7d 97 ce 3f c3 18 46 5e b1 92 d1 3f
       0.23899806279519958 0.2745784207003334
000620 50 08 5c 6d 09 9e c3 bf f4 d6 94 26 de 70 d1 bf
       -0.15326040115184236 -0.2725139023562939
000630 c7 90 40 b7 e2 f5 bb bf 1c 19 41 fb a1 8e a6 bf
       -0.10922066663676154 -0.04405695144719088
000640 af bc e9 a6 d3 b4 b3 3f 5e d2 5d 80 a8 03 c9 3f
       0.07697794747376706 0.19542413967032507
000650 66 83 4e 4e 04 c6 c7 bf 98 d6 5c ed 5a 54 ad bf
       -0.18573049377030343 -0.05728420398228912
000660 78 32 8e a5 d5 8f a6 bf ce 71 38 71 b6 7f cb 3f
       -0.044066120585829205 0.21483498123497075
000670 11 04 a8 f8 81 4c ca bf 86 46 d2 93 05 b4 d0 3f
       -0.20545982972547042 0.2609876578872917
000680 01 d8 a1 2d 81 52 bb bf 9c d3 8d 2c fc d3 d4 3f
       -0.10672767032687604 0.32543854094483904
000690 0d 6b 1c 23 99 fe 92 3f d2 4c 5c 4f c2 95 cb bf
       0.018549340026861084 -0.21550778269793242
0006a0 bc db c9 2f aa 92 cc bf ec eb 06 3b 01 4a c6 3f
       -0.2232258542387323 0.17413344747714576
0006b0 d5 a8 65 1f 13 29 b2 bf 7b 74 0e 26 19 1b b4 bf
       -0.07093925015002196 -0.07853848628151809
0006c0 b6 88 0e fe c9 7a 98 bf a5 e6 c9 77 dc ea b5 3f
       -0.02390590298785674 0.08561494755295003
0006d0 a0 54 c7 9a df 0f c5 3f 6b c9 b9 6d 16 ac c6 3f
       0.16454691941786326 0.17712669713689463
0006e0 9f 00 43 d6 02 f2 cf 3f 1c 55 96 04 82 76 ca 3f
       0.2495730920982213 0.2067415735624899
0006f0 4c 5b 17 6c 49 d6 c4 bf 39 fe c7 30 36 8c d2 bf
       -0.1627895143307917 -0.28980784190932557
000700 01 2d ca 78 93 cf cb 3f 9f 6d 51 a0 fd d1 ba 3f
       0.21727221868454907 0.10476670421615218
000710 d3 d4 a5 5a ae f7 bb 3f 29 2b 4e 54 db eb c2 3f
       0.10924806321220908 0.1478227769515226
000720 2f 26 3e 02 fd 8a c1 bf 39 d1 9f f4 0f fb d0 bf
       -0.13705408677587758 -0.2653236283215566
000730 d5 fc e0 4d d3 df ce bf 0a ec 5d 46 f0 bf cc bf
       -0.24120560934713944 -0.22460750041850047
000740 cc b3 d4 f6 cb 6c c6 bf bd 8c e2 fb 6c c9 b2 bf
       -0.17519521286285877 -0.0733860125497356
000750 32 6e 75 db ad 81 d0 3f d8 3c 21 fa ee 1b 9e 3f
       0.2579149859572879 0.02940343286200861
000760 e5 7b f0 b9 be 79 d2 bf b9 23 2d 11 6a 96 82 bf
       -0.28868072660583116 -0.009075955056362038
000770 33 d4 78 7b f6 06 d2 3f 7e c7 d2 b5 ff bf 98 bf
       0.28167497690020865 -0.024169917557351088
000780 5a 6e 1c 21 ff 24 b1 3f eb a2 f6 71 fd 7f ac 3f
       0.06697077329993686 0.05566398636012145
000790 f7 2d 37 a7 79 f0 b5 3f 3f c8 8f bf 28 c5 c9 3f
       0.08570061046992082 0.20132932046505123
0007a0 c4 ad b3 35 74 b6 d1 3f 90 7a 92 91 dc b3 87 bf
       0.2767611050064398 -0.011573527519712884
0007b0 b4 3c 05 9b 95 d0 b8 bf 2d a1 f6 4e 3e 12 c5 3f
       -0.09693274531058443 0.16461924415239917
0007c0 2f 7b c9 b5 39 78 b3 bf 97 5f 1f 74 52 af b0 3f
       -0.07605324447784477 0.06517520270369768
0007d0 45 98 cc 02 32 c5 b1 bf 68 1b 5f bc 80 b4 d2 3f
       -0.06941521232929045 0.2922670211377665
0007e0 e8 e6 54 11 f7 ad ba bf cf b7 39 7e 4a aa cf bf
       -0.10421699689041086 -0.2473843685469874
0007f0 61 51 ee b3 36 8d c3 3f 42 e5 10 1b f9 21 b0 3f
       0.15274699960412888 0.06301838789740535

gru.bias_ih_l0 f8 [30]
000000 e1 25 f1 83 c5 92 cb bf e5 e1 90 b9 03 3f bc bf
       -0.21541661207656573 -0.11033652573031068
000010 e2 2a 34 34 96 e0 ae bf af 8f 4a ee 17 18 d4 bf
       -0.06030721080067793 -0.3139705493033444
000020 47 50 73 a8 fc 58 c7 bf ae 8d 78 f1 e5 98 b3 3f
       -0.18240316605681725 0.0765517916229814
000030 d2 5d b3 74 9d b1 d1 3f 85 b5 1b 3b dd b8 c2 3f
       0.2764657630591191 0.14626660715240916
000040 c2 c8 5d f5 20 9e d1 bf 03 8c e5 15 62 ff d0 bf
       -0.275276412597247 -0.26558735025736285
000050 d1 87 fb 2a 5d 8a c2 3f 99 a3 ff bd a5 b9 c3 bf
       0.14484753226048366 -0.1541030099608889
000060 47 1f da 45 39 39 c3 3f d3 06 0e cb a9 4c c2 bf
       0.15018382941002015 -0.14296457686218975
000070 47 56 3d 4c 6f 81 d1 3f 5a 46 6b 04 4a 3e c7 bf
       0.2735250706221887 -0.18158841338895365
000080 6f fb b6 e3 dc 20 b8 3f d5 c5 ad 4c 95 7e 63 3f
       0.094251447290828 0.0023796955114725273
000090 bd 2a a2 e3 ac ae c2 bf 1b 3f c5 0f e9 1a b3 bf
       -0.1459556685916449 -0.07462937006971197
0000a0 b8 b9 ba 35 78 e6 bb bf b5 2d f8 53 a4 18 d4 3f
       -0.10898543655159798 0.31400402259961463
0000b0 22 d9 22 bc 50 23 cf 3f ff 49 47 0c e0 31 c8 3f
       0.24326523958524954 0.18902206992659384
0000c0 10 f8 30 cd 1c 85 c2 bf cb 5a a8 d7 01 73 9a bf
       -0.1446872713003704 -0.025829342639634583
0000d0 5c fd b6 48 0f d7 ae bf 79 87 21 32 31 99 b8 bf
       -0.06023452532417181 -0.0960875270261833
0000e0 bf 34 19 aa b7 60 c8 bf ca 48 8a eb e3 e2 86 3f
       -0.19045158200825615 0.011174946427932392

gru.bias_hh_l0 f8 [30]
000000 00 93 f8 81 5b 58 d2 bf 1b 1e 6f c6 88 34 b9 3f
       -0.2866429108856181 0.09845785946446776
000010 8f ea e5 65 3b b0 b6 3f af 8f 4a 4e bb a8 d1 bf
       0.08862658727404436 -0.2759235634387051
000020 d8 be 32 5e 71 7a ac 3f 9c 8d 78 71 ec 2c bc 3f
       0.055621664761358935 0.11006047983442219
000030 34 44 99 56 8e 68 cc bf 5c 25 72 22 de 06 d2 bf
       -0.2219407961697769 -0.2816691719422886
000040 3e 37 a2 4a 0e 11 d1 3f 38 82 4e 43 b9 63 86 3f
       0.26666600502436555 0.010932395330940911
000050 d1 87 fb aa c9 68 c5 3f 67 5c 00 02 6e ad c8 3f
       0.16726036881214992 0.19279265496945472
000060 e8 e0 25 ba 3e 62 cf bf d3 06 0e 4b f6 23 c8 bf
       -0.24518570031410225 -0.18859747566971538
000070 9b ac 7a 98 fd 2f ca 3f 9d b9 94 9b b6 49 cb 3f
       0.20458955712579016 0.21318705174185207
000080 70 fb b6 e3 32 d8 bb 3f d9 48 cd 4a 28 78 c4 bf
       0.1087676816887162 -0.15991691257892773
000090 43 d5 5d 1c b0 1b c8 3f d6 37 b0 0e ec 7b 59 3f
       0.1883449686535333 0.0015554242370430147
0000a0 56 8e d9 9e 48 6b 83 3f 6e 92 b9 6b 8b b1 c7 bf
       0.009481971118652382 -0.18510573158268379
0000b0 5f 80 6c ce 4a 73 d1 bf 75 17 b4 ff cb ea d0 bf
       -0.27266187819077986 -0.2643308636764837
0000c0 ad d5 22 90 56 75 ba bf 8a a2 3b c0 b2 46 a7 bf
       -0.10335293787905782 -0.04546125980943312
0000d0 7b fe 57 8e 21 9a bd bf ce a9 89 4e 98 19 c4 bf
       -0.11563310361088412 -0.1570310958371252
0000e0 11 af e1 60 d4 a1 ca bf e6 6a e6 c7 bc 61 d4 3f
       -0.20806364756150988 0.3184654190205677

fc.weight f8 [1, 10]
000000 13 b8 91 14 47 13 ce 3f ea 89 1a c7 9c 21 c1 3f
       0.23496330742222024 0.13383826944216476
000010 73 f7 2b 1a 05 6b c0 bf e3 1d 3f a2 32 da cb 3f
       -0.128265989092991 0.21759636804766477
000020 a9 d2 60 a4 bf 19 8b 3f f0 47 b8 5b d4 8a b3 3f
       0.013232705310750008 0.07633712043050855
000030 98 71 3c 9f 35 44 97 bf af e3 4c 48 73 84 d0 bf
       -0.02272113594436717 -0.258084126096544
000040 ed 0e 0d b2 a2 c9 b5 bf 39 99 2f ad 1b 29 bc bf
       -0.08510796400974714 -0.1100022599999634

fc.bias f8 [1]
000000 2a 72 85 1f 24 bc c9 3f
       0.2010541109001605
