Thesis-codes/Exp-1/results-archive/archive(without scheduler)/results-5/sg5/save_model/0/MLP_1_best_train_5.pth (torch, 1823 bytes, 4 tensors)

fc1.weight f8 [10, 1]
00000000: 05ee bf71 714c e1bf 118e 6588 e17b ec3f
00000010: 23ac 9241 b99a ee3f bcbc e177 1883 e3bf
00000020: 3a9b 75d8 85cd e93f b951 aead eb8e cf3f
00000030: fac4 b220 0769 e13f d707 cb73 621f d93f
00000040: 0000 0080 9c8e db3f b0a9 f5e8 4ce7 c3bf
-0.5405814382242516 0.8901221908567455 0.9563871651383845 -0.6097528783265243 0.8063382365915921 0.24654909115328197 0.5440707815779711 0.39254056270521914
0.4305793046951294 -0.15549622893315762

fc1.bias f8 [10]
00000000: 60c5 ee03 e634 c13f 96fc 9f13 325f e03f
00000010: 53dd 07a6 ce6b e0bf 34b8 1c53 649b ef3f
00000020: 53d7 3281 e7af b7bf 1221 513b 54dd cdbf
00000030: 67eb 9bca 077e e13f 06c3 f790 e261 ed3f
00000040: 0000 0080 0c46 e8bf c3d4 68c1 d663 c13f
0.13442683403040245 0.5116205580997242 -0.5131600611484067 0.9877187369618299 -0.09252783684027337 -0.23331692596753634 0.5466345746238915 0.9181988555338598
-0.7585508823394775 0.13585934108565398

fc2.weight f8 [1, 10]
00000000: 9ba8 da2b 8be2 903f 0797 bcfd c116 cb3f
00000010: cf05 40d3 a16b d0bf e1c0 4caf 3f45 b53f
00000020: 738d 1e37 7bf3 ad3f d054 164f 2317 bfbf
00000030: bdc5 b941 e520 c0bf 63cd f8c5 49f9 babf
00000040: 0000 0080 bbf0 cdbf 797a 3726 4abc d1bf
0.016489195396083827 0.2116320122669821 -0.2565693438519618 0.08308790235310283 0.05849823997348382 -0.12144680672493569 -0.12600389203320886 -0.10536633570955227
-0.23390907049179077 -0.2771172879419406

fc2.bias f8 [1]
00000000: d900 0bd0 a74e b13f
0.06760643796133382
