Thesis-codes/Exp-1/results-archive/results-1/ew4/save_model/1/LSTM_1_best_train_7.pth (torch, 18327 bytes, 6 tensors)

lstm.weight_ih_l0 f8 [84, 1]
000000 07 22 f3 4b 7c c4 c3 3f 78 61 bd 0b 1b c9 c7 3f
       0.15443376263125705 0.18582475732069859
000010 d3 5a ea 12 c9 97 95 bf 34 87 f7 1d 0e 5b a8 bf
       -0.021086828021533343 -0.047569695623464275
000020 be ee 92 a9 13 c5 bc bf a7 19 49 70 1e 56 ac 3f
       -0.11238215341557642 0.0553445350711173
000030 a2 ee 99 d4 b0 97 cb 3f 10 d9 30 9b a1 f0 be bf
       0.2155667341320298 -0.12085924185598551
000040 d6 10 19 1c 35 f1 ba 3f 32 4d e3 4f 73 d1 98 3f
       0.1052430337522908 0.024236490012140517
000050 a4 d6 b7 a0 2c f5 a4 3f 29 4a f6 d3 f5 1d c0 bf
       0.040933031672392844 -0.1259143147440949
000060 f5 98 c0 d6 77 02 cd 3f f8 ff b6 d9 e5 c4 c3 bf
       0.22663782106355482 -0.1544463456211813
000070 69 f3 c1 b7 e6 fe ad bf e2 52 d1 fc 96 0f af bf
       -0.058585367137289186 -0.06066581569817743
000080 fe 93 33 4c 24 d2 ce 3f b9 6e aa f1 8e ed a0 bf
       0.24078801842475167 -0.033062426567281596
000090 b2 c0 1f 1f f9 e2 c2 3f 37 7d 70 43 f2 3e a3 bf
       0.1475516702626059 -0.037589617473936014
0000a0 11 e2 c5 ee 72 a3 b9 3f 6b dc b3 40 d1 8c af bf
       0.10015028314035869 -0.06162122645212594
0000b0 e6 b0 25 2c 84 7a b5 bf 83 b5 ab d4 cf b8 c2 bf
       -0.08390070035756345 -0.14626500973046683
0000c0 91 e5 e0 20 96 34 c6 3f 82 98 ca f5 45 68 b4 bf
       0.1734798107661786 -0.07971608401075694
0000d0 18 c8 4f 56 5e 64 c9 bf 77 e0 53 c7 97 bf ba 3f
       -0.1983755036777104 0.10448597542188219
0000e0 70 ed 7b 8a a2 7e c2 bf 7a 7c fc 40 a7 39 aa 3f
       -0.14448959123533767 0.05122111004151804
0000f0 8b e8 58 68 1a b3 cf 3f 5f f8 10 f5 29 d7 9a bf
       0.24765329451640059 -0.026211410124453823
000100 af 1c d7 d6 d9 5a cf 3f e9 b9 c3 d1 c9 79 d0 3f
       0.24496005048988453 0.2574333713991153
000110 e4 07 2e cd a4 33 bd 3f 1d 7b 72 ea 0e da 99 bf
       0.1140692711760774 -0.025245888766785563
000120 d6 2d 66 33 b2 54 90 bf e3 41 73 f7 e2 6b bf bf
       -0.015948089968828537 -0.12273996869340169
000130 ed 0b d5 f4 03 2e a4 3f 15 f0 f9 d4 19 1e b6 bf
       0.03941357005762556 -0.08639680337540796
000140 6a 40 3a 65 83 9c cb bf d6 21 6c fb 62 b2 b5 bf
       -0.21571390574218025 -0.08475321424715018
000150 08 b3 5a 15 cd 05 ce bf 81 ad e1 9d a2 3a ce 3f
       -0.23455203573885108 0.23616440495548477
000160 57 af d3 17 ef a0 cb 3f 1a c4 0a 6b 98 e5 ce bf
       0.21584881461546487 -0.24138169504797774
000170 02 aa 97 41 45 5a b4 3f d2 eb f4 c4 f2 6c c4 bf
       0.07950241900804403 -0.15957483880069262
000180 db 34 54 98 71 ed c6 3f a2 43 c7 83 ee 20 ba 3f
       0.17912120759903058 0.10206499783750059
000190 fe b8 33 b3 c0 ef c8 3f 79 8f 95 dd 6c 60 be 3f
       0.1948166728029221 0.11865883264323242
0001a0 c0 25 28 39 78 a4 b9 3f b1 51 0b 3f ef 11 cb bf
       0.10016585727148364 -0.21148481920557807
0001b0 e8 f2 66 ef 74 4c c2 bf bf 98 40 5e b0 54 c1 bf
       -0.14295827569539843 -0.1353970012871226
0001c0 b6 73 5d b8 e9 a0 b9 bf 7b b6 06 bd 92 62 c5 3f
       -0.1001115870580652 0.16707071523471825
0001d0 62 c5 82 34 62 6c 88 3f 48 93 7e e7 c3 bc a7 bf
       0.011925475337508377 -0.04636203957423973
0001e0 ea bd a1 05 2a 30 c5 bf fe 45 3b f5 e9 c4 ce 3f
       -0.16553235316267428 0.24038433527179842
0001f0 4e 97 f9 93 b1 33 b5 3f a6 d0 21 1a 66 45 81 3f
       0.08282003271741908 0.008433149025428865
000200 f6 eb 69 ac b1 2a b2 3f 1f 5b c6 52 85 63 93 3f
       0.0709639593059562 0.01893432920186477
000210 af 7d cb 21 d7 ef 88 3f 6f a9 da 36 41 4e cf 3f
       0.012176209181631174 0.2445756452410239
000220 65 90 2a dd 26 5f c3 bf 21 b3 7e 56 1f 56 ce 3f
       -0.15134130286344596 0.23700324748406223
000230 89 f3 b9 b7 26 f8 c5 bf 46 aa d3 3f 36 02 bb bf
       -0.17163547488226197 -0.10550250108978174
000240 8c a4 0f 80 ac cd a9 bf 3e 7e f5 95 c9 20 d0 bf
       -0.05039729178663163 -0.25200118679456185
000250 a6 4b 52 c6 d5 0b a1 3f c7 b4 92 e7 fb 8d c9 3f
       0.03329341932216971 0.19964550788191657
000260 3a 97 9e 8f e7 83 c5 3f ca 3e 7b 86 65 79 ab 3f
       0.16808790695830017 0.05366055742854099
000270 93 32 05 7e 3e 04 c2 3f a5 83 e0 fa 86 3f c4 bf
       0.14075451997122865 -0.15818869829038565
000280 a1 4b 58 1e 34 dc cb 3f e0 e4 71 19 18 2f c2 3f
       0.2176575802010037 0.14206219904352846
000290 06 1b 31 24 5a 23 c3 3f 8e 93 d0 12 90 41 c7 3f
       0.1495163609235634 0.18168831747712172

lstm.weight_hh_l0 f8 [84, 21]
000000 e9 3d 52 a4 b1 23 bc bf 57 66 cf 09 2f d0 9c 3f
       -0.10991964589833682 0.028137907956852306
000010 10 d0 f3 dd 6e a2 ba bf 87 ac 69 05 1c 7b b2 bf
       -0.10404103201636894 -0.07219100124500431
000020 1f 7f 78 f6 b2 45 b6 bf 71 9a 10 11 ec 0f 80 3f
       -0.08700102345801185 0.007842869063165754
000030 3f d4 b3 c3 10 97 c5 bf 8d d9 c4 21 64 6b b7 3f
       -0.16867265277656604 0.09148240875661014
000040 46 00 f2 11 e7 f3 bd 3f 3c 52 02 73 5b 6b ab bf
       0.11700290859335025 -0.05355344561499861
000050 7b 15 64 05 f1 ee ac bf 3a 71 0e 53 d4 13 cb bf
       -0.056510478885722436 -0.211542645029917
000060 78 29 30 3a 00 af c5 3f 7c 0d 0e 65 62 4d cc bf
       0.1694031032678358 -0.22111158308335266
000070 58 d0 84 7b c5 54 c6 3f 23 30 3a 75 81 d2 c1 bf
       0.17446201831046682 -0.13923662399281608
000080 6f bd eb fc f0 3e c3 3f 9b b1 bd dc ec f8 b7 bf
       0.1503583178486951 -0.09364204777893408
000090 2d b4 b4 71 6d 42 ce 3f 90 22 5d cc 5e 2e 82 3f
       0.23640220691723482 0.008877506839455124
0000a0 f9 fb 46 11 ce 3b ad 3f 89 1c b7 64 ee 57 c5 3f
       0.057096900567095994 0.16674594800699463
0000b0 ee 94 f8 22 8f dd 80 3f ca c4 bc 4c 82 98 be 3f
       0.008235090498667632 0.11951460240813386
0000c0 3a 12 89 2d 5c 7b ce bf 3d 8c 5a 9e 75 8d b6 3f
       -0.23813965056810266 0.08809599987084567
0000d0 1d cc d4 1a 8e a6 ae 3f f2 4d ce e5 5f f3 c9 3f
       0.05986446454553394 0.20273970337858277
0000e0 bd 23 d1 59 7b 21 92 bf e0 ec 6f 1a 83 98 90 3f
       -0.01770584808062713 0.016206787575339443
0000f0 12 c6 48 d8 72 82 a1 bf 5c 87 0c bc de dd bc 3f
       -0.034198368932617865 0.11276046839750847
000100 17 8a 2f 75 25 55 ce bf 7f 91 4c 98 bf 08 c8 bf
       -0.23697345945318268 -0.18776698051909688
000110 e7 6f 10 3f b7 30 ae bf b8 87 51 a2 17 ad 77 3f
       -0.05896542210413696 0.005780308075459865
000120 32 13 f1 38 ff e8 be bf 8b df 3c 27 30 ed ac 3f
       -0.12074275150469019 0.056497101583260344
000130 f8 55 bc 63 79 86 c6 3f fc 0b 21 2d a6 e1 cd 3f
       0.17597882623583394 0.23344876483506016
000140 7b a5 e5 05 56 bd bb bf 6c 8b ae c3 e0 ee a0 3f
       -0.1083577885052786 0.0330724943990138
000150 b2 0e 72 8c 31 f3 c3 bf db 53 5e 32 a2 e7 98 bf
       -0.15585917813961242 -0.024321111988303428
000160 36 57 ef fc 6a 4f c9 3f a6 44 d3 47 1f 16 ab bf
       0.19773614263856992 -0.052903153913243
000170 85 d3 48 15 cf c0 cc 3f a1 dd 46 1e 06 41 8a bf
       0.22463406123429422 -0.01281933574578781
000180 40 29 34 aa 2c 2c b2 3f 14 3b 5b dd b6 d7 c2 bf
       0.07098654895176981 -0.14720807846466555
000190 a7 f0 3f 34 50 e8 b2 3f 11 4c b8 c8 9f d0 a1 3f
       0.07385731959942864 0.03479480099863264
0001a0 ca 79 5d 77 a3 74 c5 bf 8d ae 0c 96 49 46 b1 bf
       -0.16762202576042134 -0.06747875130957422
0001b0 ef cd f4 94 5a bd 45 bf 44 af e0 7e cb 8b c4 bf
       -0.0006634418768158272 -0.16051620192717497
0001c0 1b 16 c3 1e 17 55 c1 3f 49 29 c7 79 16 44 b1 3f
       0.1354092502789833 0.06744518731207906
0001d0 a9 92 57 fb e6 8b c2 bf c3 e7 74 36 c0 9f cd 3f
       -0.14489447853624896 0.2314377084638278
0001e0 1c 8a 8f e3 f9 fe c3 3f 6f 12 6d 6f 21 6b c1 3f
       0.15621875392305717 0.1360818666527339
0001f0 af 91 4f da da a4 c6 3f 96 84 21 3b 15 84 8d 3f
       0.176905972096518 0.014412084452660328
000200 c4 1b 12 6c 31 ff bb 3f 36 4f 4c c0 f5 03 c0 3f
       0.10936268700071056 0.12512084855608813
000210 d7 a4 28 04 b0 38 cb bf 46 61 17 b3 53 d1 c0 3f
       -0.21266746714653692 0.13138815159505607
000220 f4 92 d8 a0 38 38 c6 3f 51 23 1d 98 9e 47 b8 3f
       0.1735907349949667 0.09484282697407066
000230 3b 3e 8d 38 78 04 c7 bf 30 3c 00 c5 63 6d c6 3f
       -0.17982390176119786 0.17521330947099178
000240 42 07 0f 39 64 4b a5 3f cb 6a cb 06 5c 0d bd bf
       0.041590816464589966 -0.11348509946712253
000250 1b c3 fb d0 1a 55 6c 3f 05 57 cc 7a 34 ae bf bf
       0.0034585498577758395 -0.12375190732958792
000260 47 c8 53 dc 26 41 b2 3f 0d e8 f2 35 3d 8e c8 bf
       0.07130663756450516 -0.19184079298230508
000270 0e 8d 00 24 a8 d1 cc bf b1 f1 30 ef 93 82 c6 bf
       -0.22514821775357813 -0.17585992030389044
000280 9a ba 0b 2a 59 9b cd 3f 81 87 ea 46 e3 6b c6 bf
       0.23130335381525385 -0.17516747439099947
000290 bb 91 d5 e7 5d 33 c4 3f b9 2c 7d 89 22 99 a3 bf
       0.1578175909045408 -0.038277701648064384
0002a0 1f 16 06 b8 5e b7 c4 bf 45 4a 07 62 1b c7 bb bf
       -0.16184600816284075 -0.10850688117287983
0002b0 d1 04 db 5e 3f 67 b7 bf 36 2f fb c1 b1 d1 cd bf
       -0.0914191824513353 -0.23296186420190573
0002c0 f9 40 af 06 17 aa c4 bf b0 3d 41 8c 35 54 c3 bf
       -0.1614407332076622 -0.15100735996609904
0002d0 9d 39 70 a2 f4 67 c5 bf b7 b6 f0 af 0a 20 a7 3f
       -0.16723497325479011 0.04516633413036913
0002e0 b2 98 34 f8 d7 76 b7 bf 08 60 18 10 dd 20 a3 3f
       -0.09165715989783754 0.03736010381197735
0002f0 20 d3 db 06 1b 98 c8 3f 8f 05 4c d1 70 6d c3 bf
       0.1921418937196444 -0.15177736491754643
000300 14 f0 0e 3b 1b 71 a6 bf 60 b3 71 44 62 cb c9 bf
       -0.04383168312003263 -0.20151928274153885
000310 2f b1 12 eb 69 15 b0 bf 65 cc 12 8a d1 9f cb bf
       -0.06282674779021556 -0.21581477395884288
000320 10 18 32 f2 44 b5 ac bf 78 c7 ab d9 ca 8e 84 3f
       -0.056070475163366607 0.010037979858200194
000330 ce 23 c9 4a cd 22 c2 bf e0 dd da 24 a1 b9 b3 bf
       -0.14168707038541445 -0.07705123090533261
000340 e3 21 7d 64 88 40 bf bf 00 e4 a3 82 eb cf b6 bf
       -0.12207844212856105 -0.08911010684450105
000350 2c b4 95 15 50 09 c7 bf 0e f0 04 09 49 0a c5 bf
       -0.17997170499748572 -0.16437638225932044
000360 d5 d1 b3 57 0f 8c cb bf 3b 74 dd c5 02 53 c8 bf
       -0.2152117899164653 -0.19003328954105023
000370 e3 56 31 1f 8d ff b0 3f d5 c0 bc 68 55 ff a4 bf
       0.06639940272847471 -0.041010540995900215
000380 eb 82 0e 02 5e 85 c8 bf 7b ab ae ef a9 54 ba 3f
       -0.19157004452156143 0.10285436727160217
000390 ec bf a2 43 cf 2a c3 3f 3a bb 53 6d 41 fe b5 bf
       0.14974394609953323 -0.08591088217847878
0003a0 7e 2f 92 cd 5f 76 a9 bf 93 10 3c cd 2e 7c ca bf
       -0.04973124870693278 -0.20691475888464037
0003b0 f5 dd e3 81 8f fc 6e 3f f3 dd b8 ee 30 a8 c7 bf
       0.00378253964219843 -0.1848202863345559
0003c0 3b 4a d7 72 20 9a ca 3f 4f 20 7c f1 0f ce ba bf
       0.20782857520551254 -0.10470676084162388
0003d0 32 81 cb 6b 32 a2 c4 bf d6 89 22 55 6f dc b5 3f
       -0.16119985831665812 0.08539481953133729
0003e0 4e 8f a1 8d 86 f5 c7 bf a4 88 b5 ec 7b 1f c6 3f
       -0.18718034663754185 0.17283581789076152
0003f0 01 77 d5 98 a3 71 c0 3f 5c 82 7e d5 7f d7 c1 3f
       0.12846798861112776 0.13938901829262107
000400 98 45 12 3b 5f eb 8f bf 1f ef c1 a3 54 82 cd bf
       -0.015585655203070911 -0.2305398749921261
000410 bd d5 11 d6 14 2f c9 3f 43 69 f0 1b e1 eb ca 3f
       0.19674931004162302 0.21032346595968407
000420 f0 93 5b 3a 17 a9 8a 3f b7 5a 48 4a 32 c5 cd bf
       0.013017827480732408 -0.2325804579456496
000430 9f 22 b2 82 1d 6f 8e bf 75 6a 00 59 fb bf 65 bf
       -0.01486037306882909 -0.0026550206312213006
000440 6f 24 19 d5 68 86 bf 3f 0b 4c dc e5 81 b8 b7 bf
       0.12314467623322554 -0.09265910970525242
000450 be de 75 ee 88 b4 bd 3f bf ed 1f e1 37 5a ae bf
       0.11603599378383486 -0.059282060843510724
000460 d9 ad 9f a3 82 98 c5 3f 0c 3b 0b 7e 03 fb bb bf
       0.168716745275886 -0.10929891421549714
000470 1d 41 ee 14 ac 5d a4 bf be 80 66 59 83 51 98 bf
       -0.039777162127508904 -0.0237484477344203
000480 ea a2 8d 0e b9 75 ab 3f 69 52 d3 40 3f 44 bd bf
       0.05363252928402125 -0.1143226178422282
000490 c5 50 80 d3 4c c4 ce 3f b3 01 91 81 7c f4 c5 3f
       0.24036560370644203 0.1715236313484759
0004a0 92 d8 da f2 56 26 a4 3f d0 59 5e af f6 d6 a6 bf
       0.03935500826394035 -0.04460879221658198
0004b0 42 d4 d2 10 7f 33 94 3f fa a4 9e 28 e8 78 ba bf
       0.019727692987278063 -0.10340739242259991
0004c0 91 13 b7 bc 25 5b c1 3f 34 ae 9b 7a 0c 3d c6 3f
       0.13559409823042448 0.1737380598709578
0004d0 35 61 bb 70 b5 32 a0 3f db cb 3c 4f b4 ef c3 3f
       0.031636877070641146 0.15575269574182368
0004e0 03 78 d1 3d b1 14 bb 3f 81 f7 41 33 d2 35 89 3f
       0.10578449019655527 0.012309686841259328
0004f0 8e 73 b6 f8 bd d1 a8 bf 5d a8 c4 2e 37 f9 c6 3f
       -0.04847520504993162 0.17948045524218773
000500 4f 43 fe c0 b8 1f af bf ac 37 65 6c 3f aa c6 3f
       -0.06078889232515527 0.17707054894202423
000510 c6 11 fe 2b c4 1a a0 bf a3 70 85 68 cb af ca 3f
       -0.031454210634396726 0.2084898243291536
000520 95 8d 8e c3 ff d9 7c 3f 0d 1e 9e 92 1f f8 94 bf
       0.007043837621412937 -0.020477765392142234
000530 05 35 66 69 eb c0 be bf 84 5c f8 85 7e 64 b9 bf
       -0.12013121913169662 -0.09918967028385067
000540 b6 72 2b b8 ab 47 c7 3f f4 7d 75 19 38 24 c3 bf
       0.18187471859609666 -0.14954282038796374
000550 40 9e ed 40 6c ea be 3f bd 45 0b e7 d8 3b c4 3f
       0.1207645090595344 0.15807639390417974
000560 bc c6 c0 50 2c df ba 3f d7 67 40 2f 2f eb ca 3f
       0.10496785136708814 0.21030225569921754
000570 e7 5e 7d ee f4 d6 c1 3f 66 08 65 a4 3b 1e c6 bf
       0.13937245984083477 -0.17279763724406222
000580 96 28 40 98 52 84 cb bf d7 8e f6 b2 2e a6 cd bf
       -0.21497566637146254 -0.2316339849322648
000590 f8 5f a1 15 9b 1a b6 3f 58 4e 14 a5 de e0 cd bf
       0.0863434722717783 -0.23342497883332913
0005a0 be 70 b4 28 3c 9a c1 3f 84 b7 ef bb f2 d0 b3 bf
       0.1375193785432937 -0.07740704620638722
0005b0 16 d6 f1 7c 17 5a a2 bf 96 d7 cb 85 f6 32 a5 3f
       -0.03584359550670173 0.041404441673804346
0005c0 fb f4 e0 49 5b cc c1 3f 10 f6 51 81 00 24 96 bf
       0.1390489683853174 -0.021621711628986573
0005d0 59 6b 32 ec 62 42 a6 bf 57 87 d5 b6 62 ac ba bf
       -0.0434752381636005 -0.10419289554331833
0005e0 c1 83 d1 25 75 7c ce 3f 56 ac 4c c7 4c 33 ca bf
       0.23817314478495002 -0.20469054919644475
0005f0 28 a6 9d e6 bd 5d b9 3f 1f ba 45 b4 83 c2 c9 3f
       0.09908663635510406 0.2012486105190456
000600 00 4f 69 e2 38 00 c2 bf 8e 93 1b e8 ac 74 c8 3f
       -0.140631781151221 0.19106065114388254
000610 a9 1c 17 3b 9f 04 c0 3f 41 c7 9b f7 51 90 c3 bf
       0.12514105210559492 -0.15284180250415072
000620 50 b2 7f b8 4c 31 c3 3f 18 3b 5d 79 37 46 b7 bf
       0.14994200714808636 -0.09091517174713848
000630 bf 5d 80 71 c0 73 c9 bf ed 69 c3 e5 e9 b4 c5 bf
       -0.19884496252119097 -0.1695835468188557
000640 05 e0 bd cc 62 f9 b9 3f af d9 fb 55 83 4a a2 bf
       0.10146157740189217 -0.03572473930937591
000650 85 84 4f 6e ec ad c3 bf ee 8d cd 0a 3c 32 b2 3f
       -0.15374522577534236 0.07107901824706861
000660 02 1f ea 89 57 24 5b bf 6c 9d 4f e3 e1 6c c9 3f
       -0.0016566138143918057 0.19863532637757986
000670 e9 b2 06 4d 2f b5 c6 3f 10 44 53 4e 35 40 c9 3f
       0.17740432034533818 0.19727197956538634
000680 bd 38 a4 cf ce b9 ae bf 31 f8 d6 d5 58 06 ab bf
       -0.060011351439344086 -0.052782798865777976
000690 f8 d4 19 95 d9 b2 bb bf 7c ec 65 cb 98 2b 70 bf
       -0.10819778337630115 -0.003947827199563322
0006a0 18 15 6b 64 8b 41 bc 3f 1a e6 9f 0c 06 9c c9 bf
       0.11037512971514152 -0.20007396332202704
0006b0 55 ba 8b a1 ab 11 b5 3f 07 18 1d 31 9f 49 8b bf
       0.08230087942113447 -0.013324016271905504
0006c0 90 2c 25 e1 7f 75 bf 3f 73 14 8d 9c 6c 31 cd bf
       0.12288665053090342 -0.2280708088311801
0006d0 54 18 06 39 26 a1 bc 3f bb f1 8e 84 40 e4 c5 bf
       0.11183394329245405 -0.17102819893433527
0006e0 74 17 38 4e 32 ff b9 bf 79 2e b7 2d 7a b3 c5 3f
       -0.1015502396549815 0.1695397113056634
0006f0 c5 e8 6e 3b 00 8d 8d 3f b6 42 77 c7 b4 de ac 3f
       0.014429094136961482 0.056386613224849766
000700 a4 65 be 10 35 03 c4 3f e4 6e c4 d0 88 86 a8 3f
       0.15634787862363198 0.04790141628674663
000710 b2 fb 9c 80 38 35 ca bf e9 ad 36 79 d1 72 c5 bf
       -0.20474916725103537 -0.167566475092243
000720 10 ab 6e 7a 64 52 c6 bf a0 48 27 b5 36 2f 94 bf
       -0.17438941934718644 -0.019711355978707545
000730 99 72 b0 91 16 97 c1 3f 4f a5 47 ac 82 d9 af bf
       0.13742334474308818 -0.062206347971207714
000740 f1 fe 7d 06 e3 d2 c1 bf 02 47 3c e2 b0 cb c7 bf
       -0.1392482549381309 -0.18590365454343077
000750 04 1a 08 e6 92 08 d0 bf ef e3 b1 fe 76 06 60 3f
       -0.2505233045962145 0.0019562076682260103
000760 5b 86 2b 9d 52 92 b0 bf db c5 67 83 bb 2a b0 3f
       -0.06473270737799323 0.0631520458043932
000770 28 bb f8 74 ac 74 c1 bf a0 d8 07 b2 9c 87 c6 3f
       -0.13637309752945126 0.1760135525980262
000780 cd 2b 03 13 e4 44 7a 3f f8 02 98 83 30 e5 b3 3f
       0.00641335574637032 0.07771590435732978
000790 5c a2 20 a9 03 f9 a3 bf 2d 43 d4 dc 42 84 c4 bf
       -0.039009203334278125 -0.16028629095719663
0007a0 df 73 02 de f8 bc a4 3f 7e 23 00 b4 6e 2e c4 bf
       0.04050424299314392 -0.1576670054348845
0007b0 e1 d6 bc 2c cd 7d c2 3f 4c 09 39 27 9f 4c c7 bf
       0.14446415600257637 -0.18202580847907723
0007c0 cb a1 f6 5e ce 61 b3 3f 64 c5 9e 05 1b e6 a1 3f
       0.07571115320627723 0.034958691059169295
0007d0 2a d6 21 1b a8 f7 77 bf 32 f9 2e 9b ed 26 49 3f
       -0.005851418174747583 0.0007675800501301454
0007e0 84 63 c8 34 a6 02 ca bf 74 f9 ce 2a 19 e6 c7 bf
       -0.20320584847720735 -0.18670954313524712
0007f0 0b 10 12 10 14 23 b7 bf e6 75 c3 77 1d bd cb bf
       -0.09037900345180121 -0.21670883510425581

lstm.bias_ih_l0 f8 [84]
000000 d7 38 b8 d4 4f 5f b0 bf c9 b4 a5 68 2f 17 c9 3f
       -0.06395434325552017 0.19602005586367557
000010 da 7a e7 f6 58 f4 c6 3f db c0 0e c6 03 2b ab 3f
       0.1793318944537166 0.05306255142875368
000020 cc 81 ab 42 0d 36 c4 bf 17 b7 bb 17 5c 4e a9 3f
       -0.15789952998512857 0.04942596235001256
000030 25 af b6 5c 2d 31 ba bf 64 74 04 42 db cf c2 bf
       -0.10231288445964688 -0.14696827624803455
000040 bc 08 2a 38 cb e3 b1 bf b9 3b 90 88 fe 7e bd bf
       -0.06988210793682276 -0.1152190287977949
000050 39 95 e9 96 4d 83 ad 3f af 6e 84 20 0d 3e b2 3f
       0.05764238803093708 0.0712593273532842
000060 ec f3 cf 8d 84 68 af 3f c6 12 80 3b 77 7f bc bf
       0.06134428244693155 -0.11131997301715577
000070 62 9e 17 2c c2 3c 6d 3f 83 a3 df bc 82 91 c1 bf
       0.0035690109659645567 -0.13725313398688507
000080 e4 88 ea 5a cc 4d b3 bf e0 74 bc b9 77 06 c9 bf
       -0.0754058572734127 -0.19550987786434515
000090 b7 95 d0 44 50 4e ba bf 92 04 a2 35 d7 1d c7 3f
       -0.10275746994064759 0.1805981647376354
0000a0 6f b6 55 41 fb 00 c7 3f 8a 26 e5 c4 4d 7c ad bf
       0.1797174519555713 -0.05758898762230753
0000b0 be 88 a9 ba a8 6b a6 bf e8 62 75 ed 5c d0 c0 3f
       -0.04379012373534995 0.1313587340798883
0000c0 3c 79 86 fe 3f c2 bb bf 0a c9 a3 ba e1 69 a1 3f
       -0.10843276943203234 0.03401093867604928
0000d0 1f 0b 7c 6c aa 0b cc bf 00 95 05 75 db a2 c0 3f
       -0.21910600945565137 0.1299700089831859
0000e0 2e 29 15 53 f2 6a ac bf 92 11 58 e9 d5 90 c3 3f
       -0.05550343765442488 0.15285753148795017
0000f0 c3 3a 00 42 f2 24 c6 3f 0e 8a ab d5 18 d8 7b bf
       0.17300251219463378 -0.006797883043619736
000100 4c 59 5f f0 dc 21 c0 bf 8c 55 8d 21 68 4d ba bf
       -0.1260334180539736 -0.10274363345282306
000110 b4 5a a1 7b 2e 27 cb bf 39 0c a9 2f 0b a0 b1 bf
       -0.21213322674403445 -0.06884832299788081
000120 1a 5b 88 01 c0 51 c2 bf cd 68 a0 f6 7d 01 b7 3f
       -0.1431198127254099 0.08986651679188924
000130 39 71 b2 99 77 8a b0 bf 7b be c2 c0 fe 76 86 3f
       -0.06461284162873406 0.010969152696218778
000140 9d 2a 84 4f 24 1f be 3f a0 63 6e 5e 3b f4 b2 3f
       0.11766268674197496 0.07403918319177061
000150 c9 e1 c7 9e 55 e2 b2 bf 63 63 5e f2 0f 57 c7 bf
       -0.0737660896919642 -0.18234443029794098
000160 9c 6b 5d ea 41 1f a6 bf fc aa d0 11 05 27 bb bf
       -0.043207225665091914 -0.10606414494456468
000170 6f c8 da 4b 99 f3 b7 3f f6 32 a8 ab 30 6f 9e 3f
       0.09356077291411834 0.029721031643975736
000180 16 8e 63 4c 69 39 93 bf 84 52 6f 4e 6e 66 c8 bf
       -0.0187736943124844 -0.19062594251467513
000190 88 59 17 bb 2c af be bf d7 36 7f c0 af e8 32 bf
       -0.11986045425087444 -0.0002885274011504685
0001a0 ad 54 a8 e3 0d 6e c7 bf 60 99 62 49 ed 66 c8 bf
       -0.18304608932581826 -0.19064107974299827
0001b0 17 dd 18 ba 7d 87 c0 bf 1f 10 93 56 0b 04 ca bf
       -0.12913486086629497 -0.20324842192906176
0001c0 84 67 c0 ce 43 ad 99 bf b3 2d 0b b2 d6 2d c6 bf
       -0.025075015539278947 -0.1732738847116316
0001d0 1f 85 81 ad 5c a6 cc bf ce 29 04 1e db 9d c2 3f
       -0.2238269660183869 0.14544238057744824
0001e0 d5 b0 f7 d0 d5 dc cc 3f 67 cf de 10 c6 2d c8 bf
       0.22548935607426893 -0.18889690231082598
0001f0 b2 79 6e 51 50 5a c0 3f b7 ae 39 38 26 bd cf 3f
       0.12775615669393187 0.24795987840058384
000200 1e aa fb 3c a3 72 ad bf 7d f9 e3 11 e0 da 9b bf
       -0.05751524085447478 -0.027202130405379322
000210 f2 a2 dc 01 46 0b c4 3f 53 90 96 dc 11 59 be bf
       0.1565940388766403 -0.11854659686520223
000220 1e ff 74 a2 9a 59 b4 3f 18 cf 76 2b 92 01 a3 3f
       0.07949224916682993 0.03712136059348675
000230 a1 e9 59 2b 03 6f bc bf 29 dc 12 10 4b be ac 3f
       -0.11106891449336455 0.05613932200633826
000240 a8 f4 10 f0 0b be c8 3f 98 8b f9 3d 67 66 ae 3f
       0.19329976293548623 0.05937502509620812
000250 19 44 a3 2d b1 9f c3 3f ee 23 91 64 dc e4 ab bf
       0.15331091621786255 -0.054480445171584665
000260 b1 fb 93 96 ec 41 80 bf 7b 5d 3e a8 4d 08 ce bf
       -0.007938240380551994 -0.23462839808483324
000270 86 51 37 6a b5 65 b7 bf 91 04 10 76 70 ef 99 3f
       -0.09139570086637691 0.02532745094868411
000280 aa 5a b2 50 ea 8c c8 3f 69 41 3a 63 ab b8 c6 bf
       0.1918003934885822 -0.17751066536994678
000290 e2 4c 0c 94 ad d8 bd bf f5 a4 c6 df c8 b9 bb bf
       -0.11658749451116848 -0.10830359900741711

lstm.bias_hh_l0 f8 [84]
000000 14 1d 1f 2d 36 fd 91 3f c2 b4 a5 a8 9d 2b c1 3f
       0.017567488197326744 0.13414355025034835
000010 0a 0a 31 52 32 53 b1 bf 00 7e e2 73 ad 58 9d bf
       -0.06767572886113996 -0.028658590505640902
000020 34 7e 54 dd e9 bb c8 3f 8b db dd 0b 32 75 b9 3f
       0.19323466593867666 0.09944451131546665
000030 63 a8 a4 71 28 0b c3 3f fe 16 f7 3b 59 e9 b7 3f
       0.14877801465019322 0.09340436662668236
000040 64 11 54 30 a4 5a a7 bf 16 e2 b7 eb 68 98 c3 3f
       -0.0456134137148492 0.1530886794059973
000050 9b ca 74 cb 5c 75 bf 3f b8 c8 bd cf f6 10 c2 bf
       0.12288455931847368 -0.14114270347233115
000060 e5 f9 e7 46 df 47 b9 3f 95 f6 3f e2 71 3b c3 3f
       0.09875293236834855 0.15025161311489357
000070 6d a1 4f b7 ca 04 cd bf bc b8 40 c6 ec 68 b6 3f
       -0.226708735949852 0.0875385269179984
000080 87 e8 ae a2 64 4c 65 3f e0 74 bc d9 1e 5c c5 bf
       0.0025999036347146873 -0.16687379485748632
000090 ec 4a 68 c2 c7 99 c7 bf 92 04 a2 75 d4 1f c4 3f
       -0.1843805026297426 0.15722137206833914
0000a0 4e b3 ad 0a 22 ff 94 3f 42 cb d6 d8 c9 97 72 3f
       0.020504505063786475 0.004539288010550648
0000b0 42 77 56 45 fc 9b a7 3f b2 e8 54 94 4c 31 97 bf
       0.04611194940956277 -0.022648998788306236
0000c0 13 1b e6 85 7a 86 90 3f 80 1b ae e2 9f 30 b1 bf
       0.016137995169198293 -0.06714820179159453
0000d0 f3 58 e0 63 14 1f 9a bf 14 d6 f4 95 ff b0 ba bf
       -0.02550918445202739 -0.1042632809738609
0000e0 3d 5b ab b3 4e 8d 84 3f 89 11 58 29 55 5b c2 3f
       0.010035147531579742 0.14341225165129526
0000f0 a0 8a ff db da 63 bd bf c1 e2 6a 35 76 f5 9b bf
       -0.11480491515207314 -0.027303549776408035
000100 4c 59 5f 70 d2 c6 c0 bf f3 55 35 86 78 25 92 bf
       -0.13106756674705833 -0.017721064750125092
000110 ab 5a a1 5b 42 16 c1 bf 11 7a 2b 48 27 64 c9 3f
       -0.13349179720053903 0.19836894058148904
000120 a6 93 de 79 16 55 a0 3f cd 68 a0 76 0d 22 bf 3f
       0.03189916837371891 0.12161335130841451
000130 26 c5 c9 66 54 be 90 bf e5 2b 0c 2c 2d 38 c0 3f
       -0.016351050161067658 0.1267143693042662
000140 9f ea 3d 18 9d 96 c6 bf 9f 63 6e 5e c2 c1 b4 3f
       -0.1764713638657058 0.08108153157662777
000150 36 1e 38 a1 fa 08 b4 3f 9f 72 86 b6 13 8a a9 3f
       0.07826200901046651 0.04988156893816619
000160 03 5b 97 ba 07 4a c3 bf e6 a9 5e 1c fc 53 ae 3f
       -0.15069672213459037 0.05923450323401251
000170 6f c8 da cb 5b 9f b8 3f 7c 19 d4 55 ef 57 a7 3f
       0.09618161894721465 0.04559276507102347
000180 de 38 ce 59 f7 8a a6 3f 3a a5 de dc 0c 38 b7 bf
       0.044028978073684874 -0.09069900886847374
000190 8d 59 17 bb dd a1 b0 bf 9b 3f e0 b7 df 0c c3 bf
       -0.06496988122612475 -0.14883038023299097
0001a0 b7 56 af 78 0e 84 b0 3f a0 66 9d 96 72 60 c0 3f
       0.06451502272042374 0.12794334749451242
0001b0 2d dd 18 4a 36 94 c3 bf 36 20 26 6d 58 e4 bf bf
       -0.1529605733682983 -0.12457802452820563
0001c0 0a f3 27 a6 75 b2 c2 3f 9f 5b 16 e4 00 c2 b0 bf
       0.14607115376556862 -0.06546025818384614
0001d0 20 85 81 7d 70 db c0 bf c3 53 08 3c 7f b6 be 3f
       -0.13169675949306114 0.11997218337667363
0001e0 d6 b0 f7 90 4c 73 c6 3f 04 9f bd 61 04 45 be bf
       0.1753936488961531 -0.11824061762092347
0001f0 be f3 dc 22 ff 80 be 3f b7 ae 39 b8 c9 c0 cf 3f
       0.11915583230161439 0.2480709218538004
000200 ec 2a 82 81 0f 12 b8 3f cc 80 c3 3d 6e 9e cd 3f
       0.09402558242633646 0.2313974191265572
000210 e1 b9 46 dc 82 01 b1 bf 27 48 4b 2e 74 84 c6 bf
       -0.06642930867994991 -0.17591717014744399
000220 5e 80 c5 6e 6d 36 c9 bf e7 30 89 54 e9 c0 aa bf
       -0.19697349461330566 -0.05225304753239062
000230 d6 f4 ac 15 20 2d c0 bf 1c b7 04 04 4b 78 cc 3f
       -0.1263771158063835 0.22242105194293849
000240 61 d2 43 c0 3c c1 a3 3f 59 74 06 42 f3 51 a1 bf
       0.03858365866645808 -0.03382835560771786
000250 25 88 46 5b 18 33 b1 3f 12 24 91 64 1e f4 a8 bf
       0.067185900005399 -0.04873747804283125
000260 2d c0 96 f6 0a 9d c1 3f 7b 5d 3e 48 ec 1a ca bf
       0.1376050666854111 -0.20394662406463823
000270 09 57 e4 1a d3 2d c9 3f 8a 00 c2 2e e2 ff c9 3f
       0.1967109566982617 0.20312144549462047
000280 57 2b 6d 7a d7 d3 9d bf 2a 0b d2 19 6b b3 99 bf
       -0.029128424498860408 -0.025098489237744527
000290 9a 99 18 a8 bc 32 a0 bf 97 ad 1c 90 6b 3a ca 3f
       -0.03163709213213224 0.20490784203262244

linear.weight f8 [1, 21]
000000 72 e4 e9 31 f1 c9 a4 bf 33 fc cb dd 47 56 c2 3f
       -0.04060319647118939 0.14325807886049943
000010 58 a3 46 1b eb 6b 97 3f ac 35 ca da 2c 16 c1 bf
       0.02287261346797051 -0.1334892338094681
000020 de 0f 39 6a be e8 c6 3f f7 09 96 61 d9 35 8f bf
       0.17897777735390624 -0.0152394278436576
000030 10 a8 f9 4b 77 14 c9 3f bf ac c2 d5 0c f9 9b bf
       0.1959370728466756 -0.027317238375570648
000040 c8 f9 f2 17 6f 79 b1 3f 44 71 51 d5 60 b0 c0 bf
       0.06825918516822249 -0.13038263717579401
000050 68 b8 95 4d 54 b9 cc 3f ee c7 23 31 2b eb cc bf
       0.2244058016617061 -0.22592677974131398
000060 83 4a 55 19 8d 77 ae bf c3 14 51 bb e8 7f c8 3f
       -0.059505853025844345 0.19140347620319717
000070 27 f1 4f 82 86 79 c4 3f f0 0b 2c fe a6 ca cc 3f
       0.1599586616793058 0.22493445788140276
000080 47 cb 57 ca b4 2c c4 bf 6b 60 95 c6 08 d1 c9 3f
       -0.15761432533289563 0.2016917199750908
000090 67 97 78 38 b4 5e 83 bf 96 ea 87 1a 4d ee c0 3f
       -0.009457977269515984 0.13227237506346928
0000a0 9e a4 a4 a3 cf 8e c0 3f
       0.12935824861896078

linear.bias f8 [1]
000000 93 23 e2 e6 b9 44 ca 3f
       0.20522235654450735
