Thesis-codes/Exp-1/results/ew2/save_model/7/LSTM_1_best_train_20.pth (torch, 18327 bytes, 6 tensors)

lstm.weight_ih_l0 f8 [84, 1]
0	0xbfb3fd1e7f88eea8	-0.07808104146618666
1	0x3fc36cde6d939ee3	0.151759913925381
2	0xbfb4938cc8fa21ef	-0.08037643343607902
3	0x3fd2cf9ced2ea23c	0.29392169153519254
4	0x3fd02cbce845efd9	0.2527305858891374
5	0xbfb5db706ea18294	-0.0853796262831657
6	0x3fd2ef0ed6bb72e6	0.29584094018882323
7	0x3fb119dadd21a7d6	0.06680076502530538
8	0x3fc2df5593f62021	0.14744062161139573
9	0x3fa44d3a8864113a	0.03965170779159384
10	0x3fab3ebdc6961286	0.0532130532183475
11	0x3f81299bc3d01995	0.008380143082842998
12	0x3fc4934b6b6b240d	0.16074507470173707
13	0x3fd37f118822c78a	0.3046306447459918
14	0x3f9865d2a20486df	0.023825923098349185
15	0xbfc165adfac27bbd	-0.13591551536680227
16	0x3fc1169aca87344a	0.13350233925885596
17	0xbfb3c9bf68b4a19a	-0.07729717546738471
18	0x3fcbf290a686e165	0.2183399975890651
19	0x3fa65ca05db576e9	0.04367543357760246
20	0x3fbdd49c0f4a2267	0.11652541516571945
21	0x3fcfe8f7a750d4c3	0.24929710073198494
22	0x3f89e10bc0c68bd4	0.012636272259276916
23	0xbfceaceb8dd5d41b	-0.2396521036677378
24	0x3fb53933ece12373	0.0829040959662402
25	0x3fc358237596a7c3	0.15112727395654532
26	0x3f9c2d0634ce95c8	0.027515503857690665
27	0xbfb89436fee72cad	-0.09601157878130336
28	0xbfd3edd5bdcd86bb	-0.3113912919562655
29	0x3fcd180029600534	0.22729494114177273
30	0x3fb188e791868bd9	0.06849524786825557
31	0xbfbb05eb02036a6f	-0.10555905150560262
32	0x3fd398b4e50d449b	0.30619547241537654
33	0xbfbb0064a20e62e0	-0.10547474819612601
34	0x3fbf5e640ad7ef26	0.12253403916104996
35	0x3fcd53c288c38f3e	0.22911864927220366
36	0x3fb64a2db3f6332b	0.08706937450024259
37	0xbfa56b322f3086bf	-0.04183346582455049
38	0x3fab974489ce1350	0.053888456174752464
39	0x3fc3c238da92d19f	0.15436468765768738
40	0xbfbca9fa0e5d34c8	-0.11196863985715588
41	0xbfd3a2be0a752e10	-0.30680800458205315
42	0x3f606f7ee341bccc	0.0020062902713601
43	0xbfbc83a9bd4d4141	-0.11138401862740911
44	0xbf6f0593f43958c7	-0.003786839459091504
45	0x3fc6fee6ea4cd5f2	0.17965399208485128
46	0x3fc6a0d4da1e0457	0.17678318643814592
47	0xbfc265866e842f58	-0.1437233008986094
48	0xbfd0de2000bd9c71	-0.2635574347718324
49	0xbfb564664e25c271	-0.0835632267751494
50	0x3fbd67bb9d5fbe09	0.11486408798349869
51	0x3fc8be328ffc7e43	0.1933043673570741
52	0xbfc28e5311ad8104	-0.14496839869662648
53	0xbfd0f48d76cb5968	-0.26492630578049736
54	0xbfba15251f41de8a	-0.10188514721982692
55	0x3fd129cb181f65d5	0.26817586284377387
56	0xbfcb622e96a47575	-0.21393377643191128
57	0xbfb1616ebf9dde07	-0.0678929536642202
58	0xbf5713f4fe8aeb01	-0.0014085667154818962
59	0x3fc1007fb5a467e7	0.13282772416351848
60	0xbfcfbdbc788142c7	-0.24797778972653914
61	0xbfd22d1088752c17	-0.28400052381465585
62	0xbfc1b10bbdff0c25	-0.13821551110422195
63	0x3fb894eb27150e38	0.09602231697231722
64	0x3fd32cf4c5183643	0.2996189045669306
65	0xbfccae826c99c395	-0.2240756063725057
66	0x3fccacd8f34df6f0	0.22402488594155257
67	0x3fd20a130e376073	0.28186489475547843
68	0x3fc95e202526ece0	0.19818498434128795
69	0x3fc633927a6461d5	0.17344885803392054
70	0xbfc527d9019435ee	-0.16527855469796243
71	0x3fa7371c8cd3507c	0.04534234255848532
72	0xbfc3d2e2915d374c	-0.15487320039613406
73	0xbfd05d7b6de3e692	-0.2557056973597379
74	0x3fbcf1bc2c1812d6	0.11306358410372339
75	0xbfad8079df59f28f	-0.05762081958252906
76	0x3fd103bac0c02d49	0.2658526308375327
77	0x3fcf88e02b14358d	0.24636461356605502
78	0xbf804d94a6ac04e3	-0.00796047338144707
79	0x3fc6958dd81b8b65	0.1764390282833929
80	0xbfc2a2474dec8190	-0.14557734780192932
81	0x3fb7076c3bffd0f2	0.08995701279474469
82	0xbfa7081fb90a47c7	-0.04498385556975353
83	0xbf8c0553f658cab9	-0.013682037310990368

lstm.weight_hh_l0 f8 [84, 21]
0	0x3fc8ecfb4e7c7d72	0.19473210651720368
1	0xbf4473784678fcaa	-0.0006241166383417391
2	0xbfac89474aa3ec5c	-0.05573485170494827
3	0xbfb48bd893c88dec	-0.08025888069146675
4	0xbfa8d21eba34af42	-0.04847808859844217
5	0x3fb7340d1759794e	0.09063798732811287
6	0x3fca83827389113f	0.20713835374238873
7	0x3f9a408b23109d9c	0.02563683892745204
8	0xbfcced6f888487b3	-0.225995961817771
9	0xbfc66ec4b7a0de0a	-0.17525538412313352
10	0xbfce628c6a139bae	-0.23738246135255053
11	0xbf85f01e815efcc4	-0.01071189720448585
12	0x3fbc48300da7712b	0.11047649701453525
13	0xbfc845db6d1b1530	-0.1896318705313802
14	0x3faf23192894c813	0.06081465359092433
15	0xbfc2a922e34491ba	-0.14578662964880867
16	0xbfbd0c07f285212a	-0.11346482916735981
17	0x3f9c912f0897ff6f	0.02789758195831332
18	0xbf94b22935c3f288	-0.020210880190449504
19	0xbfaa646f9a92bca4	-0.0515475155055978
20	0xbf9d1d263af6e05a	-0.028431508397006013
21	0x3f7e36a83b8e7a19	0.007376343878517954
22	0xbf53236e24f6e076	-0.0011681151989773298
23	0x3fc661855f21ee92	0.17485110421317934
24	0xbfc74b2a9dd6c54e	-0.1819813986490239
25	0xbfbe3df277537a07	-0.11813273823961633
26	0x3fc94e06e16135b8	0.19769369130010062
27	0xbfc659cace435f66	-0.17461524077838958
28	0x3fc17d18dee04d83	0.13663016207338438
29	0x3f9030bcf9dfb18e	0.01581092143162404
30	0xbfa13cab25e50f5a	-0.03366598928053462
31	0x3fac3589ac2eee26	0.05509596087310013
32	0xbfb097389d075eac	-0.06480745156965878
33	0xbfcedad4cdceb58e	-0.2410532002372005
34	0xbfb15df36db0cf60	-0.06783982685084089
35	0xbfcb6dffb4b50149	-0.21429439853273838
36	0xbfcf5d0f4523be48	-0.24502745510061374
37	0x3fad486236591ec7	0.05719286836079856
38	0x3fc85cf3ce155afd	0.1903366810099313
39	0xbfaf3ad4c825216a	-0.060995721275108064
40	0xbf93c30eb6a9afdf	-0.01929877271543023
41	0xbfa26148a1d71f9b	-0.0358984658774368
42	0x3fbb60a77549400a	0.10694357503348342
43	0x3f9e6105d53215ce	0.02966698755019142
44	0x3fbfda58edc4ce1a	0.12442546658422096
45	0xbfcae6296c894aac	-0.21014898109077274
46	0x3fc0a2782bd3daa3	0.12995817317979172
47	0xbfc256f56e296f8e	-0.14327876929280275
48	0xbfc2eadbef575917	-0.1477923315675944
49	0x3fb951648b472f38	0.09889820480674139
50	0x3fb80a222540c1b0	0.09390462312217696
51	0xbfc4a597bc422153	-0.16130348865795927
52	0xbfc38838ca9e1aec	-0.1525946606963865
53	0x3f98a628472e759e	0.024071339935849083
54	0x3fbe7cb58e4b7031	0.11909041141501643
55	0xbfc633080b2b61d0	-0.1734323553598771
56	0x3fc592d89ccda3f9	0.1685438886300117
57	0xbfa9cf0eda2a814e	-0.050407852298351416
58	0xbfb81c68fce0b58f	-0.09418350385450068
59	0x3fc110978a20c928	0.13331884617361678
60	0xbfc1b355207bf2f9	-0.13828529440061013
61	0xbf91a5cc99a61ad1	-0.017234036329251638
62	0x3fbe154c18b39a2e	0.11751247027459819
63	0x3f8a2f0e20ce48e6	0.012785063148644981
64	0x3fa158f5aa22eff0	0.03388183309422732
65	0x3fd2e30e9cdfa3f5	0.2951084644287783
66	0x3fb5c7f186b1f450	0.08508214510398315
67	0x3fab5b7ad2bba2b2	0.05343231031821939
68	0xbf9e31d70ee06815	-0.029486999781603702
69	0xbfa0b95d878e7848	-0.03266422538511954
70	0x3fcadf9acb55668e	0.20994887283704994
71	0xbfc4ad3807e07087	-0.16153622040372204
72	0xbfa7fa6bebe0ab08	-0.04683243994107583
73	0xbfac6c406cac75c7	-0.05551339460928833
74	0x3fc09f922c70ca76	0.12986972017241144
75	0xbfacc8ec62e18c14	-0.05622042376560202
76	0x3fbc6ef983311418	0.11106833889887502
77	0x3fbdc04955b267c5	0.11621530859193203
78	0xbfca25415947fed1	-0.2042619405692592
79	0xbfd065edd4397f47	-0.2562212536340564
80	0xbfc3b00810af7408	-0.1538095551940446
81	0xbfc8b2b8a2826ac5	-0.19295413908988315
82	0xbfa1573dc024c5ce	-0.033868722634348467
83	0x3fb77786c00a0a37	0.09166757763345222
84	0xbfac9f371b8cabe1	-0.05590221606538371
85	0x3fb64e71b324f938	0.08713446258204705
86	0x3fbbbdf044362b33	0.10836698212930855
87	0x3fc4b704707d26cc	0.16183524601574673
88	0x3f80a63df45bfbfd	0.008129581470255326
89	0xbfc89f7916e9664e	-0.19236672991501041
90	0x3fab9287e3604ffe	0.053852316385160734
91	0xbfb401fed671aee3	-0.07815544829798741
92	0xbfc5b116be14b0d6	-0.169466822445776
93	0xbfce0134a98abf5b	-0.2344117954103194
94	0xbfce279635057fbb	-0.23558309163035837
95	0x3fa5dde81196262e	0.04270863737754059
96	0xbfca07aeafb10637	-0.2033594472759874
97	0x3fc3fa8d7aa9c10b	0.15608376016053457
98	0xbfb4387a0d201fc7	-0.07898676701017769
99	0x3fade6846da64b34	0.0583993324136344
100	0x3fc5a46dd43cdf64	0.1690804754559806
101	0x3fd15cbc56dd5ebf	0.27128513796695225
102	0x3fc4e5d471e8a473	0.16326385080290926
103	0xbfc0d38c232c1593	-0.131455914663246
104	0x3fc11fcb3e3a8a40	0.13378277338513733
105	0x3fa284e5a69a64c6	0.03617017420510531
106	0xbfbc908bebbc533d	-0.11158060555710576
107	0x3fc7b164eca94429	0.1851011424610374
108	0x3fb9111b252bafae	0.09791726739393766
109	0x3fc8ee87a975905c	0.1947793557584444
110	0xbfc8f9065acd11ce	-0.1950996344913975
111	0xbfc609890b3e47e4	-0.17216599511135577
112	0xbfb484d82d5c9abd	-0.0801520453211237
113	0x3fab2c6da8ab0577	0.05307333644806083
114	0xbfd240e268ef4a18	-0.2852102303269546
115	0xbfc50cd81f738084	-0.16445447478963982
116	0xbfa6f1724342a7d6	-0.04481083937692147
117	0xbf9abaefc52deaf4	-0.026103731546281275
118	0x3fc532e0c72f99f9	0.1656151745402921
119	0xbfca5e24eedd5d62	-0.2059980551082204
120	0x3f4e522e6e6a31ff	0.0009253241267557776
121	0xbfce5117144dcdf3	-0.23684967509653596
122	0xbfab5dd077f95cc9	-0.0534501215412831
123	0xbf8d4ab5ea4d1353	-0.014302655422974963
124	0x3fb3d2438fbec861	0.07742712268262288
125	0x3fcbfa705a42c62c	0.21858028800265694
126	0xbfc1ee7584600037	-0.14008969272254188
127	0xbfb5ec5ed6af0ba3	-0.08563797704031954
128	0xbfb57e6fbbac375a	-0.08396051723340517
129	0xbfbe5f23cd257948	-0.11863921888786877
130	0x3fc49e407fe686e3	0.16107946629659073
131	0xbfbdf07d5cc21b47	-0.11695083155255502
132	0xbfc47d855e4d71c5	-0.16008059601416683
133	0x3fc88273ff6d7e39	0.19148111316734331
134	0xbfc45deab1925fc0	-0.15911611242768053
135	0xbfafd97c65aa4f11	-0.06220616093665233
136	0xbfb9e385537d28dc	-0.10112794197371805
137	0xbf78b614781f7040	-0.006033019979408805
138	0x3f7add425efe3604	0.0065586655254157335
139	0xbfa09878b387982b	-0.03241326514744033
140	0xbfcfdd9a64a38754	-0.2489502898598014
141	0xbfb27d9ce244f2e0	-0.07222919963983143
142	0xbf6f6295fce95358	-0.0038311891033039717
143	0x3faf8e79c71e937a	0.061633878284999846
144	0x3fb397c464625edf	0.07653453303134537
145	0xbf8e8fc34fc9a498	-0.014922643539835342
146	0x3fc1f106cd116592	0.14016804707607072
147	0x3f86b40a61a206f7	0.011085587601204134
148	0x3fbaec35b92c2529	0.10516677637874196
149	0xbf59f391f0fa53ef	-0.0015839505394172856
150	0x3fb50b94b64f7596	0.08220796061455923
151	0xbfa9e5169e3929c5	-0.050575930418364425
152	0xbfc74754b3a8b5a9	-0.1818643452874487
153	0xbfc792914674e452	-0.18416038456215006
154	0xbfa483cb095e7113	-0.04006800164572346
155	0xbfa20ef62a37ecd7	-0.035270397809620206
156	0x3fc050bc46c2d77f	0.1274638505471408
157	0xbfa7f51eb416e755	-0.04679199169500118
158	0xbfbfecb7bebd3ae0	-0.12470577627866986
159	0xbfa626bf10c86116	-0.04326436118953063
160	0xbfc1c041df2ea208	-0.13867972753111268
161	0xbfb88aed21ababe4	-0.09586984703098228
162	0xbfc2307d20340324	-0.1421047599069648
163	0xbf68818ca1346535	-0.0029914614366474365
164	0xbf94322cf23d7961	-0.01972265461460532
165	0x3faa82eec6a3340a	0.05178018736624075
166	0xbfa972876f758532	-0.049701912265627604
167	0xbf963fb18f9a8cd2	-0.021727346792101816
168	0xbfa4f494d988c4bb	-0.04092850833365832
169	0x3fcd84766be6d8b3	0.23060493725433204
170	0xbf7f1e9f66cccd33	-0.007597563421586617
171	0xbfbd6e121fca5344	-0.11496079708224466
172	0xbfd0547f2ae0e01a	-0.25515727221818596
173	0xbfacc0ee2525c1b8	-0.056159441027264945
174	0x3fc27f5f4e4dea40	0.14451209376768936
175	0x3fb9f6f0dacdc59f	0.10142426816834992
176	0x3fce0e3c3c084074	0.23480942660581017
177	0xbfc45910eb8cefbe	-0.15896808148852232
178	0x3fc444e949c460ac	0.15835300542744812
179	0x3fa70ac79fbef498	0.045004118204340304
180	0x3fa4bef4f6fde331	0.04051938548122392
181	0xbfc920212f70d415	-0.19629301849786943
182	0xbfae06d9eeb34725	-0.05864602125951838
183	0xbfb6f5c774a9c866	-0.08968779180739403
184	0x3fcc6e0506dfd1f2	0.22210753284129187
185	0x3f8d982c13c4e4ae	0.014450401643090718
186	0xbfb4252fbe54ca96	-0.07869242092855652
187	0x3f9efab705967541	0.030253276554153222
188	0xbfbe02f3d601c604	-0.11723255133417615
189	0xbfc2387597dceeaf	-0.14234800257860544
190	0xbfb0196858803ed8	-0.06288768921535437
191	0xbfad01ace446495a	-0.05665340696863792
192	0xbfc85165c5946e22	-0.1899840559716362
193	0xbfade593b2ef54da	-0.05839215811980987
194	0xbfbd285d66b8d38a	-0.11389716871128833
195	0x3fb48c9bac0c9040	0.08027050924698731
196	0x3fc84b7efd49f836	0.18980395667671396
197	0x3fbc513f09f4c977	0.1106147193247916
198	0xbfc127441e313b9e	-0.13401080583795716
199	0x3fc69ece4e7cf80c	0.17672137100629504
200	0xbfb3cba105a7e8c0	-0.07732588184436207
201	0x3fa1708052a09b5a	0.03406144150385755
202	0x3fa6454e48b7c5ee	0.04349751126927602
203	0xbfc95a46e51ccd74	-0.19806753337034488
204	0xbfcc9ad5942e8ac7	-0.22347516761245442
205	0xbf70f6a92f351943	-0.004141484142854704
206	0x3fb352043092143d	0.07547022043043312
207	0xbfc54d71d5d61854	-0.16642592374063503
208	0x3fc08fe7e6a2eb4c	0.12939165841620548
209	0x3f95b4d37e5ad76e	0.021197609507644648
210	0xbfb8f6294845a992	-0.0975061227269747
211	0x3fb59a4f31914982	0.08438582382340168
212	0x3fb699f20e4f5760	0.08828652238238766
213	0xbfcf0de6565612e7	-0.24261168685565979
214	0xbfc7c4c028bb6c1e	-0.18569185246346448
215	0xbfb470fbc5e2eaf5	-0.07984899121485596
216	0x3fd06ef5c9b118c6	0.2567724675794917
217	0xbfa85fad05cab728	-0.047604948956502746
218	0x3fa0dbfa9a6dcd83	0.03292830596083276
219	0xbfae14f7cd7fc3f5	-0.05875372298749674
220	0x3fb22a9fc86a64f6	0.07096289294203814
221	0xbfbda3f409f72788	-0.11578297847077412
222	0xbfb6dc0de8a09dad	-0.08929526261692074
223	0x3facafa169c50b11	0.05602745453008685
224	0x3fce51f884040e1f	0.2368765492065998
225	0x3faad92001f2de5f	0.05243778251445685
226	0x3f8da40b3fd2d070	0.014473045239675936
227	0xbfac513c18657549	-0.05530727193648006
228	0x3fcf1b9c81de86ca	0.24303013173362437
229	0xbf70bced0171e565	-0.004086423686311268
230	0xbf96f3ffa935215c	-0.022415156080826434
231	0x3fb9a970781a9dcd	0.10024168903566207
232	0xbfaabd4cddebbd5f	-0.05222549637789586
233	0x3fcd4c70a71d5d63	0.2288952651967789
234	0x3f8a98dc034f85f8	0.012986868716271069
235	0xbfbbb362969b19b2	-0.108205949563035
236	0xbf2d111f4798d5f6	-0.00022176272232037026
237	0x3fb45dd922a29f92	0.0795570096548757
238	0xbfb9dc67383389f6	-0.10101933595755228
239	0xbfca1ddac58b9250	-0.2040360893798998
240	0x3f8b9f3b9b54bf74	0.013487306287600843
241	0x3fbd71f33ce70418	0.11501999127268936
242	0xbfb1b8e2d932aa32	-0.0692273884075483
243	0x3fb5a905bc1ca3f3	0.0846103271729957
244	0x3fbc4327bd6a45d1	0.11039970754997987
245	0xbf70c5c98d73f7cb	-0.0040948746820940836
246	0xbfd018ecd5cbf8f2	-0.2515213096484238
247	0xbfd01705a628a787	-0.25140515543409275
248	0x3fa4d3b05f0e7d72	0.040677558520878856
249	0xbfbd8acbcedc4b8e	-0.11539911079698426
250	0xbf5768a146982586	-0.001428754325731725
251	0xbfbe3aa2e6b38337	-0.11808221943239237
252	0xbfb8b5b924ac4bd4	-0.0965228762182016
253	0xbfb1ff7c00549c80	-0.0703046322638432
254	0xbfcab73ac8691802	-0.20871672425909088
255	0x3fb38ae347e0451b	0.07633800987993704

lstm.bias_ih_l0 f8 [84]
0	0x3fc65a46fe810df7	0.1746300451942344
1	0x3fcbf9632c765135	0.21854819937710493
2	0xbfc57ac884dfe261	-0.16780954826369324
3	0x3fbe78559c7da3ac	0.11902365751815464
4	0x3fc0ac7d459dfd48	0.13026395701670368
5	0xbfb1043432c2f094	-0.06647039641660718
6	0x3fd10a3723aa062f	0.26624849779918497
7	0x3fc75b2814faf1cb	0.18246937775064817
8	0xbfc9f302040caa4a	-0.2027285117886371
9	0xbf9f7f5c7bde6b94	-0.030759282169679006
10	0xbfcef0d0d25ea40e	-0.24172411224324758
11	0xbf9f778c860cb7dd	-0.030729480439894864
12	0x3fab3ef1ea84f0b6	0.05321460712227248
13	0x3f872a8aff5692a7	0.011311613004019462
14	0x3fc0e5daa2910118	0.13201458871663685
15	0xbfc5e34bd5d4bba2	-0.17099903050390447
16	0x3fc615ddd76f499c	0.17254231471322334
17	0x3f91c5f674137f5d	0.0173567303035037
18	0x3fa17253123ec26e	0.034075351693336184
19	0x3fc6a65193da8d4a	0.17695064277095646
20	0x3fbb35a1f5ab6688	0.10628711936751689
21	0x3fc2b025be2a15b7	0.14600059304590982
22	0x3fc50df554d85611	0.16448847430062633
23	0xbf9de69a79857cd2	-0.029199994723396135
24	0xbfc10617ed1ee927	-0.1329984577003611
25	0x3fc1a429c83a84b2	0.13782236363207329
26	0xbfb3a6f0e8c3ab94	-0.07676606829379146
27	0xbfc2107df30bcede	-0.14112829558836543
28	0x3fa7073c3aace062	0.044977075731765806
29	0xbfaba9b058e92b1d	-0.05402899823510252
30	0x3fc0a7d5f497e5ff	0.13012194102320504
31	0xbfc56d4f135c0807	-0.16739834256446803
32	0x3fb0d591b07a0abf	0.06575880583299475
33	0x3fbf5810185dc4b4	0.12243748278503369
34	0x3fb22e9c32aa6b0e	0.07102371441798658
35	0xbfb26c110518ecab	-0.07196146368453309
36	0xbfafc4bec64c7033	-0.06204792185437249
37	0xbfc07108b2830bec	-0.12844952312852287
38	0xbfc19aeedf5aa3e3	-0.1375406828495037
39	0xbfb2a899905ae0e2	-0.07288512968341679
40	0xbfc25e1ef5cd929b	-0.14349734308338644
41	0x3fc92ae4fce235f0	0.19662153575738683
42	0xbfce06d9d45ebf3d	-0.23458407277711926
43	0xbfcbfb175892a87b	-0.21860019516799753
44	0x3fc80d912d7cc56b	0.18791403504432522
45	0xbf8ef40bddf1f7b0	-0.01511391898224787
46	0x3fc37b7bd76ddd0d	0.15220592516900702
47	0xbfb15b98075c078d	-0.0678038614242082
48	0x3f9471a9a4fbb481	0.019964838690544887
49	0x3fcb06add41ac5da	0.21114132744473474
50	0x3fb84a5b197e5e0a	0.09488458034899608
51	0xbfbc2efb2ba84d3f	-0.11009187522750084
52	0x3f9a2692747edfae	0.02553776584656447
53	0x3f9b5f07b90e7a85	0.02672969882007205
54	0x3f94a6d732bf1fa5	0.02016769644958995
55	0xbfa11a8704e47888	-0.03340551314089263
56	0xbfb76c22ed7608ec	-0.09149378106488698
57	0xbfc92b4037c6032b	-0.19663241122545946
58	0xbfbf0aa3d875d285	-0.12125610384630121
59	0xbfaa9e35f61b7c94	-0.05198830250969269
60	0xbfc9aab78fbf8272	-0.20052237051915572
61	0xbfc90febeed4d350	-0.19579838906943303
62	0x3fbe4f5f642e092e	0.1183986301021249
63	0x3fb6b6cc90a50311	0.08872679263459939
64	0xbfc6be1a5183d10d	-0.1776764772436156
65	0xbfbadde64e2cba2f	-0.10494841965258027
66	0x3fd3c5fea5e3ae51	0.308959638596865
67	0x3fb4f084a0fae33f	0.08179501466919435
68	0x3fc5e9b17f0ab112	0.17119425490580703
69	0x3fd0dc9d41ef08f5	0.2634652274974905
70	0xbf9d52eccfbccce9	-0.028636646441737055
71	0xbfa0b0bb523406a5	-0.032598356041501554
72	0x3fcfd5111284a213	0.24868977932170874
73	0x3fb55b1ee36ff887	0.08342164089842373
74	0x3fc3d64d4b1e49b1	0.15497747581373525
75	0x3fcce8ec4f584300	0.2258582484651228
76	0x3fd4c8d6981650d2	0.32475819446814314
77	0xbfb31859ffb5b444	-0.07459032528795811
78	0xbfc52b1cce61b8fe	-0.16537818982346403
79	0x3fb97d6cac03ce44	0.09957007598478024
80	0x3fc8fae2a5376890	0.19515641276558826
81	0xbfb7eb0f4c192ac8	-0.0934304772173774
82	0xbfb4066d35fc47d4	-0.07822306221012748
83	0xbfc47fbf17fd3879	-0.1601485125669944

lstm.bias_hh_l0 f8 [84]
0	0xbfb0ee1582fde3dd	-0.06613287399331065
1	0x3f9ae04e63b288ef	0.026246285281225686
2	0xbfb4508249bfc4ed	-0.0793534688998709
3	0xbf97017d8e097133	-0.02246662311004961
4	0x3fb194df8b3bfa8e	0.06867787503504472
5	0xbf8d94f79617866a	-0.014444288509312748
6	0x3f9494853aa063b2	0.02009781046226395
7	0xbfb2f0cfb60a1c76	-0.07398698992084171
8	0x3fc42d3d1bf355b6	0.1576305757977658
9	0x3fcbd075b0843276	0.21729918593372916
10	0xbfb37de724bd47e1	-0.07613987585980865
11	0x3fa242edbcf9a3dc	0.03566687518907205
12	0x3fc742e33aa13c2f	0.18172874796661762
13	0xbfb15692e0152d5d	-0.06772726031083694
14	0x3fba60afc522021c	0.10303782046140281
15	0xbf66e151752eee8c	-0.0027929869624737143
16	0x3fc19834576f4995	0.1374574114730193
17	0x3fca00334e826fd8	0.20313111623261082
18	0x3fb5174dc91f6150	0.08238683853358464
19	0x3fc0cc8ad3da8d10	0.13124213547153163
20	0x3fcf537e3ad5b380	0.24473550675193323
21	0xbf85ab5e1d5ea675	-0.010580764075558616
22	0x3fc48fc594d85612	0.1606375672133003
23	0xbfa05dc2bcc2be67	-0.031965337316589175
24	0x3fb8cdb1a5c22d3e	0.09688864037359665
25	0xbfb17c6aef8af6a9	-0.0683047137090066
26	0xbf99c08fa30eae1a	-0.025148624732237314
27	0x3fbcaf1559e8624e	0.11204656071675709
28	0xbfb97ccb22a98fcf	-0.0995604476570968
29	0x3fb2ff58538b6a48	0.07420875587141851
30	0xbfbf48ce56d03409	-0.12220468158211885
31	0x3fb738f95947f045	0.09071310453140409
32	0x3f996a76c1e82b56	0.024820190034044863
33	0xbfa8622c4f44761e	-0.04762400119419062
34	0xbfc1c6f8e6aaca3a	-0.13888465178531978
35	0x3fcbf0855d73896f	0.21827761710217028
36	0x3fc3a63c8e6ce3e2	0.1535106368480959
37	0xbfb95802e50617dd	-0.0989991959705487
38	0x3fc1cc8ba0a55c23	0.13905473083534145
39	0xbfb40e3a905ae0ef	-0.0783421137265383
40	0x3fca0652aa326d70	0.20331795988463908
41	0x3f74a4b39c46bfdf	0.005039884188974469
42	0xbfacec96517afd7c	-0.05649251694330368
43	0x3fb3d91c8edaaef0	0.07753160941745896
44	0xbf7e31a2506752b3	-0.00737155345855871
45	0xbf50231eef8fbc4d	-0.000984935961465333
46	0x3fa4bcd1ddb7745e	0.04050308066846563
47	0x3fc5ab98dc51fc10	0.16929922826599908
48	0xbfb9153456c112c3	-0.09797980421087531
49	0xbfa179ae2f94e854	-0.03413147288161214
50	0xbfc1b4958340d104	-0.13832348736617217
51	0xbfbb68916ba84d2b	-0.10706433180194057
52	0xbfcc5126b17023d9	-0.2212265364071573
53	0xbfc28886e8de3089	-0.14479147310737897
54	0xbfc08cbf89a81c06	-0.1292952940131899
55	0x3fa38281fb1b876d	0.038105070021415034
56	0xbfa501a35aec11c0	-0.041028122757811314
57	0xbfa60b255f180c55	-0.04305378709616351
58	0xbfac7435b0eba4ad	-0.05557410988496634
59	0xbf71a857b0dbe3e0	-0.0043109345840486035
60	0x3fb0acf56080fab3	0.06513913732576775
61	0x3fbabfbe62565909	0.10448827648938076
62	0x3fb9fad3642e0925	0.10148354717060622
63	0x3fc5ef0d0852818c	0.17135775476800708
64	0xbf939cb48c1e889f	-0.019152470638467475
65	0x3fb5d56f91d345d1	0.08528802213847732
66	0xbf95704fa1c518e8	-0.020936245201732456
67	0xbfc3bece0f828e60	-0.15426040417979703
68	0x3fb51d2b7e156207	0.0824763472386466
69	0x3fb2d955c7bc2379	0.07362877012577752
70	0x3fb7e931cc10cca9	0.09340201599188681
71	0xbfccc161748d0173	-0.22465151015240856
72	0x3fba4b442509447b	0.10271097091869479
73	0x3fc029de31b7fc3e	0.1262777083174757
74	0x3fce6af1cb1e49e1	0.23763868730436769
75	0xbfa38a96c29ef3ea	-0.03816672445052645
76	0xbf9335917e9af313	-0.018759034492847947
77	0x3fb0d9ce204a4bbb	0.06582344330153848
78	0xbfb80e20dcc37219	-0.09396558179600624
79	0xbfc7637729fe18d4	-0.18272294569414405
80	0xbfb2853f75912ed9	-0.07234570141116183
81	0x3fa8cda567cdaa98	0.04844395534640461
82	0x3fc77dd4c501dc25	0.18352756137366658
83	0x3f301250058f1a6e	0.0002452321401133277

linear.weight f8 [1, 21]
0	0xbf9cc6f78d55479c	-0.028102748872079183
1	0xbfcf2cca89f57c87	-0.24355441795612284
2	0xbfc400c30e86b4f2	-0.1562732525757507
3	0x3fc669901e4d5deb	0.17509652595138844
4	0x3fd0169e966887ff	0.25138058365166666
5	0xbfc60f7827b277c7	-0.17234708727204248
6	0xbfc70336d266ff64	-0.17978558801223266
7	0xbfc71a045ecfd77e	-0.18048147801863118
8	0xbfbac3c621133b25	-0.10454977328775479
9	0x3fce3612a61f36a7	0.2360251723425126
10	0x3f8cfba40bbf6851	0.01415184174395648
11	0xbfcf35920a8d8429	-0.24382234111092885
12	0xbfb38254a614c646	-0.07620743803706728
13	0x3fcbfeef060173c7	0.218717458660562
14	0xbfc2b8800a2cf556	-0.14625549790245412
15	0x3fc22a9acde07798	0.1419251923807081
16	0xbf93e541ac3089f7	-0.019429231772059876
17	0x3fd416e3a3c9f5fa	0.313897046995265
18	0xbfb3ada04e0c024e	-0.07686807542268889
19	0xbfcfd539e4bfa21e	-0.2486946455894818
20	0xbfcbcf3cd2c7c8b8	-0.21726188938152347

linear.bias f8 [1]
0	0x3fc0d587cea5fb35	0.13151643362285773
