Thesis-codes/Exp-1/results-archive/archive(without scheduler)/results-5/ew4/save_model/0/GRU_best_train_97.pth (torch, 5143 bytes, 6 tensors)

gru.weight_ih_l0 f8 [30, 1]
0.16040008505756298 0.08501873882294832 -0.041021611533111485 -0.14672798229566175 0.520058384996747 0.6112990961529335 0.5899646865637436 0.7133536824589523
-0.1269434155863299 0.5160840637039297 0.15085649190564876 -0.41512412697777656 -0.0037293130279319373 -0.7243210405894633 0.23719484055795184 0.12945306483069424
-0.2816862740411734 -0.27091573270385316 0.44058032022005567 -0.11472974055416256 0.14227398928532198 -0.4564983782269285 0.2572570711616722 -0.6450351350513351
-0.26479143775409647 -0.1414328027648269 0.41205868381133737 0.3314260037630499 0.07582181338340223 -0.32353549638765905
00000000: 6486 cc6f fd87 c43f b9ae cabe c9c3 b53f
00000010: 4488 eddf c800 a5bf 7818 af86 fbc7 c2bf
00000020: 974a 727b 51a4 e03f 81a3 411f c38f e33f
00000030: e6c1 529f fde0 e23f 498e 141a cbd3 e63f
00000040: ab62 318d ae3f c0bf 8a0b f3b9 c283 e03f
00000050: e0e0 8ff9 434f c33f 449b 49c9 6491 dabf
00000060: 6b7c baaf ef8c 6ebf aa5d a451 a32d e7bf
00000070: a1f8 7c89 665c ce3f 5a4b e803 eb91 c03f
00000080: b04a afdd 2507 d2bf d8d5 fbf0 ae56 d1bf
00000090: 62ce a6cc 7732 dc3f 8306 8fa3 ed5e bdbf
000000a0: 10a5 86b9 0836 c23f 3c59 4af9 4437 ddbf
000000b0: d076 d35c e676 d03f 2d20 3ab9 20a4 e4bf
000000c0: db89 5ac9 57f2 d0bf 3a70 3a57 781a c2bf
000000d0: f028 c062 2b5f da3f 9133 cd69 1536 d53f
000000e0: d91c cef0 0e69 b33f b720 053a ceb4 d4bf

gru.weight_hh_l0 f8 [30, 10]
-0.011691374346822228 -0.22070820800505994 -0.3220479133803492 -0.012113570806191565 -0.1647201723254253 0.02079548373902512 -0.13022280738053438 0.3252511241793449
-0.12730020731778974 -0.22168370316189834 0.004692644750673487 -0.06017008621875531 0.2274927076308464 -0.11740286410586247 -0.3264382433457685 0.03131051971364827
-0.1306225367990021 0.10486026381291705 -0.2530936061891003 -0.03033628130132494 0.3150361573302261 -0.2811144727063469 0.034790430776099654 -0.05068958484492726
0.013457331062851652 0.35153151800360444 0.2776336831829465 -0.15936240725308012 -0.20092549424179107 -0.04168018787986409 0.1527952878867844 -0.035278303975746064
0.01257904177778635 0.07155278642164012 -0.11439401755209083 -0.08775810661158537 0.29719278679777544 0.04073942381791424 -0.09312923074635093 -0.2261520111323093
0.04737639555613052 -0.23480937313497036 0.3641177660204606 -0.26696719292186966 -0.04415099101108237 0.10032110979726186 -0.13808317217047253 0.29515164857057447
-0.17463966426770328 -0.36547868995943233 -0.10719484244382543 -0.0227323584868842 -0.10309269794890819 -0.5072721811545147 -0.21996612385376194 0.10901420748808764
0.33894039829830747 0.38025615232933047 0.3508024624442634 -0.31711435296247625 0.014378052327454444 0.10169614091968246 -0.10802492393373578 0.04053886279920817
0.1181800522035907 0.11034929737469873 0.20903468618953305 0.07742307041651932 0.23243189547588364 -0.1257565011237098 -0.28732326384440054 -0.2810938810946716
0.1343970536816583 0.2113510387195571 0.27617152526192423 0.25034575431203226 0.1400776128497233 0.29205711068798523 -0.3323845521522576 -0.05837852132880375
-0.23125631042507255 -0.12532616592630252 0.05277161264626318 0.13644304007918215 -0.36624037951871585 -0.37632318513583235 0.30813534952784305 -0.07201000960668769
0.19280961118476225 -0.29771703454427084 -0.2522705000282902 -0.08701800463113156 0.15474301531562215 0.007704343712096709 0.3220482185849328 0.18666201993701054
0.26860204658648823 -0.1678753335389259 -0.1690377788782686 0.3311437451364491 -0.23441539132306347 0.02311366079725809 0.3380881235816579 -0.23847752483429047
0.019287264745648635 -0.1973960543878833 0.21621756735910153 0.00047487630376639013 -0.031049066135476408 0.06421475476366681 -0.3558185989611556 0.597583195985518
-0.6252715622818087 0.5768105075509625 0.5210446138991157 0.13251624362917086 -0.46468825518642926 0.5194267223671974 0.40490252429853985 0.4220146413232742
-0.47107804770295314 0.14798868803055276 -0.4617411455651031 0.4514047283982586 0.5098595216746783 0.09556050432626163 -0.30562343498031846 0.43225129608915297
0.15759458594088913 0.1627711954409405 -0.319844532918284 0.4385579017572928 -0.8136253238152322 0.6967871978946605 0.7324014974404435 0.02539853169722352
-0.6103791708277524 0.5253348559721782 0.4995477886452491 0.36217025291605226 0.23573043247457076 -0.19849310446287038 0.1902727622678961 -0.20717120272300915
-0.2203270881011126 0.37596940211733687 0.1170305434482013 -0.015385762684024232 -0.07243960545758078 0.03432512040106462 -0.03425365401110446 0.42372059835637593
0.13994338369650172 0.27749845731380135 0.09433248401278917 0.2639739850064027 -0.39084034270647244 -0.46435474379686204 -0.18360972054711866 -0.08112422997953656
-0.3744726589863994 0.4273746743865891 -0.3571882318738888 0.2592839757330678 0.7439347039505878 0.04923672544716563 -0.3832133080648565 0.2935646057286188
0.6676444899792799 0.23145711331463442 -0.6861083427776413 0.5236149698258936 -0.18066039708795456 0.42952106786720073 0.6574861821467565 0.480927145391759
-0.2410474791482633 0.535949938130304 0.23327065947124137 0.13423463025482682 0.2512907845321741 0.03087308780154282 0.27494098921763604 -0.27005979262788216
-0.3057788659921359 -0.1231545660953508 0.4922930999744827 -0.3862875271779285 -0.36183930869331127 0.04097518092895088 -0.5966947333215241 0.5993258900567767
-0.1434644043963173 0.7170256546079278 0.6917933280824881 -0.08449977531849909 -0.3020157560811077 0.1068078340415675 0.28993207499896734 0.138131190335094
-0.19206558235317744 0.21074096359047229 0.275708973388653 0.08292684495821845 -0.02820859314952515 0.12294958842763855 -0.11466393918637192 0.3322609666823375
-0.1552135887729619 -0.2565572185379929 -0.16164318736197292 0.18275940749395062 -0.00814288973882676 -0.18072572007983323 0.21245693926012219 -0.2184681880161674
0.21720410796192316 -0.282395283814084 0.024248048038541935 -0.28481864127571416 0.1596896632580753 -0.28484364430303566 0.11245749063382854 -0.18133460013948532
-0.11564824946825056 0.4514279028253145 0.02750163215526685 0.08803925712033982 -0.30762798366281807 0.22338654099411037 0.22045638992211303 0.23621489246541363
-0.08262641971298486 -0.2850879706017902 -0.08641348067930049 -0.0808433451669872 0.09330164436977716 -0.4893280558158868 -0.2976102894708845 -0.07014218266555179
-0.10061560184002588 0.32706041354981047 -0.37954649777688637 -0.04752098255458708 0.0865689004104781 0.0904517041757259 -0.15367162400085746 -0.11513630508912144
-0.22175221996278677 0.019665208337547677 -0.10285559845352923 0.1988167858362434 -0.011879842751490776 0.29775158199716495 -0.026468463655286906 -0.24023812673414852
00000000: c81a b8b3 a5f1 87bf 6f95 aba3 2a40 ccbf
00000010: 4aac edd9 6e9c d4bf 3a5d 9af3 ffce 88bf
00000020: 2a89 90f4 8c15 c5bf af23 414a 694b 953f
00000030: 1444 7215 24ab c0bf f299 5517 ead0 d43f
00000040: 461a 9a89 5f4b c0bf a879 91af 2160 ccbf
00000050: 3b33 c63b 9838 733f a19c 0311 9dce aebf
00000060: 482e ad25 7b1e cd3f f399 ca35 1d0e bebf
00000070: 695c d53a 5de4 d4bf 5dbb 61b4 ee07 a03f
00000080: f60c d641 3db8 c0bf 12f6 b94b 1fd8 ba3f
00000090: 3d2b 5a86 af32 d0bf 6329 4960 7910 9fbf
000000a0: fd9c 326a 8d29 d43f d52f ad8e c7fd d1bf
000000b0: ae50 cb24 0dd0 a13f 7245 503a fcf3 a9bf
000000c0: 0d7e 7366 848f 8b3f 87ad 550d 7e7f d63f
000000d0: 617b 6211 c0c4 d13f 6791 aec3 fc65 c4bf
000000e0: 98be 5935 edb7 c9bf 0699 ab07 1b57 a5bf
000000f0: 4f73 3ac6 cb8e c33f 2219 ab73 ff0f a2bf
00000100: 41a6 6768 0ac3 893f b25d 9e8d 4851 b23f
00000110: 2489 3e24 ed48 bdbf 420b dbb5 5077 b6bf
00000120: b3d3 f9e4 3405 d33f e961 e939 ccdb a43f
00000130: 7072 5b38 51d7 b7bf 6373 de91 8cf2 ccbf
00000140: 5429 080b b841 a83f c258 34c9 3b0e cebf
00000150: 4fd4 3c9a b44d d73f 1e14 ad90 fd15 d1bf
00000160: 9609 f56c f59a a6bf 727b aded a4ae b93f
00000170: a1d0 4c9a b5ac c1bf 8b26 7ebd c3e3 d23f
00000180: 489e 4eaf 975a c6bf 12af 30bb 0064 d7bf
00000190: 349a 9806 1f71 bbbf 0e68 0cc1 2647 97bf
000001a0: a09f 2576 4864 babf d655 87de 923b e0bf
000001b0: 7503 1796 d927 ccbf 17f0 f5e7 5ae8 bb3f
000001c0: 2401 7f11 33b1 d53f 7ddd 96e6 1d56 d83f
000001d0: f47a e32b 8c73 d63f f039 c4ff 994b d4bf
000001e0: aa76 3684 3d72 8d3f 3623 611f c208 ba3f
000001f0: aac2 727b 85a7 bbbf 3217 e183 82c1 a43f
00000200: cd05 4143 0c41 be3f 9464 5cff d93f bc3f
00000210: 0df3 740a a6c1 ca3f 4115 6593 ffd1 b33f
00000220: fddf ce0e 54c0 cd3f e7f8 cafd c918 c0bf
00000230: 14de 651d 8163 d2bf a611 9a30 71fd d1bf
00000240: c7e8 1e33 ec33 c13f 2558 a303 8d0d cb3f
00000250: 9e87 4555 cbac d13f b99b dd32 aa05 d03f
00000260: 14b0 0b2f 10ee c13f 8806 be4e 10b1 d23f
00000270: a221 4cdb c945 d5bf 24c7 ca1f cae3 adbf
00000280: c478 2289 ce99 cdbf e846 fe13 b00a c0bf
00000290: 601d f27c e104 ab3f 7315 742d f776 c13f
000002a0: 177b 207d 7b70 d7bf 13a3 38d7 ad15 d8bf
000002b0: deab 3d54 7db8 d33f 88d0 3e7c 3f6f b2bf
000002c0: cc4e 323f fcad c83f 8d1a b5bf cb0d d3bf
000002d0: 227e d72a 3325 d0bf 83cb 0ddc cf46 b6bf
000002e0: b752 087f 9ece c33f f654 7d04 978e 7f3f
000002f0: 8eab a321 709c d43f 0673 8483 8ae4 c73f
00000300: 9491 6ea3 c630 d13f 6369 ad5d f07c c5bf
00000310: d60a 09aa 07a3 c5bf 5bb4 e888 7531 d53f
00000320: 4daf b4d3 5201 cebf e538 dc84 1bab 973f
00000330: 23c0 7c5e 3ca3 d53f 6645 ff78 6e86 cebf
00000340: d356 3f6d 0ac0 933f 6b4a fa1e 4644 c9bf
00000350: e662 506a 04ad cb3f 4a16 bf31 1a1f 3f3f
00000360: 5c2b 7e8e 53cb 9fbf 9a6f a1cf 6070 b03f
00000370: 6130 765f bbc5 d6bf e2b3 6ccb 661f e33f
00000380: 73d0 e381 3902 e4bf 1b75 3d4f 3b75 e23f
00000390: 4b84 0ec1 65ac e03f 3ebc 49d2 4af6 c03f
000003a0: e31a b7ce 73bd ddbf e989 27ca 249f e03f
000003b0: 5586 fb46 ece9 d93f 1daa bab2 4902 db3f
000003c0: 82da 2f8a 2426 debf 3074 a217 4bf1 c23f
000003d0: 41dc dabb 2a8d ddbf f6bc 6ea8 d0e3 dc3f
000003e0: c9b3 64ea c450 e03f 09dd de38 a776 b83f
000003f0: f56c 8898 558f d3bf 4dd1 1657 01aa db3f
00000400: 9f46 5234 0f2c c43f 2f28 93c0 afd5 c43f
00000410: 290f 2c34 5578 d4bf 0acc 5c29 5511 dc3f
00000420: 8e7b 9ff9 3709 eabf 5a54 67aa 144c e63f
00000430: 4d8a e143 d56f e73f 6523 069c 1202 9a3f
00000440: 64ac 1be6 3988 e3bf 162e 3b0b 8bcf e03f
00000450: 4d4f c149 97f8 df3f 8df1 f623 cc2d d73f
00000460: 563a 1331 6a2c ce3f 2024 13d8 3868 c9bf
00000470: 1f4e a19d db5a c83f cc24 2f02 9684 cabf
00000480: a999 e892 ad33 ccbf 2a00 99f7 e10f d83f
00000490: e03d beb4 b6f5 bd3f 354b 6a1c 9282 8fbf
000004a0: a91d 60e8 668b b2bf 4190 1beb 0f93 a13f
000004b0: fe0c 7ee7 b189 a1bf 8942 2500 3d1e db3f
000004c0: 9c4f 2230 aae9 c13f 4d9b b6e3 88c2 d13f
000004d0: 290e c975 2c26 b83f 103a 2624 f3e4 d03f
000004e0: 496e 7836 8703 d9bf 1866 96f5 fcb7 ddbf
000004f0: 2421 7df8 8580 c7bf f4df acba 8ec4 b4bf
00000500: 8def e52b 5cf7 d7bf 5742 684e 1b5a db3f
00000510: d085 9a07 2cdc d6bf e39f 09d1 1b98 d03f
00000520: 8f78 fa26 50ce e73f d28b 1d5b 8e35 a93f
00000530: 3bf4 611c 9186 d8bf f985 3733 c3c9 d23f
00000540: 7419 3afa 575d e53f 3274 0efe 62a0 cd3f
00000550: 6cc4 b77b 99f4 e5bf c824 632e 74c1 e03f
00000560: f06a 9640 e11f c7bf 1bb0 dbee 457d db3f
00000570: 0d8d 3c76 200a e53f e9d6 4da6 82c7 de3f
00000580: e0cd dccf a4da cebf 1b03 127c 8026 e13f
00000590: 84cd c51e d0db cd3f 73b2 77b1 992e c13f
000005a0: 0c85 56f1 2515 d03f 3695 bcd9 319d 9f3f
000005b0: b541 4117 a298 d13f 6e48 53de a848 d1bf
000005c0: d0a0 4f85 e191 d3bf d08b bbc1 0e87 bfbf
000005d0: 8af5 1beb ba81 df3f 153e 0552 efb8 d8bf
000005e0: 6aae 4f0f 6028 d7bf bb36 13ec b2fa a43f
000005f0: e3f6 a98d 1f18 e3bf 0d14 2e7d ad2d e33f
00000600: c6da 82a6 0a5d c2bf abe3 1dc9 dff1 e63f
00000610: b191 f6c2 2b23 e63f 3226 83fb c6a1 b5bf
00000620: 3daf cfe4 3954 d3bf d345 2a1a c257 bb3f
00000630: a0a5 0b43 3f8e d23f e3fc 8568 48ae c13f
00000640: 9a71 72e1 9a95 c8bf b238 4655 8ff9 ca3f
00000650: 7fc0 fa3f 37a5 d13f b856 0e97 b13a b53f
00000660: d96b 2ca4 b6e2 9cbf 4d76 5acd 9f79 bf3f
00000670: 1d04 d6ac 9d5a bdbf c0d4 6880 c343 d53f
00000680: 655b d6f3 09de c3bf 0f19 cbf7 6e6b d0bf
00000690: c4a1 ab55 b9b0 c4bf 8586 1c07 a964 c73f
000006a0: 9e4d fc28 38ad 80bf ccfb a438 0522 c7bf
000006b0: 131a f7fa c931 cb3f f876 5ffd c3f6 cbbf
000006c0: 916c 201e 58cd cb3f 19ac 21ab c312 d2bf
000006d0: d6fd 44f5 7ad4 983f 9580 64f7 773a d2bf
000006e0: 9ff1 99fc b570 c43f d651 30d6 e03a d2bf
000006f0: b467 769c 03ca bc3f e0bc 9de0 f835 c7bf
00000700: f647 4ea9 1f9b bdbf ebbd c8db 31e4 dc3f
00000710: 0f23 c64a 6329 9c3f 1b93 18a2 bd89 b63f
00000720: 72a3 4a48 2db0 d3bf 9cd7 f71f ee97 cc3f
00000730: 0871 743c ea37 cc3f 35ca fb22 4a3c ce3f
00000740: 4ded 734a 0127 b5bf c5ee 8d9d e13e d2bf
00000750: d47c 73a1 311f b6bf 3f69 9743 26b2 b4bf
00000760: ef30 3bd7 9de2 b73f d4a5 2f9f 2651 dfbf
00000770: 34c1 0e07 0c0c d3bf c55c 9e8c d6f4 b1bf
00000780: ecc9 5eaf f1c1 b9bf 9bcf 00cd 8eee d43f
00000790: 09d6 d064 7d4a d8bf c737 e493 ab54 a8bf
000007a0: 6c1a 1d24 6129 b63f 985d 4dc7 d727 b73f
000007b0: 0515 b403 83ab c3bf 71a7 f0a8 9279 bdbf
000007c0: d61c 4772 6062 ccbf b915 b7ca 1d23 943f
000007d0: ba83 9197 be54 babf 0c00 8814 d472 c93f
000007e0: f950 cb80 7554 88bf 3fa5 c0a6 5c0e d33f
000007f0: e86a 1987 8c1a 9bbf 0aa9 c978 1fc0 cebf

gru.bias_ih_l0 f8 [30]
0.006318933694058146 -0.1733295961010428 0.2568189537495517 -0.12217093093683189 0.28556485882660887 -0.06321115328676342 0.22482988003133805 -0.12988729321805229
0.3227589607471436 -0.2088776760440668 0.11731963734558815 -0.4122174159074873 -0.4161791052876608 -0.23678627979272113 -0.13558011701176326 -0.323142133470138
-0.7007300873110711 -0.3806938034733579 0.18060892748905222 -0.5531968665969269 0.299805649300878 -0.24824629277082544 0.29608049670132386 -0.2211619511710165
-0.3571303438533182 0.06294018688645642 0.001069268880604688 -0.2898418315642184 -0.1828931239041927 -0.02800133625260475
00000000: 2333 fcd8 e1e1 793f 3768 5709 aa2f c6bf
00000010: 8739 d6c3 b86f d03f eb43 e518 9846 bfbf
00000020: 6004 63d4 b146 d23f 71ed 1b2c 9b2e b0bf
00000030: 3bf8 f2ba 39c7 cc3f b5cc 4496 25a0 c0bf
00000040: 7298 3933 15a8 d43f d3a3 bcf1 80bc cabf
00000050: 08f0 93e5 a808 be3f b283 0a28 c561 dabf
00000060: 7e4c 9faf ada2 dabf 87f5 ec47 034f cebf
00000070: 0ad5 4674 b05a c1bf b2b0 cd57 5cae d4bf
00000080: 7660 0a81 616c e6bf 9e4e ed8a 495d d8bf
00000090: c42e 777e 311e c73f 3c12 49ea c9b3 e1bf
000000a0: efcf b908 0430 d33f 64e7 66d6 88c6 cfbf
000000b0: 2633 949c fbf2 d23f 8e14 b3e9 084f ccbf
000000c0: 5497 d03a 39db d6bf a80d 481c d91c b03f
000000d0: 9068 dcb7 d684 513f 1030 e5c0 c48c d2bf
000000e0: e277 eab8 0a69 c7bf ae04 ccdd 61ac 9cbf

gru.bias_hh_l0 f8 [30]
-0.35005786326677085 -0.18156783717751276 0.29455393910111416 0.19455915109823022 0.2852147411431984 0.23592095540159028 -0.16022990879178745 -0.042563001750385555
0.13477163317145813 0.28143719502870274 -0.20321708042689646 -0.6983461454893232 -0.3029737320004582 -0.36911178004258366 -0.23513435771534855 -0.20145981740530447
-0.6716261972496897 -0.6088602942665895 0.03434561121536648 -0.18026186951516304 -0.00011432786585409727 0.1377569874366899 -0.1457989543908535 0.19023526829446497
0.08167573917572901 -0.09044445003780106 0.2818435878366659 0.29039497789766183 -0.17210848392123412 -0.2180715763501588
00000000: 150f 9c18 5967 d6bf 4b68 5769 9d3d c7bf
00000010: 8639 d6c3 f8d9 d23f ad5d 8d73 50e7 c83f
00000020: 6304 6354 f540 d23f 2b09 f269 a832 ce3f
00000030: 7407 0de5 6982 c4bf c532 1359 d1ca a5bf
00000040: a030 7366 3240 c13f 1dae 2127 1103 d23f
00000050: 1808 366d 0403 cabf f441 0504 da58 e6bf
00000060: 604c 9fef eb63 d3bf c17a f603 879f d7bf
00000070: 65d5 46f4 e118 cebf 8b61 9b6f 6fc9 c9bf
00000080: 5c60 0a39 f67d e5bf 6ea7 7695 c87b e3bf
00000090: 0dbd dc79 bf95 a13f ea47 2429 d212 c7bf
000000a0: e6a4 8ac7 69f8 1dbf 3604 eb5d 05a2 c13f
000000b0: be29 7346 8aa9 c2bf f66c ef17 a159 c83f
000000c0: f0e9 a284 b3e8 b43f 255e 0413 5e27 b7bf
000000d0: 5121 16b0 b909 d23f f58e 3fd1 d495 d23f
000000e0: d825 e79a a607 c6bf 7f38 4ef8 c4e9 cbbf

fc.weight f8 [1, 10]
0.22593408453889074 -0.2962304596098589 0.16712786141207503 -0.4786563144468538 0.013552147773732847 -0.1299927344730375 0.2811299543879343 0.6671981979337633
-0.2710198720340743 -0.4451909610893229
00000000: d4b7 1278 68eb cc3f fd9d 069a 70f5 d2bf
00000010: c8f4 811d 7264 c53f 27ae 2418 4ea2 debf
00000020: 9376 d47b 3ac1 8b3f 5cc0 a317 9aa3 c0bf
00000030: e66a 017e 08fe d13f b66b 0209 b059 e53f
00000040: 02f5 bcbb 6358 d1bf ee9e 963a 027e dcbf

fc.bias f8 [1]
-0.15606106692603688
00000000: 2e27 501d cff9 c3bf
