Thesis-codes/Exp-1/results-archive/results-1/ew3/save_model/3/RNN_best_train_16.pth (torch, 3159 bytes, 6 tensors)

rnn.weight_ih_l0 f8 [10, 1]
0	0x3fbaaff8f48acc7e	0.10424762697475562
1	0x3fa6013cca5a04b2	0.04297819109070512
2	0x3fca0ad91d1b7812	0.20345605775122572
3	0xbfba2f5feac29081	-0.10228538018651713
4	0x3fcede3467880d89	0.24115614943739797
5	0xbfc8fdb3aa3ae10b	-0.19524236499797384
6	0xbfbdd69555b9387a	-0.11655553191050841
7	0xbfb24189ff046fc9	-0.07131254650124598
8	0xbfbcf828c2934e62	-0.11316160917641008
9	0x3fb9c80832039844	0.10070849629445983

rnn.weight_hh_l0 f8 [10, 10]
0	0xbf939527010146f5	-0.019123658596362742
1	0x3fc7b48af3be96a4	0.18519722844682918
2	0x3fcaa46f185c013a	0.20814312638686677
3	0x3fcc032b4dada830	0.21884671490562502
4	0x3fb2304d3c99bbbb	0.07104952554230597
5	0x3fc43616a7bb7abf	0.15790064992957828
6	0x3fc02085b489fcdb	0.12599250140554016
7	0x3fd5ee2467509278	0.3426600464756926
8	0x3fceddf2ad1b8a45	0.24114831402319417
9	0xbfd3514d529ff838	-0.30183728283725797
10	0x3fd4f1f384e5450e	0.32726753213963
11	0x3fc8897e0a729aff	0.19169593343868738
12	0x3fc84b23ebb2ff89	0.1897931004405076
13	0x3faa4a793319b858	0.05134943722519897
14	0x3fd39d10728f28ad	0.30646144092009814
15	0xbfc5f9cec19f9425	-0.17168602422967286
16	0x3fbdfb653da70198	0.11711724047837035
17	0x3fc98bc56237ee2d	0.19957797332595942
18	0x3fc33b2126c6f7c0	0.15024198907297937
19	0xbfd0338cee997b78	-0.25314639378296233
20	0x3fbd09603feb30cf	0.11342431602969615
21	0xbfb0f81d2e6fe551	-0.0662859190341767
22	0x3fba3a79a34c00c2	0.10245475994816203
23	0x3fc4320e0d0bd066	0.1577775539113901
24	0xbfc68b5d80462f25	-0.17612808955561224
25	0x3fb2bb182eedf93b	0.0731673349928074
26	0x3fa35924b8974a46	0.03778948548610521
27	0x3fce3bd57c4bd6e1	0.23620098656799995
28	0x3fccdffad1d8faea	0.2255853199621563
29	0x3fd1ec26186331dd	0.28003837949361615
30	0xbfd00bbf78b39c4b	-0.2507170370794866
31	0x3fd4e83cb06c9a16	0.32667462567261063
32	0xbfbaff9567a17140	-0.10546239643139632
33	0x3fc5348f98be76f9	0.16566653211787477
34	0xbfa63227ea2c4b43	-0.0433514092784635
35	0x3fcae0b864e03dc9	0.2099829189832987
36	0x3fd471f6f2447f17	0.31945584925596066
37	0x3fc6c525a9ac2a32	0.17789145264426193
38	0x3f97715e32cf26b2	0.02289340195765161
39	0x3f98e67e56a312cb	0.024316762960341614
40	0x3fc7aa95d835bd66	0.18489335114598332
41	0x3fd1673292f76f6a	0.271923678895965
42	0x3f9892bcc144662f	0.023997258468716417
43	0x3fc5f8298eafe4b2	0.1716358133997225
44	0x3fca242b590f0fbb	0.20422880028320187
45	0xbfb8d4de3f1f185b	-0.09699811020900155
46	0xbfc6252ccc886376	-0.17300949084235712
47	0x3fa6bce4a0b9e748	0.044409889812369985
48	0xbfbc762920a3b88d	-0.11117798849929468
49	0xbfcd80d82f7810ea	-0.23049452131102238
50	0xbfb3a60beb51a7f1	-0.0767524194249345
51	0x3fb9a78f8a8038a1	0.10021302348488571
52	0x3fc6a8860e0f30e7	0.17701793371669014
53	0x3fd0fdd27c61bc5c	0.2654920782724213
54	0xbfb575f423b93e03	-0.08383108017118705
55	0xbfb75b567cb09185	-0.09123745483572605
56	0xbfb6eec49692b6aa	-0.0895808093652827
57	0x3f9b612df6285bb0	0.026737898015280315
58	0xbfc2a14f569c367b	-0.14554778794301967
59	0x3fd0f876e9217620	0.2651650692622258
60	0x3fcb60112bd32cd1	0.21386923446548292
61	0x3fc3eb94d9b6dd0b	0.15562687521535454
62	0xbfb42967a4d491d2	-0.07875678800753086
63	0x3fd213509017a7f5	0.2824288756515892
64	0x3f9ffe7662ee8d34	0.031244134701080742
65	0x3fba6029589fbef8	0.10302980817482055
66	0x3fbd05b5298fe50f	0.11336834206294476
67	0x3fd1f0a191cb0519	0.2803119586715908
68	0xbfbb623fef35a435	-0.10696792211605628
69	0xbfd3b9f623819232	-0.3082251879443759
70	0xbfd20dbe5ed43841	-0.28208884487765223
71	0xbfd368ecd5da86dd	-0.30327912220137226
72	0xbfca06c09b89f25b	-0.20333106608076687
73	0x3f9c74ae884c4017	0.027788855618439436
74	0x3fb501965f824cb6	0.0820554717231968
75	0xbfd359406e5077a6	-0.3023224904335343
76	0x3fa40c2133839d99	0.03915504220804706
77	0x3fa36c449939924a	0.03793539400502206
78	0xbfd3fc9ce8db4bee	-0.31229326953797354
79	0xbfb83c5033e24166	-0.094670307795473
80	0xbfd112c60e7b948a	-0.2667708531792604
81	0x3fa3fdba28451d66	0.039045159736413024
82	0xbfc8189f37822ecd	-0.18825140200021054
83	0x3fb818098a9e60d1	0.09411677965397593
84	0x3fa4b7681e23636a	0.04046178214929948
85	0xbfc51976f5ff9517	-0.16483962070120903
86	0x3fb2f03b8301d26d	0.07397815655151314
87	0x3f8b9ca81d14dad3	0.01348239268064103
88	0x3fc6c10c87642f5e	0.1777663861361089
89	0xbfd4acafdfcee1f6	-0.32303997856391165
90	0xbfca6fc20708b593	-0.20653558104951894
91	0x3fce8a2264d74187	0.23859052585477178
92	0xbfb3cac44ccac570	-0.07731272578054926
93	0xbfd3a40d1f33bcb5	-0.30688789412574674
94	0x3fc266015cec2f7a	0.14373795544849682
95	0x3fbe431adf1b3f36	0.11821144053396612
96	0x3fd020d8c0c03017	0.2520048029261956
97	0x3fc8c9b1b6346ead	0.19365521809310363
98	0xbfd0cb5907108611	-0.2624113625516609
99	0xbfbe894cac550d45	-0.11928252417879033

rnn.bias_ih_l0 f8 [10]
0	0xbf5c7de147caea86	-0.0017389965061470904
1	0xbfd03ce1c427816e	-0.25371593623824296
2	0x3fd5518524abffb1	0.33310059148061116
3	0x3fa11927d14b3368	0.033395046518854
4	0xbfb323c4e95fc02e	-0.0747645444641882
5	0x3fc4565914904c58	0.1588851309212227
6	0xbfb298c1adb4e27f	-0.07264338007815672
7	0xbfc73cc7d2525ab0	-0.18154237527479244
8	0xbfc4db291bc4b0dd	-0.16293825012087995
9	0x3fcc219be14c85f1	0.21977566243098992

rnn.bias_hh_l0 f8 [10]
0	0x3f69143f5c1a8ab0	0.0030614125724509264
1	0x3fc23e1d37b0fd17	0.14252057284645822
2	0xbf89d2a36a800907	-0.012608792007089876
3	0xbf8050b4bad332cf	-0.007966434432455398
4	0xbfcd4046d4afe010	-0.22852406869037667
5	0x3fa56ef652413141	0.04186219934544733
6	0xbfbf5ccc6db4e272	-0.12250974348433788
7	0x3fa0510536b69527	0.03186813633809953
8	0xbfad246aef12c390	-0.05691847008109285
9	0x3fcaebef214c85f1	0.21032513738559502

fc.weight f8 [1, 10]
0	0xbfc1169c9d24250e	-0.13350255654248894
1	0xbfb317e4779cbb4d	-0.07458331985683948
2	0x3fd5be8ed96f5ee8	0.33975573762789546
3	0xbfc835109e6028dc	-0.1891194127386545
4	0x3fc8a605bf67b0e3	0.1925666031451164
5	0x3fa2d0e174e6eb08	0.03674988319422395
6	0xbfad526252e677a7	-0.05726916563001732
7	0x3fcbd4b8e92fbeee	0.21742926965770643
8	0xbfbf077a857a72d2	-0.12120786436794198
9	0x3fc648bb8687bb7e	0.17409462040765428

fc.bias f8 [1]
0	0xbfb50e980d3bb40f	-0.08225393603397911
