Thesis-codes/Exp-1/results-archive/archive(without scheduler)/results-5/ew3/save_model/2/MLP_1_best_train_45.pth (torch, 1823 bytes, 4 tensors)

fc1.weight f8 [10, 1]
000000 00 00 00 00 e0 cf ce 3f 00 00 00 00 e4 ec b4 bf
       0.24071884155273438 -0.08173966407775879
000010 00 00 00 80 05 e3 d7 bf 4d 0d ba f2 55 9a ec 3f
       -0.37323129177093506 0.8938398113972795
000020 cf ee 47 a9 3f d3 e3 3f 00 00 00 00 91 0c e8 bf
       0.6195371919888774 -0.7515339851379395
000030 89 5f 11 1b b9 f8 bd 3f 00 00 00 00 f8 e7 c6 bf
       0.11707646284901164 -0.1789541244506836
000040 00 00 00 40 08 6f e2 bf db 6b 40 33 60 3f d5 3f
       -0.5760537385940552 0.3319931507591584

fc1.bias f8 [10]
000000 00 00 00 80 a0 53 e2 bf 00 00 00 c0 c2 ae e7 bf
       -0.5727083683013916 -0.7400830984115601
000010 00 00 00 00 8c f2 dd bf 9e fd 22 13 74 9b ec bf
       -0.4679288864135742 -0.8939762471927002
000020 b3 e9 ae 69 e4 34 e1 3f 00 00 00 00 7a d4 e6 bf
       0.5377065719724697 -0.7134370803833008
000030 94 06 ca f2 d6 46 e9 3f 00 00 00 00 0d 9c d2 bf
       0.789897417256912 -0.2907745838165283
000040 00 00 00 80 0a fa dc bf ab 9e 8a a2 cb 25 d6 3f
       -0.45276129245758057 0.3460568511313606

fc2.weight f8 [1, 10]
000000 00 00 00 00 7f 83 aa 3f 00 00 00 c0 77 1a b1 bf
       0.05178448557853699 -0.06681011617183685
000010 00 00 00 40 78 8a cb 3f 61 fd 75 50 4b 1e c2 bf
       0.21516326069831848 -0.14154950550799142
000020 1f 27 6f 9e b6 c2 a9 bf 00 00 00 00 0c ee cf bf
       -0.05031367000590436 -0.2494521141052246
000030 37 c0 9e 4c d7 0b b8 3f 00 00 00 c0 17 e1 cf 3f
       0.09393067951782617 0.24905678629875183
000040 00 00 00 40 84 d3 ca 3f 70 64 67 10 25 18 d4 3f
       0.2095799744129181 0.31397368051472707

fc2.bias f8 [1]
000000 ce d1 33 f9 3e cc c2 3f
       0.1468580929573719
