Thesis-codes/Exp-1/results-archive/archive(without scheduler)/results-5/sg9/save_model/0/GRU_best_train_35.pth (torch, 5143 bytes, 6 tensors)

gru.weight_ih_l0 f8 [30, 1]
000000 fe c0 d8 ba 77 7d b3 bf 61 bd 4e 3e c8 07 70 3f
       -0.07613323508917699 0.0039136716849691175
000010 6a 84 e3 bb aa da c4 3f d0 f6 0b 8d b2 b9 da 3f
       0.1629231851029858 0.4175840737733383
000020 8d 78 74 a1 0e 57 c1 bf 9e 22 53 9b d2 45 c3 bf
       -0.1354692734102553 -0.1505683191701523
000030 2b 29 b3 97 22 48 d0 3f f5 a3 11 ca 93 04 c0 bf
       0.25440277876318146 -0.1251396881737318
000040 2c e2 c4 12 e7 44 c1 bf e6 2a a3 50 7c 70 c5 3f
       -0.13491524139841837 0.16749528825160737
000050 4f 99 aa cc 6d d4 43 bf 0e 12 e1 09 1c ee d3 bf
       -0.0006051574831260983 -0.3114080521084198
000060 ed 1f cc c1 6f f9 cb bf 52 6b 9a 03 e5 ff 81 bf
       -0.21854969942819427 -0.008788861439190807
000070 69 c6 95 c8 0a 2a d7 bf 4e 10 b8 d3 fd 21 c8 3f
       -0.36194104755768436 0.18853733861772287
000080 34 92 91 cd 21 ca d2 bf 2e df ad 07 29 1e bd 3f
       -0.29358716082632275 0.11374145925026077
000090 96 dc 58 a8 1e 51 d0 3f ed f1 0a e5 3b 44 ac bf
       0.25495115699909243 -0.05520808382923179
0000a0 c3 a7 30 de 23 03 d9 bf 33 7c fe a3 5d af d7 3f
       -0.39081665704963714 0.3700784780029977
0000b0 87 37 c4 d2 d8 1e d3 bf 5e 44 4e e9 b6 51 db 3f
       -0.29875774939215954 0.4268624571205403
0000c0 47 ba 61 14 70 cd d6 bf 2d 1e 99 ab 2b a9 ad bf
       -0.35628892889409197 -0.0579312941522939
0000d0 f7 ce 0b 6c be 88 a6 3f e5 3d fd ff 4f 32 90 3f
       0.044012022675728284 0.01581692695554961
0000e0 e3 c7 2d 7c b2 c1 bf 3f 68 9f a0 9b 1e 64 de bf
       0.12404933482846973 -0.474860813121714

gru.weight_hh_l0 f8 [30, 10]
000000 84 e2 45 0d 2e 8d c8 3f 64 62 8a 69 4e bc 87 3f
       0.19180846832366083 0.011589634509889986
000010 67 97 11 84 cb 60 ce bf 82 c8 a3 49 18 8c b8 3f
       -0.23732894848506733 0.09588767812582158
000020 31 62 89 b6 d8 2a c3 bf 43 ff 3d 04 f0 8a cd 3f
       -0.1497450724880465 0.23080253798615943
000030 a5 cb 07 c9 13 d1 88 bf b5 e1 08 20 02 c5 bd 3f
       -0.01211753327604532 0.11628735811326048
000040 27 f7 d2 1a 05 18 d3 3f 9b 1c 51 e3 86 c6 d9 bf
       0.29834106082477024 -0.40274212073240684
000050 dc d3 3a 3a 31 e4 b6 bf e2 f9 a0 19 70 a0 d0 3f
       -0.0894194380915247 0.2597923517495514
000060 d0 7d a1 4b c3 3d c0 bf e7 cc ec 7f 10 a3 b9 bf
       -0.1268848532954352 -0.10014441607636436
000070 b7 09 ff 07 12 f7 c0 3f bf 42 ee cc 51 a2 a3 bf
       0.13253999128762725 -0.03834777475924999
000080 74 21 2c c6 8e 40 bd bf a5 01 25 ef cf 5a c5 bf
       -0.11426632250016217 -0.16683386971454897
000090 08 26 92 01 11 29 d3 3f 1a ba 4a c7 4e 40 c3 bf
       0.29938149598510266 -0.15040001612710868
0000a0 a4 a8 80 b9 23 2e d1 bf c3 b1 af 26 07 95 ce 3f
       -0.2684411346005027 0.238922971620367
0000b0 a1 a5 87 51 04 c3 c1 bf 8a b8 6b 6c 12 36 bb bf
       -0.1387639425368379 -0.10629382273666202
0000c0 14 86 4d c8 bb eb c5 bf bd 5f e5 db c9 f7 c8 3f
       -0.17125651626979332 0.19506190526112546
0000d0 0e d8 4f bc ae 88 cd bf 6d 0a 78 63 0b 31 c4 bf
       -0.23073372073093917 -0.1577467189491303
0000e0 68 30 93 f4 0c b7 b2 3f ce 25 58 77 d7 37 d2 bf
       0.07310563059871955 -0.2846583047363226
0000f0 37 26 24 8c 3a bc b6 3f ec 32 0f c9 50 ec c1 bf
       0.08880964204231466 -0.14002427880622947
000100 09 ec 0d 69 b0 15 b8 3f e6 84 c3 c9 5a 7c c6 3f
       0.09408094944767255 0.17567000247712555
000110 26 8d d8 1e 1e 27 b5 3f cc f2 80 73 e6 9a d0 3f
       0.08262813809465239 0.2594543579069011
000120 71 09 d6 9a ea e9 d3 3f 4c b9 10 e4 8c b7 c6 3f
       0.3111521255560979 0.17747651229860606
000130 3d fd 05 55 80 ed c4 3f 8f b1 60 32 84 2b cd 3f
       0.16349796439679123 0.22789051494454468
000140 7b 41 b6 ee c9 d7 b8 3f d8 ec 71 1c 81 77 bd bf
       0.09704267576149121 -0.11510474152048589
000150 2a 98 e5 62 3b 61 cf 3f 1f ef e6 18 10 d2 d2 3f
       0.24515478447864442 0.29407122070164066
000160 d6 f2 fc c1 a9 98 c9 bf ef 12 86 3d a1 ef bd bf
       -0.19997140857767332 -0.11693771125835516
000170 54 b8 8d d8 df e3 b3 3f 27 eb 40 3b e6 38 b2 bf
       0.07769583737328506 -0.0711807150518494
000180 8a b1 fc e1 9a c5 ce bf 6c 26 88 85 3a ed c1 3f
       -0.24040542635465229 0.14005214233502572
000190 48 66 2b 66 fd 07 cf 3f 4e 71 46 41 e6 e2 bf 3f
       0.24243133057352595 0.12455596059448235
0001a0 9b 45 b0 c8 28 bb d1 3f 6b 44 52 b6 ba ce d3 3f
       0.2770482978677024 0.309492757843208
0001b0 c0 44 33 f2 1f 6a ad 3f 2f 2d 00 a0 23 0e 8c bf
       0.05745029288812864 -0.013698843307813206
0001c0 cb 27 e0 38 df 87 a6 bf 9b d8 30 ea bc 70 aa 3f
       -0.04400537080080332 0.051641372287506836
0001d0 70 32 65 2f 4c 4c c1 3f ff 18 b1 2f 65 06 d5 3f
       0.13514091791366267 0.32851533563042773
0001e0 dd 9f f3 38 2e 4f c0 bf 87 90 08 09 16 d1 ba 3f
       -0.12741639881937675 0.10475290031951277
0001f0 cc 96 5c 94 a6 fb b7 bf 96 9f 36 12 a5 fc c6 3f
       -0.09368363496886473 0.1795851077015384
000200 f1 a9 59 2e 89 38 ba bf c6 2d 95 6d 63 c6 b5 3f
       -0.10242516881559262 0.08505841660842525
000210 0c 1d a1 3d b4 87 a6 3f 4d 4f 7a 10 9b 01 c4 3f
       0.04400408985434909 0.15629900269106614
000220 33 fd 0b f3 ab 79 c0 bf 3a 00 ee d9 15 ee cf bf
       -0.12871312491913897 -0.249453288470251
000230 57 8a ea cb 75 d4 d3 3f b9 68 8a 2d 97 69 c3 bf
       0.3098425380104905 -0.15165986751236973
000240 f3 05 cc 80 cf 6a d3 3f e0 d2 19 bf ce 43 bb 3f
       0.3033941991598958 0.10650341191815071
000250 64 6c 7d 07 6f d0 c9 bf bb 6f 93 24 6a 7b ce 3f
       -0.20167339196891299 0.23814131532605906
000260 72 b3 c4 db ad 89 cc bf 11 80 7c f4 ba e4 cb bf
       -0.22295163374783616 -0.2179177945881752
000270 da c7 17 7a 85 b5 c0 bf 3a b1 7e 28 22 34 bc 3f
       -0.1305395933300691 0.11017049301762408
000280 87 07 c7 8f e5 a2 aa 3f cf 7c e9 5c a9 de a7 bf
       0.0520240533837884 -0.046620647994808466
000290 82 a1 75 4f 39 ee d2 bf 5f ad 94 38 c9 2c cb 3f
       -0.29579003104893087 0.2123042608521741
0002a0 72 01 7a a5 00 f9 cd 3f a3 98 94 d3 19 1b d4 3f
       0.23416145400916438 0.31415410673288074
0002b0 41 8e 78 a3 e0 fc cc bf d9 20 55 49 ed 11 d1 3f
       -0.2264672086904387 0.26671917115574
0002c0 d7 7e a5 50 ac 12 ca 3f 10 c0 7e 2c a8 48 d7 3f
       0.20369485795799022 0.36380962701059705
0002d0 11 af d1 3f 0a fe d2 3f a4 82 90 0e a0 f5 c6 bf
       0.29675537330943863 -0.17937088690907388
0002e0 d0 26 25 d8 a4 17 b5 3f 7d 5d 5f d2 c0 ff be bf
       0.08239202763538889 -0.12108998428390368
0002f0 6a 70 f1 7e 7d bd c2 3f 72 45 33 ba ea fb b9 bf
       0.14640778253931624 -0.10150019689469561
000300 b9 92 e7 e5 1a 6a bf bf 6d d3 58 c7 72 01 d3 bf
       -0.1227127848902211 -0.2969634005306066
000310 c0 22 2e a1 4b 5c ca 3f d4 0d c7 f7 d7 08 d1 bf
       0.205941632939604 -0.26616477200533706
000320 1f 62 df ac 67 f5 b7 3f d7 f0 ff 65 eb 32 e0 bf
       0.09358833284876099 -0.5062157623465521
000330 49 73 f9 5d b0 98 b0 3f 18 af 2b 2e c0 52 ba 3f
       0.06482984823510408 0.10282517554486181
000340 8e 8b ea 4c 8c 29 9f bf 04 a2 e9 58 a2 7a d6 3f
       -0.030431930727569383 0.35123499567865246
000350 36 49 a4 0c 33 46 cd 3f 76 81 74 2a e8 d1 9f 3f
       0.228704816029287 0.031074168769124687
000360 c6 30 1c d4 c1 33 c3 bf c6 10 f5 4c 6d e0 db 3f
       -0.15001700264872947 0.4355729342971809
000370 47 ca c6 1f 21 ef 96 bf 32 14 8f 57 24 76 c8 bf
       -0.022396581234440906 -0.1911054065259648
000380 76 a6 47 20 f5 70 a9 3f bc 6d 10 1a 03 19 c1 bf
       0.04968992251435804 -0.13357580921807066
000390 f1 2c cc f8 e3 88 a2 bf 01 96 a2 14 53 f0 de 3f
       -0.03620064174728011 0.4834182454600012
0003a0 a1 8a 1c 14 08 7d c7 3f 6b 1d 07 00 78 52 b8 bf
       0.18350316030508387 -0.09500837326696902
0003b0 b4 dc af 8d 24 2f c3 bf 7b b1 f5 01 1f 47 a3 bf
       -0.14987618368443167 -0.03765198611185646
0003c0 50 65 7b 9c 33 f2 b5 3f 71 e5 7f 08 ef aa bf 3f
       0.08572695322381674 0.12370199162969243
0003d0 73 5e 9e 01 95 61 d5 3f de 25 3c 91 0e 26 a8 3f
       0.33408093603200156 0.0471653511322747
0003e0 6c 0a 5a d9 fd a8 d3 3f 5d 9a f1 cc d0 c2 b7 bf
       0.3071894285750776 -0.09281640056142622
0003f0 53 66 be 53 22 86 b3 3f 24 c1 c4 54 6c ab d8 bf
       0.07626547379040831 -0.3854628398721778
000400 47 93 fd ae 57 40 a6 bf 66 a3 ce 1d e8 47 bc bf
       -0.043459644423626424 -0.11047220924105047
000410 ee a6 fa 29 4b b9 df 3f 75 c0 a3 c3 e5 ea a6 bf
       0.4956844243957751 -0.04476087582759273
000420 53 74 b6 fe c4 5f be 3f e2 78 2c 8e b0 dd 7b bf
       0.11864882677623827 -0.006803216618918225
000430 fe be 18 76 fa 1d d0 3f ad c1 f4 ba 6c 4c dd 3f
       0.25182973416211485 0.457789595197961
000440 f0 85 79 e2 dd 8b d8 3f 35 b9 c2 51 92 07 da bf
       0.3835367881457321 -0.4067121313518272
000450 de f5 c8 81 d5 07 c2 bf 75 66 c2 f3 83 b8 d0 3f
       -0.14086407506140025 0.2612619286024718
000460 cf f2 34 d7 7a 23 cd 3f f5 e4 db f1 72 f9 de bf
       0.22764525898118967 -0.4839751588729791
000470 d6 d3 c9 88 e2 9e ab bf 90 6c eb f9 e0 a0 db bf
       -0.0539465705850614 -0.4316942635175076
000480 ee 6e 4c 0d 3e aa d1 3f 81 7c b5 1e bd 84 a2 bf
       0.27601577089966056 -0.03616896629204636
000490 aa a2 3a 80 3b 14 e0 3f ca ae 2e 28 bf 78 c7 bf
       0.5024697784875418 -0.18337239706067116
0004a0 8e a6 71 10 3a bd d1 bf 2d 52 4e 96 31 cb 78 3f
       -0.2771744881234576 0.006053155612694411
0004b0 4e 70 7d a9 4d 9d 87 3f 11 13 2d d0 37 fa 69 3f
       0.0115305011128656 0.0031710710622142664
0004c0 cd 91 f0 3d 84 8f 8f 3f cc b2 1d b9 47 96 b8 3f
       0.015410454883814229 0.09604309338983369
0004d0 5e 28 97 bd 88 14 90 3f 72 be 51 17 f5 fa c1 3f
       0.015703331538852054 0.1404711116660909
0004e0 85 b3 42 db 3c f8 b3 bf 62 83 e3 1c d9 4c ac bf
       -0.07800655701676192 -0.05527380445142317
0004f0 fa 55 ff 52 0b ca bc 3f ff fb 2f ed f5 ea a3 bf
       0.11245795036605691 -0.03890198250154952
000500 ea b2 80 99 3e 21 a4 3f 26 46 a8 48 e4 cd a3 bf
       0.039316135633589 -0.03868020426683598
000510 de 4f 87 67 72 b1 ca bf 13 18 23 05 d3 ac ba 3f
       -0.20854024939637744 0.10419958949486867
000520 e3 92 9e 31 11 32 b8 3f 9e 71 a3 47 11 c4 a8 bf
       0.09451396428500973 -0.04837087630741908
000530 c9 93 88 60 72 93 aa bf 70 35 7e 22 ba 29 d2 3f
       -0.051906179698825 0.28379681938607515
000540 67 e6 a0 13 be f2 81 3f 0e 7e fa 5a c1 d3 d1 3f
       0.008763775800719032 0.27854951748483436
000550 01 a5 76 7a a9 40 d2 bf fa ac 91 5e 1e 81 d3 3f
       -0.2851966567928486 0.30475577578791013
000560 89 fc 39 db 5d e2 c2 bf f7 b7 80 71 b6 0b c7 3f
       -0.1475331612054769 0.1800449423039365
000570 89 be e5 54 14 f3 94 3f 0d b1 88 7b 5d 52 da bf
       0.02045852440045207 -0.4112771707903143
000580 27 18 34 32 6d 6b d6 bf 8b 01 1e d0 51 73 a8 3f
       -0.3503067960995189 0.047754818587239255
000590 39 76 65 3d a8 a5 d6 3f 79 5a ca e7 eb 31 af bf
       0.353860912282332 -0.06092774586175138
0005a0 27 1b 97 cf eb 67 df bf ac be e7 64 6f b4 a4 bf
       -0.49071784279333247 -0.040439110820327556
0005b0 a4 d4 95 56 cc 82 d7 bf 36 f3 4d 22 46 2a a9 3f
       -0.3673582883414588 0.049150649726448156
0005c0 57 71 c7 26 ec d6 db bf 17 84 8f 20 65 64 9e bf
       -0.43499282633799424 -0.029679851639119983
0005d0 ea db 65 80 7b 02 bc 3f 37 d5 71 33 92 d5 88 3f
       0.10941287884439502 0.012126104540792866
0005e0 a3 a4 57 5d 68 94 c2 3f 4c e4 55 43 ca 9c ca bf
       0.1451540427945349 -0.20790985381953175
0005f0 2e 4f ba 35 c8 34 b3 3f fd 1a 0f d5 31 ce af bf
       0.07502414046967651 -0.0621200153905672
000600 60 5d 7b 62 d9 f6 d1 3f 5e dd 48 f7 fd 10 b1 bf
       0.2806914769875757 -0.06666552817556723
000610 d8 2d 7f 1b e9 ff c7 3f c5 5f 23 46 76 3b b1 bf
       0.18749727099053248 -0.06731356823308861
000620 62 a9 42 c9 6d bb a6 bf 83 da 89 ee 56 83 d4 bf
       -0.044398718660277905 -0.3205163316228338
000630 04 a3 f3 50 92 37 db bf 63 67 0b 27 ce 1f c6 3f
       -0.42526681809845024 0.17284562021705616
000640 5f 61 40 72 6f aa ba 3f 3c 6e ea 78 0c 23 c8 3f
       0.10416313685744204 0.18856960205163087
000650 2d 67 cf 0e db cf c5 3f ac 42 60 1c dd 79 b8 bf
       0.17040575240280856 -0.09560949270986424
000660 cf 7f 49 02 06 54 d4 3f c5 00 64 3b 32 50 d3 3f
       0.3176283857665085 0.3017697887407958
000670 5d 43 30 5a 3f 04 d1 3f 37 4e 9f f8 4d f9 cb bf
       0.2658842449900954 -0.21854567184219473
000680 58 41 f7 5b 4f 70 c2 bf 26 1d 83 46 28 31 76 3f
       -0.14405242910880633 0.005417973829202871
000690 7c 7f 54 31 11 95 c6 bf 8c a0 4c 5b 96 a8 b8 3f
       -0.17642416866965138 0.09632243851649686
0006a0 a8 54 6d f4 03 38 bd bf 20 3e df 2d da 3c c0 3f
       -0.11413597791154706 0.12685706367345606
0006b0 87 1f 9d 53 79 9d a0 bf df 4e be 40 f3 b6 c3 3f
       -0.03245143075633821 0.15402069722460163
0006c0 4d dd 11 8f c2 f1 b5 bf 08 be 2b ee 7b 09 ca 3f
       -0.0857202147761786 0.20341443185269292
0006d0 3e 37 b4 cf 2b 99 ba 3f 73 be ae 83 a6 c8 d1 bf
       0.10389970608613638 -0.2778717313731029
0006e0 6d 2e df a2 72 7c c6 3f 34 2d b9 16 de c3 c6 3f
       0.17567284538960184 0.17785240277803782
0006f0 87 26 f0 c8 aa 3c d1 3f 79 a6 e2 20 34 eb 5f bf
       0.2693278276716246 -0.0019481667582489633
000700 c0 02 35 91 12 bc 80 3f de 83 94 16 25 cc ce bf
       0.008171219879501534 -0.2406050071959091
000710 29 6c c6 b6 42 a7 bb bf 31 03 7d 74 dd 4f a3 bf
       -0.10802094423563403 -0.03771869704224285
000720 4d 9b 3c f9 10 b2 cb bf ba 54 b3 c2 34 83 d1 3f
       -0.2163716523147862 0.273633184563845
000730 16 5b a1 02 bb 7e d3 3f 15 95 6f 4d 39 6d a6 3f
       0.30461001641144614 0.04380206175100391
000740 a3 35 cf 41 83 f3 c8 bf db 0f e2 5f 46 07 ac 3f
       -0.19493141854620175 0.05474300308654253
000750 5e a7 6a b2 e5 11 c5 bf 7f 7e 8d 45 1a 0e d3 3f
       -0.16460868083714336 0.2977357558465669
000760 54 29 11 97 07 be c8 bf 29 4d 66 f7 6d 2d b5 bf
       -0.1932992446548477 -0.08272445001630459
000770 ff 78 b2 0c 7d 63 8c bf dd db 0a ef 43 a9 b6 3f
       -0.013861634206759009 0.08852028451916234
000780 e0 bb 12 6d 9f 54 bf 3f 07 65 40 82 87 f1 c0 3f
       0.12238499081534782 0.13237089023531487
000790 e5 eb 47 43 ad 34 d3 bf 09 c0 2d 73 57 e0 ab 3f
       -0.30009013719944583 0.05444596558561449
0007a0 8f 7c 91 8d b7 d3 92 3f be 37 58 b5 c5 3a ce 3f
       0.01838576127590535 0.23616858820645165
0007b0 02 90 0b 1b 98 c9 c3 3f d6 24 ec 5c 89 90 c2 bf
       0.1545896656090236 -0.14503590619305012
0007c0 0c 5d 25 5f f7 56 d5 3f cf 8a 05 29 98 a6 d5 3f
       0.33343300143811017 0.3382931137659115
0007d0 90 61 13 ce 3f 8d 64 bf 99 f9 df d8 65 5f ba bf
       -0.002508759135349155 -0.10301815552518291
0007e0 13 fb a6 0f fe cc d2 bf f1 dc 78 1a 68 e2 ce 3f
       -0.2937617447714029 0.24128438274940536
0007f0 6c 8d 16 a0 00 b8 9e bf dc d8 f3 0d 3f e7 cd bf
       -0.029998788615228575 -0.23361957722926874

gru.bias_ih_l0 f8 [30]
000000 e6 82 37 3d 19 db c6 3f 45 9c 08 a2 8f e6 cc 3f
       0.1785613583479268 0.22578616534994658
000010 93 16 4e fc 64 59 d3 bf 3a 70 64 b9 fa 31 d1 3f
       -0.3023312057415321 0.2686754999610944
000020 88 ae 18 66 94 b6 a2 3f f7 bf 78 42 78 0e cf bf
       0.03654922243398767 -0.24262908216178378
000030 ab 34 ad e8 f4 d1 d3 3f 12 ff e8 9d 87 15 ce 3f
       0.3096897384865069 0.2350320359273544
000040 0d 3a 74 db b2 88 cc bf da 6b c4 29 c2 6f ce 3f
       -0.2229217120697772 0.23778559722344889
000050 5f 40 7b 32 5b 75 a7 bf a7 d6 ec 39 9b ad db bf
       -0.04581723204830789 -0.4324710908580109
000060 e3 56 43 82 6a dc c2 bf e7 77 77 fb 8d ac dd bf
       -0.1473515640306494 -0.46365689809124294
000070 6b e1 a9 5e 4a 36 d8 bf 5b 00 e4 07 e8 53 c5 bf
       -0.37831362957469733 -0.1666231192139119
000080 4a 92 ea 54 f7 87 b5 3f d7 79 e9 7f 46 51 d5 3f
       0.08410592864181257 0.3330856560841346
000090 fb fb 6c ee f2 6f c0 bf 89 96 85 46 b0 5a b9 bf
       -0.12841641084557395 -0.09904004785274813
0000a0 a6 72 7b 8e bd 48 c8 3f 1f 07 84 de be 20 bb bf
       0.18971986252917822 -0.10596840794098882
0000b0 3d 0e 89 91 54 bd b9 bf 73 97 f6 e9 2f 7a d1 3f
       -0.10054520180806832 0.27308271263097267
0000c0 9f fc 51 27 79 75 b4 bf 83 90 fb c9 53 be ce bf
       -0.07991749963729199 -0.24018332827029462
0000d0 d7 54 1f 0e 3d b0 74 bf bd 00 dc d5 40 07 c6 3f
       -0.005050886627903504 0.17209635202744336
0000e0 d5 47 0a a3 c1 8d d1 3f 73 80 7c 25 ff 60 c1 3f
       0.27427712365999685 0.13577260332477045

gru.bias_hh_l0 f8 [30]
000000 85 c1 9b 1e 88 08 d4 3f bc 63 f7 3d 6d 75 c4 bf
       0.31302073468307184 -0.1598335793085236
000010 68 b6 70 e2 95 1b a1 bf 2c f6 71 d3 e4 10 83 bf
       -0.03341358555949797 -0.00930956621436526
000020 28 d4 79 e6 52 c8 c8 bf 07 40 87 fd c9 5d c0 3f
       -0.19361339811044442 0.1278622138911489
000030 2e d2 b4 22 40 b4 bb 3f 1e 01 2e c4 e5 89 b2 bf
       0.10821915480921326 -0.07241664924186295
000040 df 39 74 5b d7 98 c5 bf 1a 36 e2 d4 ad ac d2 3f
       -0.16872684445884453 0.29178949155252243
000050 bd 67 4f 26 46 5d df bf 47 5a b3 a7 e3 4e b3 bf
       -0.4900679945109195 -0.07542250484707679
000060 da 56 43 82 61 bd c9 bf d4 ef ee 76 d6 df c0 bf
       -0.20109194622516818 -0.13183098609249433
000070 fb d3 c3 2a 50 88 83 3f 69 00 f2 f3 b1 2d d5 bf
       0.009537340455134205 -0.3309140093115333
000080 95 93 54 a7 8e 78 88 3f e1 79 e9 3f e2 49 da 3f
       0.011948694688337183 0.4107595085278302
000090 ab 07 26 63 8d 6a b9 3f bd 65 a1 f1 0e 78 d0 bf
       0.09928210898036009 -0.2573277816460083
0000a0 25 0a 57 39 9f 16 c9 bf 6c b6 40 2c e8 48 d3 3f
       -0.1960028676968061 0.30132488557396786
0000b0 64 3d b6 4f 00 1d c9 bf fb bf 90 24 d5 f8 d2 3f
       -0.19619754688435898 0.2964375359615585
0000c0 d0 fd 86 eb 4c 17 bb bf cc 36 8f 4e 0d 88 c4 bf
       -0.1058242869394157 -0.1604019769278494
0000d0 6e 69 c2 3b 14 c2 c8 bf 7a 19 75 8e 95 4b cd bf
       -0.19342282216969003 -0.22886914688042365
0000e0 10 3a eb 28 69 1b ba bf 51 ba 42 ab a5 cd b2 bf
       -0.1019807553195522 -0.07345042639892908

fc.weight f8 [1, 10]
000000 03 08 a5 e6 02 33 cf bf e2 dd e6 fd 04 30 c9 3f
       -0.24374424230524036 0.19677793881940803
000010 a0 37 84 a4 06 ac d2 bf 0c 6a 2c fa 3a 36 cf 3f
       -0.2917496306043805 0.24384247985365481
000020 09 ca 41 b6 1d b6 ce bf d0 ab a9 51 29 bf c4 bf
       -0.23993274115817112 -0.16208378302994086
000030 13 65 1b 56 42 d4 c2 bf 8d 64 64 ea d7 a2 c5 bf
       -0.14710263447231195 -0.16903208680085804
000040 29 1c 89 f9 07 d7 c7 bf 24 68 44 47 23 a6 de bf
       -0.18624972996096403 -0.47889024696053384

fc.bias f8 [1]
000000 bc c7 9e bc 25 0e ad bf
       -0.05674856116765123
