Thesis-codes/Exp-1/results-archive/results-2-wrong-database/ew3/save_model/1/GRU_best_train_6.pth (torch, 5143 bytes, 6 tensors)

gru.weight_ih_l0 f8 [30, 1]
0	0xbfccd702e1e0746f	-0.22531162289752468
1	0xbf94f281c0ab591c	-0.020456340202906195
2	0x3fb987abd542f897	0.09972642857153101
3	0xbfd5618fd6e6895f	-0.3340797041547798
4	0xbfc86f29f9159454	-0.19089245474165983
5	0x3fd35338c540def6	0.301954453115726
6	0xbfcece8f0119cb3e	-0.2406786685347359
7	0x3fac85a0c94f8e9d	0.05570700127989634
8	0x3fb1d09766706b87	0.06958910227733216
9	0x3fccbe635d379951	0.22456018497104904
10	0xbfcaac569c437860	-0.2083843482022898
11	0xbfd4cc7836975716	-0.3249798329464836
12	0xbfcfe921166963eb	-0.24930204004593234
13	0xbfd0113f9edbcc2f	-0.25105276597531917
14	0xbfc33875aa4663db	-0.15016051115233506
15	0x3fcf8d92738aef3d	0.24650793687566788
16	0xbfb0edc58a35c0d1	-0.06612810730235032
17	0xbfcce785c9624891	-0.22581550915908058
18	0x3fcafe2d11ce8df9	0.21088183755374226
19	0xbf95f3924a2add35	-0.02143696382219425
20	0xbfd576cb44ee9638	-0.3353756116069664
21	0x3fcf3e0d8974183b	0.24408120357128546
22	0x3fcb4333ed984b14	0.21298836804688703
23	0xbfc150045731e7df	-0.13525442369046822
24	0x3fb50449e2f58ff0	0.08209668913838164
25	0xbfce9d4c34bc25eb	-0.23917534422825723
26	0x3fc9a76fed49180f	0.2004222782726974
27	0x3f7a6f0bdc60a50b	0.006453558284229342
28	0xbf82550476815080	-0.008951220385064795
29	0x3fbd03a04959116a	0.11333658018799544

gru.weight_hh_l0 f8 [30, 10]
0	0xbfd339cb642da98d	-0.3004024961761836
1	0xbf9255c19a4040e2	-0.01790525917027786
2	0x3fb2cfefac13b32d	0.07348535491082649
3	0x3fab06514255934e	0.052782573077627334
4	0xbfc38a828517a202	-0.1526644849648307
5	0xbfd1100bd7ff8071	-0.2666043862682335
6	0x3fd110d83cbeabcd	0.2666531174860978
7	0xbfb610d81307abe5	-0.08619451965903087
8	0x3fc1444027a2401a	0.1348953431629532
9	0x3fc640ede429e72f	0.17385648384861827
10	0xbf94d12a0fbae3b2	-0.020329148492894418
11	0x3fc455a121bb17ac	0.15886320254338437
12	0x3fc87e5d19d5589d	0.19135631333728478
13	0xbfd168bd9558513f	-0.2720178564498105
14	0x3fd020efe6318384	0.25201032142472735
15	0xbfad31ab5b402f73	-0.05701957215214195
16	0x3fc08d888b3e27d9	0.12931925581898332
17	0x3f5d7bd96f6f5006	0.0017995475188756784
18	0xbfba6a0b4c9e586a	-0.10318060513086072
19	0x3fce0d40699972e4	0.23477940708371314
20	0xbfb831cb113baeaf	-0.09450978441935363
21	0x3f71ad35ce4dab08	0.004315576724233557
22	0x3fae16d85f4e1ddc	0.05876804507630215
23	0x3fc73fb78be4942f	0.18163198786456422
24	0x3fc792ce3b85f62f	0.18416765123758824
25	0xbfa3b81724d1a0f2	-0.038513873333444595
26	0x3faa5a678ea1d4d8	0.05147098175158654
27	0xbf933ba1231b61fa	-0.018782155769118326
28	0x3fc41784f0b2894d	0.15696775200656035
29	0x3fbe93fbd878a7c1	0.1194455531591805
30	0x3fd457e9540759aa	0.317865688380517
31	0xbfd0645c4c5b7afb	-0.25612552124759674
32	0x3fcaaa2e90eff8fe	0.20831853940030237
33	0xbfc21857e83202ef	-0.1413679012075799
34	0x3fb349afbf3df3ae	0.07534311694139603
35	0x3fc181e9e7bcf63e	0.13677715125406736
36	0x3fbdf079907b9c7f	0.11695060517705434
37	0xbfc9f3e412a75ed3	-0.20275545988874075
38	0xbf7196dbacb37bb3	-0.004294260124168159
39	0xbfb73a47a04913d0	-0.09073302901477054
40	0xbfb6a72874462868	-0.08848812903139136
41	0xbfb830a870ec7731	-0.09449246174741856
42	0x3fb47c9a3df2157b	0.0800262833818887
43	0xbfcbfc4f887dd8ee	-0.21863741078022464
44	0x3fb42bdf41302865	0.0787944349432635
45	0xbfb1a4c877dc754c	-0.06892064024255723
46	0xbf86420dd4ba4de3	-0.010868175558505782
47	0x3fc386b8a1182d31	0.15254886499347145
48	0xbfbb4a4c88478239	-0.10660246207363223
49	0xbfc3156a768d781d	-0.14909106053068025
50	0x3fc151a3f009339f	0.13530396671776843
51	0x3fc98bdd7360ecbf	0.19958084233971893
52	0xbfb383e6ab0ad4f0	-0.07623140025937736
53	0x3fc10d47a544b761	0.13321776933428978
54	0x3fc94967ca9aaa30	0.1975526561048624
55	0x3fbaaa0e24e6b66c	0.1041573371973869
56	0x3fd172fe2af87e7f	0.2726436061511563
57	0x3fc4eb794659b0b4	0.16343608794284636
58	0xbfaea285e2ff0dd0	-0.05983370204878791
59	0xbfcacaa82d183caa	-0.20930959894073925
60	0xbfbae968c0f0bcd1	-0.10512404165705226
61	0xbfb0f70ad7c43349	-0.0662695671819168
62	0xbfc962b402c1ac9c	-0.19832468161198313
63	0x3fbc7da20ba24610	0.11129200729399025
64	0x3fb96c6215d4ef3a	0.09931004555704429
65	0x3fc6ea955fbed018	0.17903392005030194
66	0xbfca8802a3000393	-0.20727570494639433
67	0xbfc28c3ff07499ae	-0.14490508309354538
68	0xbfc99fd0e7d14951	-0.20018969840254866
69	0xbfbf477d1645dee2	-0.12218457978985556
70	0xbfc5638349af804f	-0.16709939096381496
71	0x3fb637d3d8220ae3	0.08678936030086563
72	0x3fb98942ae84fd85	0.09975067864160365
73	0x3f9ec8aec1cf5674	0.030062418536394422
74	0x3fd5a56a638cb474	0.3382211658634511
75	0x3fd2ce5f88ac1fdd	0.29384601923856996
76	0xbfb9b2970c297ba6	-0.10038131758618238
77	0xbfb5c4556feeda98	-0.0850270651124937
78	0x3f9b83588d585f76	0.026868232371355792
79	0xbf896ebdf28a484e	-0.012418254818190057
80	0x3fc81afbab2253f7	0.18832345825344962
81	0x3fbe08fbaee3b0bc	0.1173245717979538
82	0xbfd374e1ab195fc0	-0.30400888165376827
83	0xbfae912268b57575	-0.05970103767570382
84	0x3fcb2e9ff0d585e0	0.2123603750178935
85	0x3fc164da8902fd47	0.13589030923865605
86	0xbfb9027531a42b4d	-0.09769375287957623
87	0xbfceb552ee073883	-0.239908567642889
88	0xbfaf7d5bbeb80cb7	-0.061503283530350776
89	0x3f960b4c0dc2ee26	0.02152746995919421
90	0x3fc4047851d6e149	0.15638641353667485
91	0xbfa04f15a331241f	-0.031853367014783134
92	0x3fc5990db74129b0	0.16873332450843526
93	0xbfd139c54d2a4d10	-0.2691510442320615
94	0xbfd57e2a97d09074	-0.3358255846562834
95	0x3f779e123d22f7c3	0.005765982861872079
96	0xbfd2b56f4a3b81c6	-0.29232389687788574
97	0x3f5c02c9ed9b29e9	0.001709649272401687
98	0x3fc422bdfefa8497	0.15731024694563153
99	0x3fcc4518c3d82090	0.22085866511065833
100	0xbfa6d44248e7607b	-0.04458815708102378
101	0xbfc70e215db5376a	-0.18011872363643572
102	0x3fd5248d3f8bf7c4	0.33035594182717554
103	0xbfce88ce72715d83	-0.23855000103024446
104	0xbfb3d314a34f04cd	-0.07743958460834506
105	0xbfc2eeaa2e917a79	-0.14790847085801653
106	0xbf982c306084ecab	-0.02360606755358378
107	0xbfcba63ef0e470f7	-0.21601092111894335
108	0xbfb91a2f373cf02a	-0.09805579279503776
109	0xbfc8bd069ac41952	-0.19326860958990238
110	0x3fc49503e339792e	0.1607975825781493
111	0x3fd50e3d74458d35	0.32899414400727106
112	0x3fb580b11c4ef1e8	0.08399493161318328
113	0x3fc828bad021c708	0.18874297297184506
114	0x3fd5b9a89a913c8b	0.33945670217958285
115	0x3f499bbb9d40b35d	0.0007815042577071597
116	0x3fd61b0ea604ee32	0.3454014416963417
117	0xbf7fd26f0e3db63e	-0.007769044695903169
118	0x3fcfd04045464678	0.24854281790299004
119	0x3fc05e32501e7d12	0.12787465011658888
120	0xbf80c517de425ef7	-0.008188425512613657
121	0xbfc7bcec71b1116d	-0.1854529910216444
122	0xbfcee2f283c7875c	-0.2413008826688906
123	0xbfc7617e900a69ae	-0.18266279252277456
124	0xbfd38b2ac4bc8302	-0.30536908352409864
125	0x3fcb05a7c5250487	0.21111008764458836
126	0xbfca8c56f4079c1f	-0.2074078265715977
127	0xbfb890e1984e6703	-0.09596071213163886
128	0xbfbbeafe54f5fe55	-0.10905446600190179
129	0xbfcc1e2fe000bf67	-0.21967123448984724
130	0xbfb52e0f32d9cdad	-0.08273406020616987
131	0x3fcb1f1e02cda3b8	0.21188712250594022
132	0x3fca4ef4a6a42776	0.20553453575876873
133	0x3fd46d543803e84e	0.3191729113601739
134	0xbfc2949367c8d85e	-0.14515917365651182
135	0xbfc2c25372e5345f	-0.14655535802959016
136	0x3fc4d156b6b20cf8	0.16263851090125292
137	0xbfd0796340d80ab8	-0.2574089177361816
138	0xbfcabcfa9bf37eab	-0.20889217963030168
139	0xbfcba426e7084d90	-0.21594702034836333
140	0x3fcd0dbe91e1a5a0	0.22698194621197576
141	0xbfd08a95e730813e	-0.2584585912427605
142	0x3f8224f8243fcc85	0.00885957584976028
143	0xbfd3e0e3685771c5	-0.31060109319312473
144	0xbfc98b2e1ea08c93	-0.1995599412485701
145	0x3fc9b0a6422f0e4b	0.20070341331130445
146	0x3fd4b537735a8efe	0.3235605837346468
147	0x3f9877f54fc64e46	0.02389510440259659
148	0xbfc9ad18ba0fd873	-0.20059498868039646
149	0xbfad535b84970a49	-0.05727659219293863
150	0xbfcdd3e765d56217	-0.23302929375019296
151	0x3fcf4bbda863d1bb	0.24449892732776654
152	0x3f9310ca91f9e1c4	0.018618741187738555
153	0xbfb4830d52297aee	-0.08012469535740838
154	0x3fcbed8cd6744ae1	0.2181869551792124
155	0x3fc89415d43eefe6	0.1920192037922554
156	0x3fc3810e2bdba13f	0.15237595693111847
157	0x3fbec49b5a7f75d3	0.12018748244687254
158	0x3fc417e495e38747	0.15697915381229618
159	0xbfc9e9920c9ffc7b	-0.20244050613834816
160	0xbfd11ab2b4da7937	-0.26725452100244546
161	0x3fa81c02a01455a4	0.04708870128721834
162	0x3fb1da4e19f43b04	0.06973732122080994
163	0xbfba131610b2662e	-0.10185373218191593
164	0x3fb9627d19abeb63	0.09915906788584787
165	0x3fc4178af0d15ec8	0.1569684673183842
166	0xbfb9620447eb2d99	-0.09915186649157305
167	0x3fbf4d1de7d2dd78	0.12227045926817037
168	0xbfb45e5a5071f7c5	-0.07956470932000943
169	0x3fc84652903c8831	0.1896460727958256
170	0xbfc5bde782337e25	-0.16985792024114335
171	0x3fc9695a65c365cc	0.19852762192640083
172	0x3fb2773f39979d68	0.07213206440029796
173	0x3fa2c18c733660b5	0.03663290888215568
174	0xbfbc0d24b43435fc	-0.10957555198202579
175	0x3faa24c61c58d2b6	0.05106181236297884
176	0xbfcff776235c8e88	-0.24973942495954682
177	0x3fbb57632beaad91	0.10680217573342633
178	0xbfd0394c6c1ea4c0	-0.2534972244125804
179	0xbfc97461b8f2f23e	-0.19886418848717996
180	0x3fd07b152b09966a	0.25751237109066116
181	0x3fd0f7125a74a182	0.26508005937150625
182	0xbfc049cbe113b8f8	-0.12725208749856853
183	0xbfca47eb26fc25b3	-0.20531978038370155
184	0xbfd3f59382cbefe2	-0.31186378262623127
185	0xbfc34a802bda4ee8	-0.1507110799908482
186	0xbfd225efea2e0d82	-0.2835655009186767
187	0x3fb9548d5584a9f2	0.09894641244742511
188	0xbfb94b2c721f4058	-0.09880330835517392
189	0xbfd3d6c75367ba4a	-0.30998404641187405
190	0xbfbfaf3a69038666	-0.12376751960575802
191	0x3f757bc6b2f5e7fc	0.005244995277616123
192	0xbfabe83d4874a1e2	-0.054506220907857075
193	0x3fc5bf39c4d1f856	0.16989824400292503
194	0x3fc848869a80424c	0.18971331161493976
195	0x3f826027eae032f3	0.008972465377178085
196	0x3fc4aed53266d819	0.16158547364256107
197	0x3fa39d707cc8794e	0.03831054232817853
198	0x3fc021441f37222a	0.12601520084560153
199	0xbfcd587c0631281f	-0.22926283171028758
200	0x3fc84e29954197b6	0.18988532817746567
201	0x3fd112de0c23bbbf	0.26677657304292873
202	0xbfc746703b70cc90	-0.18183710958837596
203	0xbfb7aa8c1799bc83	-0.09244609428582078
204	0x3fc3fd14566a613d	0.15616087169179052
205	0xbfc84372a3f48d82	-0.1895583439410125
206	0x3fd4b5d14167d76b	0.32359725367802267
207	0xbfc12d983f830081	-0.134203940402589
208	0x3fbd59467ce9dd1d	0.11464348363539441
209	0xbfb88c8d9266f37e	-0.09589466881057082
210	0xbf910b4c1c512bc1	-0.016644658306443242
211	0x3fd22fd7ec77c4c6	0.28417013256610024
212	0xbfd3e41ffe344089	-0.3107986433469781
213	0x3fa8ddda205278a2	0.048567596860480636
214	0x3fcffc2d9b9442ef	0.24988336655271534
215	0xbfc0ac5ecfc1d12c	-0.13026032585515546
216	0xbfcd76f1c4c9cc73	-0.23019239529421362
217	0x3fc5c397efd70423	0.17003154002125695
218	0xbfc36618df8404af	-0.15155325807430617
219	0xbfc88d5866fa3d41	-0.19181351688573936
220	0xbf7801d324557944	-0.005861115239296947
221	0x3fbc03f1e1173a29	0.1094351934945982
222	0x3fce6c393178d387	0.2376777164041892
223	0x3fd01c6bc920b541	0.25173468247779246
224	0xbfcbdd4d391bf631	-0.2176910904744758
225	0xbfcb2aaef8d70db8	-0.2122400965728113
226	0x3fd391cc98f1f278	0.30577387748761664
227	0x3fc1447291e394c0	0.13490135310636298
228	0xbfc2ec465462c7ee	-0.14783553238299824
229	0xbfbefc486d91671b	-0.12103703188895702
230	0x3f9a937fbf0b2860	0.0259532890657187
231	0x3fb85795340ae1e0	0.09508640785759992
232	0xbfc75f1a0484b135	-0.1825897714674142
233	0x3fc25427091ab347	0.14319312996431163
234	0x3fcc84793255a5a5	0.22279276807539108
235	0x3f65cd77aec49e9a	0.0026614511063092873
236	0x3fc63057ab937e17	0.1733502948545584
237	0x3fa5d94f8bad9b4e	0.04267357425742678
238	0xbfce0629d8290f5c	-0.23456309370714734
239	0xbf62627a70f91c1a	-0.0022442237311994908
240	0x3f7b3b403114c092	0.006648302792470544
241	0xbfc875e3427ddaa6	-0.19109764811192526
242	0x3fc65d40acd84e70	0.1747208446473567
243	0xbf7bd78ab4804f4a	-0.006797353569726836
244	0x3fac95f153b15315	0.05583147188796126
245	0x3fb52e838dd37d0f	0.08274099552680901
246	0xbfcfd9725de6401c	-0.2488234480374566
247	0x3f88ded6d6477499	0.01214378205707538
248	0xbfb211df2c31c5fc	-0.07058520153966436
249	0x3fd0036965c765a5	0.25020823420853794
250	0xbfd3cbefa99949e0	-0.30932227671033097
251	0x3fae60e1fd612670	0.059332906894792425
252	0x3fcb44695bb9c6e3	0.2130252550010062
253	0x3f94f7ebfe6250c9	0.020476996804590173
254	0xbfcc4e0298b2f762	-0.22113068061838265
255	0xbfa1ef606df0adce	-0.03502942411463615

gru.bias_ih_l0 f8 [30]
0	0x3fd3b0887b4384a4	0.307649727225064
1	0x3fd11fb22fd1ecf1	0.2675595728866958
2	0x3f89d04ac227478e	0.012604316759197844
3	0xbfc7cbb083e4cfe8	-0.18590361061217142
4	0x3fc47d1900a2bf07	0.16006767779389738
5	0xbfd29b05fe28b8cb	-0.2907118780157247
6	0x3fbf9a72b1e67ad8	0.12345043986577353
7	0x3fd1f9e49900f535	0.2808772558381237
8	0xbfd232feeca5eee3	-0.2843625365273807
9	0xbfc17a40113201f2	-0.13654328193298643
10	0xbfd14db9e7144939	-0.27036902967769866
11	0xbfd5fd5edbc76cfb	-0.3435895105628359
12	0xbfc8909fb9e6e14e	-0.19191357209434518
13	0x3fca97d948f33f6c	0.20775905668278527
14	0xbfd12565f9bc55a8	-0.2679076136422176
15	0xbfc5e316a8442766	-0.1709926911938126
16	0x3fb25c532af418b2	0.07172126578015783
17	0xbfcf112f727885b2	-0.24271195496934933
18	0x3f5951071de256bf	0.0015451974391331028
19	0xbfc140a790835770	-0.13478560024548925
20	0xbfb60ecd06b77805	-0.08616334356290174
21	0xbfb97a272ffd1247	-0.09952015801997859
22	0xbfc4c8193086cf37	-0.1623565184541975
23	0x3fd2a3ec319ae23d	0.2912550434516879
24	0xbfbb500b65b35614	-0.1066901324550929
25	0xbfc8572ff828c7be	-0.19016074769166197
26	0xbfaac4ea7e5894ca	-0.05228359978017634
27	0xbfd001701ed491a8	-0.250087766750108
28	0xbfd2a449e9a82103	-0.29127738779108386
29	0xbfc1300befabd3c7	-0.13427876665778468

gru.bias_hh_l0 f8 [30]
0	0x3fce147676870958	0.23499947345232886
1	0xbfb38e8500b84c61	-0.0763934256322485
2	0x3fd5247796113a1e	0.3303507771969708
3	0x3fc6481f1c1b3018	0.17407597420094656
4	0x3fc3c05980a2bf07	0.1543075445274484
5	0x3fd03825c1d74730	0.25342697076586074
6	0x3fc5cad1d8f33d6b	0.170252066548055
7	0xbfd1996766ff0ad2	-0.27498803194263843
8	0x3fb47627cd684448	0.07992790951563322
9	0x3fc789fd8ecdfe0e	0.18389863465198214
10	0xbfd215aad7144944	-0.28257246974785155
11	0x3fbd01d590e24c2b	0.11330923831182875
12	0x3fd331ff230c8f4c	0.2999265520359031
13	0xbfc5d29b170cc094	-0.1704896795795362
14	0x3fb1fd21990ea9e7	0.07026872622251511
15	0xbfa2e180a1109d45	-0.036876697217219014
16	0x3fa5476255e831c5	0.04156024264020489
17	0xbfc35a93f27885b2	-0.15120171870607418
18	0xbfcfab9d71c43b59	-0.24742477469450355
19	0xbfa0b1f2c20d5dcf	-0.03260763758469986
20	0xbfcbf5bb85eaf658	-0.2184366611381161
21	0xbfa293aa2d27a5a7	-0.036282842647618545
22	0xbfc6ae234793e2e9	-0.1771892642498394
23	0xbfae554f56b72964	-0.059244613013634845
24	0xbfc94460692438d9	-0.1973991883646196
25	0x3fd306db5b22dec7	0.29729350948353467
26	0xbfc7e6f8a00a3993	-0.18673618139696355
27	0x3fc7c26ab8e317cd	0.18562063243569896
28	0x3f9ff4dbec4adbf8	0.03120750074114295
29	0xbfc7ae9451d1742e	-0.18501523966816208

fc.weight f8 [1, 10]
0	0xbfd38b0e6cd51183	-0.3053623259368338
1	0x3fc41382fdfbfb00	0.1568454494626721
2	0xbfc2af8ab0320306	-0.14598210910119053
3	0x3fc78e03c78f29bc	0.18402144664862685
4	0x3fc9373a6feb4fab	0.19699793305210042
5	0xbf9dd9266063a107	-0.029148673661354454
6	0x3fc9ee9810d4cbe6	0.20259381124341685
7	0xbfcbacd940e4de2d	-0.21621242207196315
8	0xbfd34496a3bd8864	-0.3010613059069611
9	0xbfd2d16dae5321b5	-0.2940324976339313

fc.bias f8 [1]
0	0xbfb0e197b4d59f23	-0.06594226994422718
