Thesis-codes/Exp-1/results-archive/results-1/obs/save_model/0/CNN_best_train_4.pth (torch, 2455 bytes, 6 tensors)

main.0.weight f8 [1, 1, 1]
00000000: e69e 7026 c4ba d6bf
-0.35514930490397345

main.0.bias f8 [1]
00000000: 1570 a89d a79b eb3f
0.8627508239037548

main.3.weight f8 [10, 1]
00000000: 86b5 1f6c 63f7 dcbf 1e53 cae9 e705 be3f
00000010: 7df1 36ad ab9b e93f 0ea9 fa44 5cd6 ddbf
00000020: a90a 9b88 befa 90bf 461a 92c1 eaec b5bf
00000030: 5ee6 39ed aaaa d8bf a317 d9d3 6f14 ee3f
00000040: e2b0 c922 13c8 dfbf 038d 07f8 2ff1 ebbf
-0.45259938773127606 0.11727761705180881 0.8002527602289288 -0.46620852218860953 -0.016581513488527353 -0.08564631677482124 -0.38541672865503596 0.9399947297722416
-0.49658659360171786 -0.873191818649872

main.3.bias f8 [10]
00000000: 794b aa03 8b53 dabf f556 ec11 878a e0bf
00000010: 943a 5afd 4c69 ef3f b44c 83e1 b48e b43f
00000020: 1405 cbbc dd77 f0bf 4483 5b21 f44b e93f
00000030: 9fa3 e208 b28a ddbf 4edd 33f8 bf4f d13f
00000040: 4638 f6e7 cfad c73f 0eed 385d 9e92 b3bf
-0.41134906156474177 -0.5169101095259224 0.9816040943422473 0.0803025293892457 -1.0292641997078293 0.7905216838372344 -0.4615902983446691 0.27049254644903875
0.18499182535419062 -0.07645597244202326

main.4.weight f8 [1, 10]
00000000: 5a1c 7d06 186b c43f 277d 0f7c 8256 c43f
00000010: e40b 6c40 0c13 b03f c534 c1b7 60e9 d5bf
00000020: b436 a766 c258 a4bf 5659 b4b3 4679 b3bf
00000030: 0571 e071 3fd6 b33f 90ec b8db 4ae5 ccbf
00000040: 37b3 3e60 58a0 c1bf ec58 4096 87a4 cebf
0.15951824490386707 0.15889006669656533 0.06279064724735367 -0.3423692507247547 -0.03973968031969602 -0.07606927764240842 0.07748791246598692 -0.2257474491942486
-0.1377058477350148 -0.2393960460328296

main.4.bias f8 [1]
00000000: 5aea 0105 ea2a b03f
0.06315481779339774
