Thesis-codes/Exp-1/results-archive/archive(without scheduler)/results-8/sg5/save_model/2/MLP_1_best_train_10.pth (torch, 1823 bytes, 4 tensors)

fc1.weight f8 [10, 1]
0	0xbfea3242c0000000	-0.8186353445053101
1	0xbfe66959c7aaf60f	-0.700360193229871
2	0x3fec9f7d4a46cafb	0.8944689226831025
3	0x3fe2aa65abcf06c7	0.5833004336966149
4	0x3fe006d43032b835	0.5008336011285396
5	0x3fdeadfe6cbfc2dd	0.479369741630803
6	0x3fd690b170c4ca2e	0.3525813676125463
7	0x3fe582bc8b95c31b	0.6722090460080808
8	0xbfe2307c6c77750c	-0.5684187048424589
9	0xbfe3d3373dd0c6f6	-0.6195331771216093

fc1.bias f8 [10]
0	0xbfd244b600000000	-0.2854437828063965
1	0x3fed59fa516e7ec0	0.9172336187802657
2	0x3fc6d08c9bd60dac	0.17823941811739752
3	0x3fe02ce4e89939bc	0.5054802458706074
4	0x3fe62cd97d1aaa16	0.6929748004379828
5	0x3fe34cdac5fa6643	0.6031316630134785
6	0x3fc83a59cac388f6	0.18928072357727616
7	0xbfc133abffc61be6	-0.13438940037687458
8	0x3ff0f5fced1671b3	1.0600556622731403
9	0x3fd74ac5f3aefeb4	0.3639387969705965

fc2.weight f8 [1, 10]
0	0x3fce77de40000000	0.23803308606147766
1	0xbf9ba6725d112e92	-0.02700213139568903
2	0x3fbaecda9b60fd6e	0.10517660420827266
3	0xbfbcc2245eecf138	-0.11233737294691515
4	0x3fd39b951417a32a	0.30637099229947984
5	0x3fd60db0dcada098	0.3445856242237908
6	0x3f9c891bec2629c5	0.027866779602428133
7	0x3fb199e2db999d77	0.06875436650590482
8	0xbfa3d6e2c0688135	-0.03874882315381215
9	0xbfd97873c3396f9f	-0.39797681870344975

fc2.bias f8 [1]
0	0xbfb219fa9e42a7c0	-0.07070890773562066
